projects/minigrid_repro/data/oversight_levels — копия/policy_759821.pt (torch, 373700 bytes, 6 tensors)

neural_net.1.1.layers.0.weight f4 [256, 100]
00000000: edc6 afbd 1170 833d 42e6 f8bc 3c5a 943b
00000010: ba9d fcbd 3ebc 55be 7b3a 5ebd 0a99 3e3b
00000020: 1c95 39be 0ba3 903d 5c89 223d 6a49 e83d
00000030: 4b2e 1e3c d68a a13d 0eae e13d cb45 613d
00000040: 53c3 593c ff69 b6bb b9b4 ddbc 5d62 bbbd
00000050: 27b3 553c 89b9 55bb a5f0 30bd 420d 0c3d
00000060: d80e 3abe 715b 60bd c9c2 f43b 8446 583d
00000070: 55a6 c5bb 4233 363c 0f54 373c 33fc d53c
00000080: c045 8a3c 65de febb eaa8 b7bd a865 d2bd
00000090: 921d 7a3d a440 11bd b8b4 77bd ac78 463d
000000a0: d6c9 b0bb f787 dc3d 1644 7fbc a904 dcbb
000000b0: c4f2 9ebc eccf 013d c62f 3e3d 583e 953d
000000c0: 763a aebc 1c03 59bc c8fa 21bd 52b1 c7bd
000000d0: 8687 2d3d 9e22 cbbd 7651 f43a 1b25 a13d
000000e0: 0142 903d 2cd6 9fbd b33e 323d 7496 3d3d
000000f0: 0420 cf3d 8e66 d43d dcb7 d33d 2b43 7f3c
00000100: e8a4 343d 0247 56bd dcb2 16bd e613 453c
00000110: f7b3 ef3b 1c8f ddbd 4252 51bd b6a6 a6bd
00000120: 7ee4 89bd c969 a73c 4e56 09bd d1b6 2e3d
00000130: d02e abbc cf8b 7fbd 7e19 1b3d da41 94bc
00000140: 0314 f9bc bc7b d63b de57 583d 6518 6b3d
00000150: 2faf 64bd dba8 563c 22a9 ea3a 82e4 6f3d
00000160: 7531 83bd d3d4 8e3d add6 5c3d a4b9 65bd
00000170: 60fa 793d cb71 8b3d 89fb 953d ef25 aa3d
00000180: 1994 5c3b 5b91 083e 8490 43bd bf90 77bd
00000190: 13dd 0abe f531 a7bd c909 50be 9ac0 2dba
000001a0: 055d 1e3c 852a c1bd 2033 00bd 6651 8ebd
000001b0: 4be0 11bd aa93 aebc 559f 43bd 2ebd 08bd
000001c0: 017d 223e 7b27 ec3d 4740 983d 38e1 dd3d
000001d0: e8c2 7fbd a399 a4bd cdd8 923d c618 56be
000001e0: 00a6 eabd 34d9 e2bd 1ae0 b7bd 4ffc 35be
000001f0: efcd 3cbe afa8 f53c 6fd9 cf3d 7176 6abd
00000200: 60f6 3c3d be4f 8a3d d050 813d fb2e 0bbc
00000210: a375 093d 94df 1c3b 2682 49bd bf58 8c3d
00000220: 9c7b a5bd 1328 603d 72f0 a53d 4370 44bd
00000230: 68a6 273c 9f17 24bd 3370 b8bc 5b63 583d
00000240: f4cd dabd 2149 db3c 1c3b fbbc dd3a 9dbd
00000250: 8c5f a0bd f995 433d 39f1 683c a03c c2bc
00000260: 0c9e 90bd eb08 a739 339f 29bc 85f4 03bd
00000270: a6bd a9bb 5415 37be 88ed d2bd f294 ffbb
00000280: c850 1fbe 1680 a33b 2713 bcbc 8120 cdbc
00000290: 8908 ef3d 55f5 aabc d5cf 8e3d 07ec f43d
000002a0: 19fd f33d d87f 093e bd2b eb3d 10a0 78bd
000002b0: 569a 57bd f9c0 733d fca9 e2bc 8cb0 00bd
000002c0: 9ccb d8ba 76fb 143c fa5e 89bd d714 443d
000002d0: 6d56 92bc 2eb1 2b3b a956 563d 742c 683c
000002e0: 929d 7ebd 11f6 913d f217 693d a4fc 5bbd
000002f0: d849 3c3d 63fd 323d 524a e73c 184c 583d
00000300: 00f6 a7bc bba6 55bd 314d 1fbd 1555 63bd
00000310: 9fd3 0f3d 8df4 933d b49b ac3d a396 873d
00000320: b9c3 99bd ca3e fa3b c554 debd f432 893d
00000330: c627 533d 84b7 4d3d 8cf4 a53d 01c7 6dbe
00000340: 5e39 863d e7a2 d53d 95ef 04bd d264 db39
00000350: 676f 8ebd 4266 a1bd 428a a63d 0536 fa3d
00000360: 93de 91bd ad5a c23d e2ac 02be f3b3 b43d
00000370: 7653 223d f032 093d d9f6 bcbd 2095 5ebd
00000380: 5908 c93d 3e9d 5a3d 88bd 53bd 5a03 3cbd
00000390: 8319 9bbd ec56 cc3c f01d 293d 9519 943d
000003a0: bc80 983d 0af3 38be 35f9 6f3d 3ad8 763a
000003b0: aee9 42bd 0e7d 143e 592f 44be 1bb7 513c
000003c0: 7ad6 d13c 8064 3ebd bfdb 203d a1a3 3ebd
000003d0: 6805 b3bd cb9b 5d3d 323d 493d 4bb0 0dba
000003e0: 36ff 373d 8e7e 4f3d ec31 9a3d e46b 63bd
000003f0: 7d59 433b 0dfb 793d 6cc7 a8bc 26ac cc3d
-0.08582864 0.06417859 -0.030383233 0.0045273583 -0.123347715 -0.2087259 -0.05425499 0.0029082918
-0.18123287 0.07062348 0.039681777 0.113421276 0.009654592 0.07887809 0.110195264 0.0549982
0.013291198 -0.005566835 -0.027063714 -0.09149621 0.0130432015 -0.0032611808 -0.043198247 0.03419233
-0.18169725 -0.054774705 0.0074695093 0.052801624 -0.006031791 0.011120619 0.011189475 0.026121235
0.016878963 -0.0077779763 -0.08967765 -0.10273296 0.061063357 -0.035462037 -0.06047508 0.048454925
-0.0053951545 0.10768121 -0.015580198 -0.0067144227 -0.019402869 0.03169243 0.04643228 0.07287282
-0.02126811 -0.01324537 -0.039545804 -0.09750618 0.042365573 -0.09918712 0.001864 0.078684054
0.07043839 -0.07804522 0.043516826 0.04628606 0.10113528 0.10371123 0.10337803 0.015579979
0.04410258 -0.052313812 -0.036791667 0.01202867 0.0073151547 -0.108183116 -0.051103838 -0.08137266
-0.067330346 0.020436184 -0.033529572 0.042654816 -0.020896345 -0.06238919 0.037866108 -0.018097807
-0.03040505 0.006545512 0.05281817 0.05739631 -0.05583113 0.013101782 0.0017903189 0.05856753
-0.064059176 0.06974187 0.05391567 -0.056085244 0.06102979 0.06808814 0.07323367 0.083080165
0.003365761 0.13336699 -0.047745243 -0.060440775 -0.13560896 -0.081638254 -0.20316233 -0.0006628126
0.009665732 -0.09431938 -0.031298757 -0.06949119 -0.035614293 -0.021310646 -0.047759373 -0.03338354
0.15867998 0.11530968 0.07434135 0.10833973 -0.062441736 -0.080371164 0.07170258 -0.20907888
-0.11457443 -0.110765845 -0.08978291 -0.1777203 -0.18437932 0.029987661 0.10148894 -0.05724186
0.0461334 0.06753491 0.06314242 -0.008495088 0.033559453 0.0023936974 -0.049196385 0.068528645
-0.08080217 0.054725718 0.08102502 -0.047958624 0.010232545 -0.04006159 -0.022514438 0.052829128
-0.10683814 0.026768269 -0.030667834 -0.07677243 -0.07830724 0.047750447 0.014217668 -0.023710549
-0.07061395 0.00031859367 -0.010352897 -0.032215614 -0.0051800786 -0.1787923 -0.10299212 -0.007799738
-0.1555816 0.0049896343 -0.022958351 -0.025039913 0.1167155 -0.020868937 0.069732346 0.11959081
0.11913509 0.13427675 0.11482952 -0.060699522 -0.05263742 0.059510205 -0.027668945 -0.03141837
-0.0016540173 0.009093156 -0.067075685 0.047871437 -0.017863477 0.0026198137 0.05232874 0.014170755
-0.06216199 0.071270116 0.0569076 -0.053707734 0.04596886 0.04369868 0.02823368 0.052806944
-0.020503044 -0.05216096 -0.038891975 -0.055501062 0.035113927 0.07224379 0.084281355 0.066205285
-0.07508034 0.0076368796 -0.10856012 0.06699172 0.051551603 0.050223842 0.08103284 -0.23220445
0.06553911 0.10431462 -0.032455046 0.00041846052 -0.06954842 -0.07880832 0.08131839 0.12217335
-0.07122531 0.09489951 -0.12761262 0.08823385 0.039630376 0.033495843 -0.0922677 -0.054341435
0.09816045 0.053372614 -0.051694423 -0.045901634 -0.07573225 0.024943791 0.041288316 0.07231442
0.07446429 -0.18061462 0.05858727 0.00094163755 -0.047586136 0.1450083 -0.19158687 0.012800003
0.025614966 -0.046482563 0.039272066 -0.046542767 -0.087412655 0.054103654 0.049130626 -0.0005404993
0.044921122 0.0506578 0.07529053 -0.055522814 0.0029807978 0.061030436 -0.020602904 0.09993772

neural_net.1.1.layers.0.bias f4 [256]
00000000: 6275 893c 5724 bdbc bb12 6c3c 53f8 e23c
00000010: a427 053d 0365 7e3c a556 4f3c 4b43 763a
00000020: 718c 7e3c 1d46 9e3c 3a2d ad3b 8c2b 5d3c
00000030: 91f4 b63c 4da8 a53c cd46 613c 6f2b 0d3b
00000040: 5cf4 043d 83ab 073d 48f1 74bb 71d6 c13b
00000050: 6506 0c3c b6d2 b53c e832 ea3c 2ed8 fd3c
00000060: 85f2 0a3c 8c3f c23c a127 023d 0da6 693c
00000070: a380 9a3b efd8 743c b2ee 803c 4c90 ac3c
00000080: 061f ea3c 2526 5f3c 7b54 0839 e210 223c
00000090: d54e a43b 226d 8f3c 0c9d 3b3b a978 b63b
000000a0: cbdd 12bb 0ea7 203c 8390 153d 71f9 b03c
000000b0: d26f 2cbc c8ee bb3c b45e d23c 8c30 fe3a
000000c0: 2a08 bf3b a992 b63c ad60 253d df04 923c
000000d0: 3c1b 8dbb 853e a63c 417f f33c 5ed9 b13c
000000e0: 9be9 083d 1acc 173c 27f0 113d 1faa c53c
000000f0: 5b7d 183c 1333 c53c de30 893c 41ff d63b
00000100: 85f7 203d 9f96 d33c 0caa a13c 4585 803c
00000110: 6175 3a3c d75b 903c 1a6c a93b 4a61 0b3a
00000120: 237f b73c 0297 babb 7adf 8b3c 7138 d23b
00000130: a03f 3f3c eae0 173b 7a9e 4d3c da56 963c
00000140: 712e 543c 9c36 f9ba 5b21 9e3c 98fe 1abc
00000150: e7b2 223d ff95 613c 0174 fa3c b880 a63b
00000160: 80dd d13c bfcc e83b 0689 063d 2788 933c
00000170: ce2a 6d3c f005 b23c d211 ac3c f461 a23c
00000180: 3611 833c 04e4 093d d095 84bc e038 ee3c
00000190: 3409 343c 742a ba3c f0f7 603c ff5d ebbb
000001a0: d392 ee3c 835e de3c 15ba 3b3c d380 c13c
000001b0: 57e0 cc3c c7d2 3d3c ca90 543c ef54 923c
000001c0: 1cb4 a63c 316b 803c be7e 983a 7ab5 6c3c
000001d0: 8cde ae3c 2516 bc3c 309d 94bb 3d9f 913c
000001e0: 4420 993b baa7 ae3c c3b5 393c 5788 d83c
000001f0: 3814 e63c 83ff c13b 0e8f ca3c 2751 c83b
00000200: cdf0 ce3a ffce c13c 0e1c bb3c 03a4 3b3a
00000210: be4a aebc f187 a83c e6fd b03b f2c0 883c
00000220: f048 133d 2283 de3c 56a2 ea3c a3c6 2e3c
00000230: 80bc 913c d728 c43c 46a3 b03c e8f2 933c
00000240: 333d 0c3c 6de9 28bb a2c5 fe3c 0424 393c
00000250: d67f 603c c7b8 733b fe4a 433c a623 983c
00000260: bab9 393c 94b7 db3c a1f5 e03c 130a a53b
00000270: 5936 263d 4da9 0f3d a4db f43b 9842 193d
00000280: 09a3 c13c ae2c a03c 6690 2dbc a2d6 373c
00000290: 9515 803b 0a11 763c e26a 933c bf37 1d3d
000002a0: 7eb6 b73c c768 e73b 8efd 18bb 7fe3 de3c
000002b0: 8e3c 5b3c 838a 603c 76c2 873c 01f8 ce3c
000002c0: b6dc 8b3c 42fe 0b3d dcc8 ec3c e0ac 013d
000002d0: 08b0 253c 9174 d33c 39b9 113d c4c8 b03c
000002e0: a428 a53c c3b3 e03b f7fd 593c 43a9 813c
000002f0: d763 19bb f59e 523c 2064 cb3c 458b e63c
00000300: 5c70 f03b 5292 8c3c dffb c13b c3d3 373d
00000310: 9726 a63c e027 c43c c336 be3c f4d9 e03b
00000320: 4ef4 e93c ce31 813c 185f 873b ab3c 3b3d
00000330: e263 263d 0ef2 a53c e607 af3c a4e9 ec3b
00000340: 6681 943c 9081 d23b 3ee1 203c f8ca 113d
00000350: 5650 553b b0a0 993c a31b 8d3c 04f7 ad3b
00000360: bb5c c93c f355 c83c 7e65 06bc c9ee ac3c
00000370: fe59 823c 2bf9 0f3d 2256 83bb f592 a73c
00000380: fb6a 5c3c 5fb3 483c ee16 4e3c 5163 b73c
00000390: 5bf7 f23b 32d2 b63a a418 963c 77fd b03c
000003a0: c27c 573c c444 07bc 3a2e a03b e31e e03c
000003b0: 3c4c 263c a1ba e13c 114e fb3b d057 873b
000003c0: 4742 103d f595 f03b b1a4 3d3b 1982 c5b9
000003d0: 7143 ea3c d14f 0d3c e534 f0bb e5d2 803c
000003e0: 3b50 373c 40b8 163c 8774 e43b 5ab2 003d
000003f0: 52ab 8a3c 5bc0 fe3c 14dd 34bc 0917 b73c
0.016779605 -0.023088617 0.014408763 0.0277063 0.032508507 0.015527013 0.012654935 0.00093941827
0.0155364135 0.019320542 0.0052849324 0.013499152 0.022333415 0.020221854 0.01374979 0.002154078
0.0324596 0.03312255 -0.003737526 0.005915456 0.008546446 0.022195201 0.028588727 0.030986872
0.008480673 0.023711942 0.031776074 0.014260781 0.0047150417 0.014944299 0.015738819 0.0210649
0.028579246 0.013619934 0.00013001442 0.0098917205 0.0050142803 0.017508093 0.0028627543 0.005568583
-0.002241003 0.009805454 0.03651477 0.021603318 -0.010524707 0.022941008 0.025679924 0.001939313
0.0058298307 0.02228673 0.0403754 0.017824588 -0.004306225 0.020293484 0.029723765 0.021710094
0.03342591 0.00926497 0.035629418 0.024128972 0.009307231 0.024072206 0.016746935 0.0065611904
0.039298553 0.025828658 0.019734405 0.015688548 0.011380524 0.017621918 0.0051703574 0.00053169264
0.02239949 -0.005694271 0.017074335 0.0064154197 0.011672884 0.002317483 0.012549991 0.01835196
0.012950526 -0.0019013467 0.019303015 -0.009460114 0.039721396 0.013768672 0.030572893 0.0050812624
0.025618315 0.0071044858 0.03284552 0.018009258 0.014475537 0.021731347 0.021004591 0.019822098
0.015999418 0.03366472 -0.016184717 0.029079854 0.010988522 0.022725321 0.013730988 -0.007182836
0.029122746 0.027144676 0.01145794 0.023620998 0.025009317 0.011585898 0.0129739735 0.017862765
0.020349555 0.015676113 0.0011634452 0.014447564 0.021346353 0.022959778 -0.00453534 0.017776126
0.004673036 0.021320213 0.011334839 0.0264322 0.028085813 0.005920352 0.024726417 0.0061131897
0.0015788317 0.023658274 0.022840526 0.00071579235 -0.021275874 0.020572634 0.005401361 0.016693566
0.03595823 0.027162138 0.028641861 0.010667476 0.01779008 0.023945255 0.02156223 0.018060163
0.008559513 -0.0025773898 0.031100098 0.011300091 0.013702353 0.0037188993 0.011919735 0.018571686
0.011335785 0.026820935 0.027460875 0.0050366013 0.040579174 0.035073567 0.0074724723 0.037417024
0.023637312 0.019552555 -0.010593509 0.011220606 0.003908823 0.015018711 0.017995302 0.03838324
0.022425886 0.007062051 -0.002334449 0.027208088 0.013381137 0.013704899 0.016572218 0.025264742
0.017073017 0.034178026 0.028904371 0.031659007 0.01011277 0.02581242 0.035577033 0.021580108
0.02016098 0.0068573668 0.013305179 0.01582778 -0.0023405456 0.012855281 0.024828017 0.02814258
0.007337613 0.017159615 0.005919918 0.044879686 0.020282073 0.023944795 0.023219472 0.0068619195
0.028558876 0.015770819 0.004131209 0.045712154 0.0406226 0.020257022 0.021366071 0.0072300006
0.018128108 0.0064241365 0.009819327 0.035593957 0.0032549105 0.01875338 0.017225092 0.0053089876
0.02458035 0.024455046 -0.008202909 0.021109955 0.015912052 0.035149734 -0.0040080706 0.020455817
0.0134532405 0.012249797 0.012578709 0.022386225 0.007414741 0.0013948141 0.018322296 0.021605236
0.013152303 -0.008256141 0.004888323 0.027358478 0.010150012 0.027554812 0.0076692184 0.004130341
0.035219457 0.007342095 0.0028937275 -0.00037671698 0.028596612 0.008624987 -0.0073305243 0.015725562
0.011188562 0.009199202 0.006971899 0.03142009 0.016927395 0.031097582 -0.011039037 0.022349851

neural_net.1.1.layers.1.weight f4 [256, 256]
00000000: d7e4 383c 5eef 99bd 0fa3 32bd 42e5 27bd
00000010: 533e b33d ae2d 093d 5438 3bbd a2da 8e3c
00000020: eab6 a23d 04df 80bd b198 c23d 6e10 023d
00000030: 2a3a 91bc 7432 543a b0d1 cebd bb35 653d
00000040: 04b4 5ebd c375 00bd 19d5 adbd 84d4 0fbe
00000050: fb20 67bd 3bd9 1bbc 7ff5 1abd 8174 433d
00000060: a066 23bb 3019 27be d041 813d 2f91 8d3d
00000070: 8e82 53bd 2f2c 6abd ce48 6cbd 2204 1abd
00000080: 9d92 f23c a864 e7bd ccbe 503c 6359 b43c
00000090: 3fe8 983d 36d3 8d3c 78d6 3f3d ca2c 51bd
000000a0: 02a7 8ebd 1eb4 58bd 187a e4bd 674d 25bd
000000b0: ece3 04bc c7e7 053d c8c5 133d ab4d 0c3b
000000c0: 9605 693d 39c2 763d 2962 b73d ee81 0abc
000000d0: 5bb9 d83b 1c17 35bd 78b4 163d c67f a7bb
000000e0: 7993 3abc 057c 253c f01a 233d 0802 2dbd
000000f0: 82f3 a3bc ec04 10bd 9e22 3bbd 619c c83d
00000100: 1abf 48bc aa2f 123d cd72 36bd db96 56bd
00000110: b5de 8b3d b10b 91bb bbaf d63c 2067 71bd
00000120: 0760 cbbc e10d a33d 6500 5f3b 0be0 ea3c
00000130: eaaf 25bd e48b 413d bc83 71bd 3b02 9fbd
00000140: c79c 4ebd af2f 963c 28bd b2bc 27c6 813d
00000150: 95b0 5dbc 669b b5bc 0043 53bd 59aa 353c
00000160: b1e5 0abc 931f 76bc 2d1e 46bd ddc2 fcbb
00000170: 689a 643c 4f49 8ebd f2d0 9bbd 913f 45bd
00000180: 04b0 b2bb f1f5 08bc 17cb acbc 1738 a23c
00000190: 7292 dcbc eb64 063d 5536 55ba 6c98 8b3d
000001a0: 9841 273c e545 733d 83e7 0a3e a3a1 f53c
000001b0: b7b3 40bc 4339 6b39 d115 0b3c 9756 063e
000001c0: e63a a3bd 749c 233d ffa7 9e3c c29a 87bd
000001d0: e290 86bc 2488 c13c 3596 3dbd b3e8 0abe
000001e0: 39fd 823c d4bd 723d 726c 683d 9c17 163d
000001f0: 5301 75bd 3a29 473d 00d5 75bd c3c3 213d
00000200: 0a84 cf3c 9623 5bbd d1d6 a8bc 6330 183d
00000210: 3c2f 893d 8d25 133c 3a65 e4ba a376 95bd
00000220: a305 c3bc bcda d93d 107b 11bd cda1 b53b
00000230: a145 e5bc c809 0dbb fadc 06bc e0a5 e33c
00000240: 81e4 c7bd 5281 fc3d b8d4 43bd d407 c8bd
00000250: 9aa3 133d 35b9 dc3b 24c4 3cbd 96a4 abbd
00000260: 64f0 d9bd 186d cebd 53d9 86bd 2464 56bd
00000270: 379a 1f3c 8ab1 e73c 87d5 493d 81a7 93bd
00000280: 59d5 103c be1f b13c d7c5 fc3c dae3 063d
00000290: 338e 7d3d 0bf8 9839 2b2f 4cbd c314 f4bd
000002a0: 5250 b33c f5d6 0f3c 2275 54bd 5db2 d3bd
000002b0: b42e 2abd 8591 963b 46fe dbbc 2d5b a73c
000002c0: fb9e 943d 27da a0bd 77a5 60bc 8fb9 5abd
000002d0: 23b8 b03d 37cf 8cbd 60bd cb3d e96c 88bd
000002e0: 5182 373d edc5 edbd d331 28bd 9d58 2bbc
000002f0: f147 933b 8916 833d 828c 1d3d 96e0 ce3d
00000300: 08f4 943d 6390 cd3d 4894 ad3d 56f9 063e
00000310: 5b82 6e3d 6bae 81bc 44de 4dbd 3e7a d53d
00000320: 45fa 1dbd 33e9 7abc 31c3 f5bc dde6 54bd
00000330: d245 313e 20af a23c dc9b 1b3c 0df7 15bd
00000340: acfd 113d fc0f 87bd 5048 cbbc 51f3 8f3c
00000350: 4f80 653c bf0f 1ebe 860c 4bbc 062e cd3d
00000360: 5d47 00bd 8233 adbd 39b5 313d 6fa5 853d
00000370: 8fa1 523c f614 ee3c dbd4 9e3b 002d 083d
00000380: 4813 89bd 9aa3 fc3c a17f 8abb decc af3b
00000390: 5cf3 7e3d 591c 983d a32d c0bc ff92 e93c
000003a0: acb1 a53d 70df 1fbd 3e57 dd3c cd0e 233d
000003b0: 79d4 e1bc d543 e4bd 639c 013d 82b1 8f3d
000003c0: 15d5 f1bc 0ab9 17bd cdbf 23bd 88da d43d
000003d0: 7562 343a 65f5 953d ea95 eebc 9852 c53d
000003e0: f9eb 033d 472e d1bc 3c02 e2bd 87bd b3bb
000003f0: 522b 42bd 6581 6dbb 4e82 253d 5b1f 053e
0.011285028 -0.07516359 -0.043612536 -0.04099012 0.08752122 0.03349083 -0.045708016 0.017438237
0.07945044 -0.06292537 0.0950178 0.03175395 -0.01772793 0.00080946763 -0.100985885 0.055959444
-0.054370895 -0.031362306 -0.08487911 -0.14045912 -0.056427937 -0.009512241 -0.03783178 0.04771853
-0.0024932995 -0.16318202 0.06311381 0.06912457 -0.05163818 -0.057171043 -0.05768662 -0.037601598
0.029610926 -0.112984955 0.012740802 0.02201528 0.074661724 0.017312627 0.046835393 -0.051068105
-0.06965448 -0.052906148 -0.111561 -0.04035702 -0.008110981 0.032691743 0.03607729 0.0021408598
0.056890093 0.06024382 0.089542694 -0.008453829 0.006613893 -0.044211492 0.036793202 -0.0051116673
-0.011387699 0.010100369 0.03982061 -0.042238265 -0.020013575 -0.035160944 -0.04568731 0.09795452
-0.012252593 0.035689987 -0.044543076 -0.05238996 0.06829587 -0.0044264426 0.026206842 -0.05893624
-0.024826063 0.079616316 0.0034027335 0.028671285 -0.040450968 0.04725255 -0.058963522 -0.07764097
-0.050442483 0.018333284 -0.021818712 0.06336623 -0.01353087 -0.022168826 -0.051577568 0.011087977
-0.008477614 -0.015022176 -0.04836862 -0.007713659 0.013952829 -0.06947576 -0.076082125 -0.048156325
-0.0054531116 -0.008359418 -0.021092935 0.019802136 -0.0269253 0.032811087 -0.0008133401 0.068161815
0.01020851 0.05939283 0.13564877 0.029984301 -0.011761597 0.00022432678 0.008489088 0.13118969
-0.07970218 0.039944127 0.019367216 -0.066213146 -0.016426507 0.023624487 -0.046285827 -0.1356533
0.015989887 0.059263065 0.056744047 0.03664361 -0.059815716 0.0486233 -0.060017586 0.039493334
0.025331516 -0.053500734 -0.020610245 0.03715552 0.06698462 0.008981121 -0.0017425187 -0.07298019
-0.023806399 0.106374234 -0.035517752 0.00554297 -0.027987303 -0.0021520723 -0.008231396 0.027789056
-0.097603805 0.123293534 -0.047810286 -0.09767118 0.036044694 0.0067359456 -0.04608549 -0.08381002
-0.10641554 -0.10079402 -0.0658442 -0.052341595 0.0097413575 0.0282829 0.0492759 -0.07209683
0.008839929 0.021621581 0.030856056 0.03293214 0.06190319 0.00029176506 -0.04984967 -0.119180225
0.021888886 0.008779277 -0.05186952 -0.103367545 -0.041548446 0.004594984 -0.026854645 0.020429218
0.072568856 -0.07854109 -0.013711325 -0.05339962 0.08628871 -0.068754606 0.0994823 -0.06661398
0.044802014 -0.11610017 -0.04106314 -0.010458139 0.00449466 0.064007826 0.038464077 0.1010143
0.07273108 0.10037305 0.08475548 0.13181052 0.058229785 -0.01583024 -0.050260797 0.104237065
-0.038568754 -0.015314388 -0.030000301 -0.05197798 0.1731179 0.019858897 0.009497609 -0.03661256
0.03564231 -0.06594846 -0.024814755 0.017572077 0.014007642 -0.15435694 -0.012393123 0.10018544
-0.031318057 -0.0845709 0.043385718 0.065256946 0.012855901 0.02906273 0.0048471517 0.03324604
-0.06693131 0.03083973 -0.0042266403 0.0053649982 0.062243804 0.07427282 -0.023459261 0.028512476
0.08090529 -0.039031446 0.02701914 0.039809037 -0.027567135 -0.111457504 0.031643283 0.07016279
-0.02952055 -0.0370417 -0.039977837 0.10393244 0.00068811263 0.07322196 -0.029124219 0.09634894
0.032207463 -0.025534762 -0.110355824 -0.00548524 -0.047404595 -0.0036240455 0.04040747 0.13000242

neural_net.1.1.layers.1.bias f4 [256]
00000000: d777 11bc c812 5dbb 00dc b2ba a380 513c
00000010: 43b3 903c 6dea 363c 6678 303c a7d2 473b
00000020: 2acd da37 cbf2 9c3b 8b8c 803a 6b58 15b9
00000030: d64f f1bb 6493 bb3a 6cf8 febb 484f d1bb
00000040: e227 77ba 06aa 5b3b 18e7 8c39 d524 c53b
00000050: f26f f4bb 2a6b f8bb b85f 88ba 0570 1fbb
00000060: 40b8 0abc c656 eabb 939d 39bb 2707 25bc
00000070: 8fd2 0f3b df1a 2abc ec46 2fbc 2adf d6ba
00000080: c4ca a039 7888 823b b1d5 1e3b 03b7 5abb
00000090: f888 0bbc 15a2 ebbb 8d3a 22bc 9f5a 0abc
000000a0: 642e 1fbc 30a2 f6bb 5355 6fbb 0eff 893a
000000b0: 38d3 03bc 7b7f 97bb 1cfe 35ba 8410 9ebb
000000c0: c7f4 a539 86fb 84bc 16dc bbbb f54d b7ba
000000d0: 5915 8abb 41f0 9bbb a72b afba 4bf8 2f3c
000000e0: 1a21 053c b8c2 18bb 09d0 893a 6b92 823b
000000f0: f4e1 e7bb b4ee c63b bd4d db3b 9128 a63b
00000100: 4858 bdbb 137b cb39 4972 1bbc 8f24 0dbc
00000110: 1548 f1bb ec30 bfba fe64 47bb 55d9 e0ba
00000120: d95f a8bb eb38 3cbb c02a 093b b993 aabc
00000130: bb0b 173c aaf3 06bc 23af 56bc 68ea 05bc
00000140: 8422 2bbb 89d7 15bb 9199 c1ba d090 08bb
00000150: ca30 0bbc d5d3 393c 28ec d4ba 9682 c9bb
00000160: 780f e839 d489 98bb 4fa6 cbbb 8985 57b9
00000170: 722e 13bb a812 633c 1b90 9b3a 901a 48bc
00000180: 282b bbbb ed55 5938 9a18 363b 8a3b cb3b
00000190: da8f 73bb f29a 973c aa18 66bc fc52 2fbc
000001a0: 79fd 8a3b baad 4bba c268 10bb 9be4 eebb
000001b0: ac57 533c d028 eb3a a61c 45bc 4b4f 2cbc
000001c0: b6eb e7bb d23e 0f3a 9102 feba cf52 d6bb
000001d0: d7f3 12bc 6775 dbb9 f8c5 833b 5b21 26bc
000001e0: 014a e4bb 8dee 613c 79b5 213b ce4b 773b
000001f0: be6e 4a3b 81ab a93a 137c a0bb 0aa7 763b
00000200: cbfb 95ba 156c 04bc b7ae 03bc cc12 2abc
00000210: 387c 77bc cd75 f33b 7a13 9c3a 53e4 72bc
00000220: 1a66 693c ba6b 9cbb 66b1 69bb e661 d4bb
00000230: 1154 603c 7a9f 423b abc0 413b 9f20 7a3b
00000240: f8e9 a83b 0dec 943b b0c8 acbb 19c2 3cbb
00000250: 1dbe 1dbb d340 ff3a cc45 913b 9d01 1aba
00000260: 31cc 69bb eaea 12bc 26d2 a93b 2af7 0cbc
00000270: 68ac 4e3c 6ec3 94bb 3886 9cbb f709 ad3c
00000280: a468 38bc 00de 4d3b bc74 5a3b 5131 3bba
00000290: fdfa 9c3b 4bf0 abbb 408c 2a3c 4833 cebb
000002a0: 21ca 5b3b 74f0 b53c ef4c 19bb 987a 84bb
000002b0: 3003 a3bb 9384 57bb 9874 34bb 40e0 6ebb
000002c0: 8675 8fb9 e508 f53b 583a 143b 94d4 243a
000002d0: 6980 3c3b 7497 3e3b a9b6 1aba e7ef 18bc
000002e0: e125 583c 901a 5d3c 7fde 0bbb 46e3 d1bb
000002f0: 58d3 4ebb 8683 c13a 1e40 553b 1877 5b3c
00000300: 4f5e 31bb 453e 63bc fffa 103b 9b67 4e3a
00000310: 1182 47bc 74d7 ae3a 75ac 0fbc 1f72 e3bb
00000320: fe7b acbb f60d 08bc fab7 5fbb 3244 9dbb
00000330: 872d f83a ee09 ccbb 4389 91bc ec4a 123c
00000340: 3560 e3bb 56bc 07bc bc3b 7dbc 4684 613c
00000350: 8b6a 81bb 1781 79b9 9823 0bbc bc44 6bbc
00000360: fc56 7a3a 905c ad3b ceaf b7bb 6795 aa3a
00000370: d980 e13b 2351 713a dd3d ec3a 67d5 fb3b
00000380: 2323 f43b f04a f7bb 7f23 3fbc 7f1d 87bb
00000390: cd49 da3a 050a 2bbc 4919 29bb f3d6 52b8
000003a0: 1c0d 66bb dc70 99bb b7a2 37bc 792f ecbb
000003b0: e45b 06bc 43a6 5fbc 94d8 e23b 9632 ebb9
000003c0: 7c2c d73b 26c9 b6bb 8369 533c cb74 23ba
000003d0: dbfe 35bc 1ce5 25ba 84a9 8d3b 05bf 2abc
000003e0: 907a e8ba bc74 dabb cd3c 903b dc2d 0cbc
000003f0: 89bf 45bc f8bb a3bb b876 fbbb 99ba 2fbb
-0.00887867 -0.0033733118 -0.0013645887 0.012787017 0.017663604 0.01116429 0.010770893 0.0030490549
2.6083162e-05 0.0047896854 0.000980751 -0.00014242686 -0.0073642535 0.0014310894 -0.007781079 -0.006387625
-0.0009428245 0.003351809 0.0002687506 0.0060163536 -0.007459634 -0.0075811343 -0.0010404503 -0.0024328243
-0.00846678 -0.0071514575 -0.0028322681 -0.010072506 0.002194557 -0.010382383 -0.010698061 -0.0016393412
0.0003066865 0.0039835535 0.0024236257 -0.0033373244 -0.008516543 -0.0071909525 -0.009901655 -0.008444457
-0.00971565 -0.0075266585 -0.0036519363 0.0010528283 -0.008045964 -0.004623351 -0.00069424673 -0.004823746
0.00031653626 -0.016233217 -0.0057330234 -0.0013985025 -0.0042139706 -0.004758865 -0.001336445 0.01074035
0.008125568 -0.002330942 0.001051427 0.0039847395 -0.0070764963 0.006070936 0.0066926167 0.005070754
-0.005778346 0.00038810875 -0.009487697 -0.008614673 -0.007363329 -0.0014586723 -0.0030425186 -0.0017154614
-0.005138379 -0.002872045 0.0020930022 -0.020822393 0.009219105 -0.008236805 -0.013103279 -0.008173563
-0.0026113102 -0.0022864065 -0.0014770498 -0.0020838268 -0.008495519 0.011342009 -0.0016244696 -0.0061496003
0.00044262013 -0.0046551023 -0.006214894 -0.00020553744 -0.0022458103 0.013859428 0.0011868508 -0.012213364
-0.0057119317 5.1816856e-05 0.002778566 0.006202166 -0.00371646 0.0185065 -0.014043966 -0.010700937
0.004241642 -0.0007769723 -0.0022035097 -0.0072904355 0.012899321 0.001794124 -0.012030756 -0.010516952
-0.0070776595 0.0005464378 -0.0019379427 -0.0065406333 -0.008969269 -0.00041858407 0.0040214024 -0.0101397885
-0.0069668298 0.013789785 0.0024674817 0.0037734392 0.0030888761 0.0012944789 -0.0048976033 0.0037636184
-0.0011442838 -0.008082409 -0.008037261 -0.010380458 -0.0151053 0.0074298144 0.001190766 -0.014824945
0.014245534 -0.004773584 -0.0035658716 -0.006481397 0.013691918 0.0029697106 0.0029564302 0.0038166416
0.0051548444 0.004544741 -0.0052729473 -0.0028802215 -0.0024069615 0.0019474275 0.0044333693 -0.0005874874
-0.0035674686 -0.008967141 0.0051825223 -0.00860385 0.012614347 -0.0045398986 -0.0047767423 0.021122916
-0.011255417 0.003141284 0.003333374 -0.00071408326 0.0047906623 -0.005247151 0.010409415 -0.0062927343
0.0033537226 0.022209384 -0.0023391803 -0.0040429346 -0.004974745 -0.0032885417 -0.0027535316 -0.0036449581
-0.00027362647 0.007477867 0.0022617783 0.000628778 0.0028763062 0.0029081972 -0.0005901852 -0.009334541
0.013192625 0.0134951025 -0.0021342335 -0.006405267 -0.0031559076 0.0014763928 0.0032539438 0.013395093
-0.002706427 -0.013869827 0.0022122262 0.0007873715 -0.012177006 0.0013339357 -0.008769144 -0.0069410945
-0.0052638045 -0.00830411 -0.0034136758 -0.0047993893 0.0018934467 -0.0062267696 -0.017765647 0.008928996
-0.006938959 -0.008284649 -0.015456136 0.013764447 -0.0039494685 -0.0002379458 -0.008492373 -0.014359649
0.0009549705 0.0052905753 -0.0056056743 0.0013014496 0.006881815 0.0009205511 0.0018023808 0.0076853517
0.0074504777 -0.007546775 -0.011666178 -0.0041233893 0.0016654074 -0.010439401 -0.0025802425 -5.026809e-05
-0.0035103029 -0.0046826433 -0.011208228 -0.0072078076 -0.008200619 -0.01365048 0.006922791 -0.00044860382
0.0065665822 -0.005578178 0.012903574 -0.000623536 -0.011108126 -0.00063283904 0.0043231864 -0.010421519
-0.0017736722 -0.006666748 0.0044017793 -0.008555856 -0.012069591 -0.004996773 -0.0076740645 -0.0026814102

neural_net.2.weight f4 [4, 256]
00000000: f297 283e 2ab2 ab3d 07bd 8ebe dc8b d5bd
00000010: b809 9a3e f6df 953e 0bbc bfbb 8ebb 953e
00000020: 72f9 d03d 9726 86bd 98d5 52be e447 17be
00000030: e9da 653c bac6 1f3e ed7b 593d b80f 03bd
00000040: 94c1 c23d e056 1ebc ff82 7dbe 85c1 843e
00000050: b549 fabc 3fcf 863d 3c9e b73d 745b 21be
00000060: f2c6 0d3e 037c 4abd bea7 2ebc 558e 3bbe
00000070: 9ffe 09be 3717 f8bb 84f4 a7be 7637 83be
00000080: 4a34 2039 f487 303e 548f cd3c 20db 5abc
00000090: f70f 2a3b 6e0a 233e ccab 9a3d 91de a6be
000000a0: 884e 79be 9bc8 d53c ea3f 4a3e 34f1 433c
000000b0: 53d5 2abe 0b5a 1fbc 5c4f 22be c647 87bd
000000c0: d51e ed3d 17a8 8a3d afcc 9c3d 3978 9bbe
000000d0: 1fb2 ebbb 0458 0c3e 4400 37be a98d 2f3e
000000e0: 088d 58be f07c 1e3e 62fc 43be 94f1 91be
000000f0: 5aac 8c3c f2c3 123e 3705 233e 9f58 75be
00000100: aeb4 ed3d 0efa 36be c7fc 95bc b1fa 9abe
00000110: 89d3 96be be75 f1bd 8ced 88be 0d5f e43d
00000120: e98c fcbd 18fd 89bc fa45 103e 603f fe3c
00000130: 996e 8fbe 3c28 5bbd 235b 3e3e 30db 323c
00000140: 90ff 5f3e aba0 853e 29c8 553e 74ed 14be
00000150: d1fb b1bd 94ac 6a3e e81d 6dbd 42ea d3bd
00000160: 3d42 373e 09cd 10be e3d5 373e 4a4b 94bd
00000170: 69ab 073e 84b4 4bbe db9f f43c 8c4c 7dbe
00000180: 82bb d5bd 6d8a 643e a2cd 51be d47a 493e
00000190: 311c 0b3d 6787 283e 73c7 2a3d 41ab 1e3e
000001a0: 2c9b 1a3e bd90 ff3d 9437 e8bc 432c 1abe
000001b0: 1c10 68bd 62f6 21bd f1d5 ac3c 769c a63d
000001c0: 8403 13bd dfba ca3d c683 21be 49dc 433d
000001d0: c25f b63c e560 14be 6431 903d 3455 94be
000001e0: 3c54 b6bc 8d66 70be 481c 0e3d 8bbe 46be
000001f0: c26c 2e3e 7b88 fdbd 46b0 3bbe 1871 56be
00000200: 590b d2bd 7dec 0f3e bc1a 583d 5ebc b03d
00000210: 2572 d93d f344 673e 6865 c23d 5fe6 483e
00000220: a1d8 87be 10fc 19be 0ce7 e2bd b3a7 1b3e
00000230: 0d7b ec3c f635 6bbe b810 b23d 827e a4bd
00000240: ca99 babe 2f2b 3abd 6189 67be c066 c93d
00000250: 8d75 7bbe 247f 53be a8ad 273e dc3b 143e
00000260: dc10 853e 55c1 e8bd 4ec9 1d3e 249f 0e3e
00000270: 7764 013e 0bf1 183e e14c 27bd 4504 0c3d
00000280: a320 73be 1bc1 19be 264d 463e b1c3 49be
00000290: dd0a 07be bf31 8dbd da82 b93d 867d 9e3d
000002a0: 40ce 013e 5e47 0e3e 2ed8 8f3e d52b b33d
000002b0: 400a 69be 1211 b7bd f525 4e3c ec82 58bd
000002c0: 105e 103e f7a4 9dbd 4010 083e 354a 4ebe
000002d0: 10ef f63d 7c71 c1bd 195d fbbd 0308 73be
000002e0: 6ba2 98bb e2b7 2a3e afcc 0d3e 6fb8 33be
000002f0: 8e67 2abe 9869 313e 8b63 a33e 2e8e 193e
00000300: 8eec d0bd fba8 c8be 4356 313e 3e21 233e
00000310: 98b8 a23d fc10 f7bd e651 fe3d 80ce 75bd
00000320: 80eb 43bd 991a 39be 9f77 1dbd baac a4be
00000330: 36b9 c43d 9da8 ad3d 689a 543d 9914 94bb
00000340: 2d2e 01be e663 69be adea 1f3e 3733 73be
00000350: 7840 9c3a 2359 efbc d4c9 46be 27cd b83d
00000360: fd33 0e3e dbda 893e 087d 85be 0e3f 28be
00000370: e680 f43d 1f1a 013e ea8e 9a3d d252 233e
00000380: 30a3 853e b9c5 823e bb93 073e 10c0 38be
00000390: 8951 a5be b85e 80be 456d 4fbe f38b 0e3e
000003a0: 318d 40be 7fd0 073e f8c3 fa3d 3676 cdbd
000003b0: 1131 bdbd 127b 4cbd 6e76 513e 7073 babd
000003c0: 6304 a83e cf8c c13d 22b9 033e c633 cc3d
000003d0: 118a e73d b33a 9ebd 1e2c aabd 7264 423d
000003e0: 77de 19be fba7 3bbe 0a67 46be e130 f73d
000003f0: b9b5 813c ce67 cabd dd25 35be e48b 04be
0.16464213 0.083835915 -0.2787859 -0.10427067 0.3008554 0.2927243 -0.005851274 0.29244655
0.10203828 -0.06550329 -0.20589292 -0.14773518 0.014029243 0.15603152 0.0530967 -0.031997412
0.09509578 -0.009664267 -0.24757002 0.25928894 -0.030552724 0.06582498 0.08965728 -0.15757543
0.13845423 -0.049434673 -0.01066011 -0.18316014 -0.13476036 -0.007571127 -0.32803738 -0.2562825
0.00015278268 0.17239362 0.025092758 -0.0133579075 0.0025949457 0.15921947 0.07552299 -0.3259168
-0.24346364 0.026096633 0.19750944 0.011959363 -0.16682939 -0.009726058 -0.15850586 -0.066054866
0.11578146 0.06770342 0.07656228 -0.3036516 -0.0071928645 0.1370545 -0.17871195 0.17143883
-0.21147549 0.15477347 -0.19139245 -0.28504622 0.017172027 0.1433256 0.15919958 -0.23959588
0.116067275 -0.17868826 -0.01830901 -0.30269387 -0.29458264 -0.11790036 -0.26743734 0.11150942
-0.12331564 -0.016844317 0.14089194 0.031036079 -0.28014067 -0.053505167 0.18589453 0.010916516
0.21874833 0.26099142 0.20877136 -0.14543706 -0.08690608 0.22917396 -0.05788985 -0.103474155
0.17896362 -0.14140715 0.17952685 -0.07240923 0.13248982 -0.1989308 0.029861381 -0.24736232
-0.10436155 0.2231843 -0.20488599 0.19675761 0.033962432 0.16457902 0.041694116 0.15495016
0.15098256 0.124787785 -0.028346814 -0.15055947 -0.056655988 -0.03954161 0.021098109 0.08135311
-0.035892025 0.09898924 -0.15772924 0.047817502 0.022262458 -0.14490087 0.070406705 -0.28971255
-0.022256963 -0.2347662 0.03469494 -0.19408624 0.17033675 -0.12379547 -0.18328962 -0.2094158
-0.10256071 0.14055057 0.05275987 0.08629678 0.106174745 0.22584896 0.09491998 0.1961913
-0.26532462 -0.1503756 -0.11079225 0.15200691 0.028867269 -0.22969803 0.08694595 -0.08031942
-0.36445457 -0.04545134 -0.22611 0.09834051 -0.24556561 -0.20653969 0.16374838 0.1447596
0.25989425 -0.11365 0.15408823 0.13927895 0.1263598 0.149357 -0.0408448 0.03418376
-0.23742919 -0.1501507 0.19365367 -0.19703557 -0.13187738 -0.06894254 0.09058161 0.077387854
0.12676334 0.13894412 0.2809462 0.08748595 -0.22757816 -0.08938803 0.012582292 -0.05285923
0.14098382 -0.0769748 0.13287449 -0.20145495 0.12057316 -0.094454736 -0.12273616 -0.23733525
-0.0046580336 0.16671708 0.13847612 -0.17550825 -0.16641065 0.17325437 0.31911883 0.14995643
-0.10201369 -0.39191422 0.17318062 0.1593065 0.07945365 -0.120637864 0.12417965 -0.060011387
-0.047832012 -0.18076552 -0.038444158 -0.3216303 0.09605639 0.08479426 0.051905066 -0.004519057
-0.12615271 -0.22792014 0.15616865 -0.23750006 0.0011921069 -0.029217308 -0.19412929 0.09023505
0.1388702 0.26924786 -0.26071954 -0.16430303 0.11938648 0.1260762 0.0754679 0.15949562
0.26101065 0.25541475 0.13239948 -0.18042016 -0.3228877 -0.25072265 -0.20256527 0.13920574
-0.1880386 0.13263129 0.12244409 -0.100323126 -0.09237874 -0.049922056 0.20455334 -0.09104049
0.32815847 0.09450685 0.12863591 0.099708125 0.11305631 -0.0772604 -0.08309196 0.047459073
-0.1502627 -0.18325798 -0.19375244 0.1206987 0.015833722 -0.098830804 -0.17690225 -0.12943989

neural_net.2.bias f4 [4]
00000000: 4c5a 1a3b 7438 a3bb 4d51 033c c2b8 b1bb
0.0023552356 -0.004981095 0.008014989 -0.005423636
