projects/minigrid_repro/data/oversight_levels/policy_246051.pt (torch, 373700 bytes, 6 tensors)

neural_net.1.1.layers.0.weight f4 [256, 100]
0	0xbd8af17d	-0.067843415
1	0xbcea10a2	-0.028572384
2	0xbde5e118	-0.11224574
3	0x3c2ca046	0.010536259
4	0x3c9a1abd	0.018811578
5	0xbd306545	-0.04306533
6	0x3d7e93f3	0.062152814
7	0x3d44b523	0.048024308
8	0x3d1ca169	0.03823987
9	0x3d7ff5f2	0.06249041
10	0x3d0a1fd3	0.033721756
11	0xbd604a40	-0.05475831
12	0x3cfab3f2	0.030603383
13	0x3dcfaeb9	0.101407476
14	0x3d9ea305	0.07745937
15	0xbca5bb2a	-0.020230848
16	0xbccf2a73	-0.025288796
17	0x3a00cc48	0.0004913253
18	0x3d1989d8	0.037484974
19	0x3d98bf6f	0.07458388
20	0xbcf13bd5	-0.029447475
21	0xbc810797	-0.01575069
22	0x3d21b034	0.03947468
23	0xbc71962a	-0.014745275
24	0xbcd92fda	-0.026512075
25	0xbdb91e44	-0.09038976
26	0x3d0d6bc6	0.03452661
27	0x3d2b269d	0.04178487
28	0xbc452308	-0.012032278
29	0x3c9a5e2c	0.018843733
30	0x3dd2c8c0	0.10292196
31	0xbc6e83d8	-0.014557801
32	0x3d63a8dc	0.05558096
33	0x3da159c6	0.07878451
34	0x3d196661	0.03745115
35	0x3ca09632	0.019602869
36	0x3d039291	0.0321222
37	0x3c06b278	0.008221261
38	0x3d409f29	0.047026787
39	0xbd9db86d	-0.07701192
40	0x3dbfa7b4	0.09358159
41	0x3cfab853	0.03060547
42	0xbd460c6d	-0.048351694
43	0xbdac8fa4	-0.08425835
44	0xbdde7aae	-0.10863243
45	0xbc22950f	-0.009923234
46	0x3d15424b	0.036440175
47	0x3d8df636	0.06931727
48	0xbd318ac6	-0.043345235
49	0xbd5012c9	-0.050799165
50	0x3d2c5a35	0.042078216
51	0xbc3a79fb	-0.0113816215
52	0x3d99d069	0.07510454
53	0x3de63069	0.11239702
54	0xbd117b1e	-0.035517804
55	0x3d0c236b	0.034213465
56	0x3d4e040b	0.050296824
57	0x3d889884	0.06669715
58	0x3d3b9b63	0.045802485
59	0x3da8a6ca	0.082349375
60	0x3bdfeed2	0.0068338895
61	0x3dbd7a68	0.09251863
62	0x3c6a511d	0.0143015655
63	0x3d554424	0.052066937
64	0x3d31011e	0.043213956
65	0x3bd23642	0.0064151594
66	0x3d3a0c82	0.045422085
67	0xbd1a9e3f	-0.03774857
68	0x3d917439	0.07102246
69	0xbda1ae8f	-0.078946225
70	0xbdacd78a	-0.08439548
71	0x3b552305	0.0032522094
72	0x3d28bd1d	0.041195977
73	0xbdd1bee8	-0.102414906
74	0xbc4ae3bb	-0.012383397
75	0xbd8fcb94	-0.07021251
76	0xbce206c9	-0.027591126
77	0x3d9518e7	0.0728014
78	0x3cd559d9	0.02604382
79	0x3bb14d49	0.0054108244
80	0xbdb03b15	-0.08605019
81	0xbc2ab65f	-0.010419457
82	0xbcd07ea3	-0.02545101
83	0xbdb55548	-0.08854157
84	0x3cf8f901	0.030392172
85	0x3d25c84e	0.04047423
86	0xbc5073aa	-0.012722889
87	0x3d0f513e	0.034989588
88	0xbdb22834	-0.086990744
89	0x3d97fd13	0.07421317
90	0x3dafa938	0.08577198
91	0xbd273ad7	-0.0408276
92	0xbcdefb85	-0.027219543
93	0x3dbcb4fc	0.092142075
94	0xbaa853f9	-0.0012842409
95	0x3d0dbec0	0.03460574
96	0x3d2d7c44	0.042354837
97	0xbd4d5169	-0.050126467
98	0xbd2ccdc4	-0.04218842
99	0xbce7facb	-0.02831783
100	0xbca14d0a	-0.019690055
101	0xbdad4f37	-0.08462375
102	0x3de413cb	0.11136588
103	0x3da052ce	0.07828294
104	0xbda8321b	-0.08212682
105	0xbc8d9708	-0.017283931
106	0xbc64b3b2	-0.013958858
107	0x3d3352cc	0.043780133
108	0x3d189d3d	0.03725933
109	0x3dbb010a	0.091310576
110	0xbbb8dd6d	-0.0056416304
111	0xbcbb00ad	-0.02282747
112	0x3bea4a08	0.0071499385
113	0x3d8da533	0.06916275
114	0x3d46912c	0.04847829
115	0x3d893dec	0.06701264
116	0xbd60d7c2	-0.054893263
117	0x3d8a7880	0.06761265
118	0xbcf75b8c	-0.03019502
119	0xbdc1f04f	-0.09469663
120	0x3d63ed5e	0.055646293
121	0xbe06dc6a	-0.13170019
122	0xbddde526	-0.10834722
123	0x3bda1c11	0.006656178
124	0xbda17d09	-0.07885177
125	0x3d71cae8	0.059031397
126	0xbd463689	-0.048391853
127	0xbcb8dc4e	-0.022565987
128	0xbd38fc06	-0.045162223
129	0x3cd3ac17	0.025838895
130	0xbccab132	-0.024742696
131	0xbd810503	-0.06299784
132	0xbd438438	-0.047733516
133	0x3d7c0c91	0.06153542
134	0xbbae59f8	-0.0053207837
135	0x3dccaa81	0.099934585
136	0xba9e5c60	-0.0012081973
137	0x3d55c18b	0.05218653
138	0x3c6d1bc6	0.014471954
139	0x3c96ba5a	0.018399406
140	0x3dda39cf	0.10655557
141	0x3dc85949	0.09782655
142	0xbd8597b0	-0.06523073
143	0xbd834ac8	-0.06410748
144	0x3c1ecfd9	0.009693109
145	0xbd4f51fa	-0.05061529
146	0xbc0bab98	-0.008524798
147	0xbd0b8cae	-0.03406971
148	0x3d3de6c2	0.046362646
149	0xbda7d452	-0.08194794
150	0xbd5fc6f8	-0.05463311
151	0x3c852e17	0.016257329
152	0x3d31839d	0.043338407
153	0xbdf347d2	-0.11878933
154	0xbcf227d9	-0.029560016
155	0x3da6b1a2	0.081393495
156	0xbd8ca1ce	-0.06866799
157	0x394f597d	0.00019774395
158	0xbcee140d	-0.029062295
159	0xbcdda616	-0.027056735
160	0xbd7a2bb5	-0.06107684
161	0x3b1095ad	0.002206187
162	0x3d936f3a	0.07198949
163	0xbcf03c27	-0.029325558
164	0x3dbaecc8	0.09127194
165	0x3df3b9fc	0.11900708
166	0xbdb177fb	-0.086654626
167	0x3ddaf3b0	0.10691011
168	0x3dc0a894	0.09407154
169	0x3d987cc4	0.07445672
170	0x3dd5a38c	0.10431585
171	0x3dd918fa	0.10600467
172	0xbca56261	-0.020188512
173	0x3e02dc77	0.12779413
174	0x3c862759	0.016376184
175	0x3d6d1018	0.057876676
176	0x3ca09f0b	0.019607088
177	0x3dbc7679	0.09202284
178	0x3dc367e7	0.09541302
179	0x3cda1dc3	0.02662552
180	0x3db4e0ff	0.08831977
181	0x3dccce42	0.10000278
182	0x3dbe29de	0.09285329
183	0xba18599f	-0.00058116944
184	0xbd8a8b17	-0.067648105
185	0xbd525ce7	-0.05135813
186	0x3d0e1578	0.034688443
187	0x3db836e0	0.089948416
188	0x3da7b6c1	0.081891544
189	0xbd909102	-0.07058908
190	0xbd8e7a58	-0.06956929
191	0xbdbb95fa	-0.09159465
192	0xbcf1496e	-0.02945396
193	0xbdb95b8e	-0.09050666
194	0xbdc9660c	-0.09833917
195	0x3d948f9b	0.07253953
196	0xbccdda32	-0.025128458
197	0x3cb80e8d	0.022467876
198	0xbdd1602d	-0.10223422
199	0x3d7562ac	0.059908554
200	0xbcb3f5f6	-0.02196787
201	0x3d9df5c7	0.07712894
202	0xbdb85599	-0.090007015
203	0xbcb328da	-0.021870065
204	0xbd8845a2	-0.066539064
205	0xbd810ff0	-0.06301868
206	0x3d1ede17	0.03878602
207	0x3dd8b3bc	0.105811566
208	0x3be9a2c6	0.00713
209	0x3d4f06fc	0.05054377
210	0x3d080c06	0.03321459
211	0x3d7a2229	0.061067734
212	0x3df22a70	0.118245006
213	0x3de1982c	0.110153526
214	0x3d812fe0	0.063079596
215	0xbbe8a810	-0.0071001127
216	0x3c767e4b	0.015044759
217	0x3d21d0e2	0.039505847
218	0x3d8543a9	0.06507046
219	0xbe1c5679	-0.15267362
220	0xbd8ef3aa	-0.06980069
221	0xbdb6f304	-0.0893307
222	0x3c4c1322	0.0124557335
223	0xbd9e6ce3	-0.07735612
224	0xbd9ff7ec	-0.07810959
225	0x3d8b4103	0.067995094
226	0xba2e97ae	-0.0006660175
227	0xbc9d6186	-0.019211542
228	0x3d9f0787	0.077651076
229	0x3dbda692	0.092602864
230	0x3d96837d	0.07349298
231	0x3cb2af76	0.021812182
232	0x3ceb627f	0.02873349
233	0xbd818c5e	-0.06325601
234	0x3cdb9026	0.026802134
235	0xbd9f18cf	-0.07768404
236	0xbd7b190e	-0.06130319
237	0xbd0aba71	-0.03386921
238	0xbb3e97a7	-0.002908209
239	0xbd89675b	-0.067091666
240	0x3d5558eb	0.052086752
241	0xbb63eaf1	-0.0034777487
242	0x3d77ab0e	0.060465865
243	0x3d67b1ec	0.056566164
244	0xbac1ba86	-0.001478032
245	0x3a99e4af	0.0011741127
246	0xbd26221f	-0.040559884
247	0xbd357b93	-0.044307303
248	0x3daa043e	0.083015904
249	0xbd09fc54	-0.033687904
250	0xbdb6db58	-0.08928555
251	0xbd38e2c9	-0.045138154
252	0xbde4dfd7	-0.111755066
253	0xbdc5b513	-0.09653678
254	0xbcc993dd	-0.02460664
255	0xbc8b8439	-0.017030822

neural_net.1.1.layers.0.bias f4 [256]
0	0x3c401b83	0.011725309
1	0x3cf84a1e	0.03030878
2	0x3b922e03	0.0044610514
3	0x3ccb9d15	0.024855176
4	0x3cc212b6	0.023690563
5	0x3cd2b128	0.02571924
6	0x3c1ee209	0.009697446
7	0x3c48ac52	0.012248116
8	0x3d008be2	0.031383403
9	0x3cd832cc	0.02639141
10	0x3cd89c42	0.026441697
11	0xbb330d4b	-0.0027321156
12	0x3c4e9820	0.012609512
13	0x3c899f27	0.016799523
14	0x3d08aa28	0.0333654
15	0x3cc9531f	0.024575768
16	0x3c1b1de7	0.0094675785
17	0x3c981ada	0.018567491
18	0x3cd6db95	0.026227752
19	0x3cd4e1af	0.02598652
20	0x3c441791	0.011968509
21	0x3c41752f	0.011807724
22	0x3c3836c4	0.011243526
23	0x3cd45b73	0.025922513
24	0x3cbeada1	0.023276152
25	0x3c3d0bbf	0.011538445
26	0x3c99e5b1	0.018786283
27	0x3c45e35b	0.012078132
28	0x3cef3486	0.02919985
29	0x3ba758b3	0.0051070093
30	0x3cc50cf4	0.024054028
31	0x3c99b7a6	0.018764328
32	0x3d02be02	0.031919487
33	0x3ca221c3	0.01979149
34	0x3cad77e2	0.021175329
35	0x3cc277e3	0.023738807
36	0x3ca53a8e	0.020169523
37	0x3c8db8ba	0.017299999
38	0x3c55c088	0.013046391
39	0x3c99cb73	0.01877377
40	0x3c412ead	0.0117909135
41	0x3c784b54	0.015154678
42	0x3d256b1c	0.04038535
43	0x3d1d981f	0.038475152
44	0x3c4f4fa9	0.01265327
45	0x3c357934	0.01107626
46	0x3ca18185	0.01971508
47	0xb9fba70d	-0.00047998913
48	0x3c8b956d	0.017039025
49	0x3c99bfbd	0.018768186
50	0x3cb83235	0.022484878
51	0x3ccad45b	0.024759462
52	0x3bde0c0e	0.0067763394
53	0x3c6c14ee	0.014409287
54	0x3c06ec91	0.008235113
55	0x3bde370d	0.006781465
56	0x3cc090dd	0.023506576
57	0x3d1550ca	0.036454
58	0x3d03238b	0.03201632
59	0x3cee1759	0.029063867
60	0x3ccdb04f	0.025108485
61	0x3b22ba0b	0.0024830129
62	0x3bed6fde	0.0072460016
63	0x3b983d9b	0.004646016
64	0x3c1245e5	0.008927797
65	0x3b5ac716	0.0033382825
66	0x3c4b169e	0.012395529
67	0x3ca4150b	0.020029565
68	0x3d046ad7	0.032328453
69	0x3c986edc	0.01860755
70	0x3c25cd84	0.0101197995
71	0x3be9652a	0.0071226554
72	0x3c9ca1c9	0.019120114
73	0x3c503492	0.012707846
74	0x3c44863b	0.011994894
75	0x3b82f7a9	0.0039968085
76	0x3cae7f81	0.021301033
77	0x3c9c1b10	0.019055873
78	0x3ceb49b2	0.028721664
79	0x3caa1128	0.020760134
80	0x3cc69258	0.024239704
81	0x3c7a7b0b	0.015288125
82	0x3c34f1fc	0.011044022
83	0x3c772518	0.015084527
84	0x3cf7adf3	0.030234313
85	0x3cd37699	0.025813388
86	0x3c8909ed	0.016728366
87	0xbb10bf38	-0.0022086632
88	0x3ca5d0e9	0.020241218
89	0x3c5f0a2e	0.013613267
90	0x3ca201b8	0.01977621
91	0x3c9d91ba	0.019234527
92	0x3c6cb68b	0.0144478185
93	0x3bf5d7c1	0.0075025265
94	0x3c2bf8f9	0.010496371
95	0x3cc60241	0.024170997
96	0x3ce68dc3	0.02814377
97	0x3b2f7981	0.0026775303
98	0x3cefeeab	0.02928861
99	0x3cc152b3	0.023599004
100	0x3cc72d23	0.024313515
101	0x3cd883db	0.026430061
102	0x3d013280	0.0315423
103	0x3ccd9955	0.025097528
104	0x3cfb69f0	0.030690163
105	0x3c5af9ce	0.013365222
106	0x3c6382cc	0.013886165
107	0x3d02f224	0.031969205
108	0x3cd93d59	0.02651851
109	0x3cc8be62	0.024504844
110	0x3c7c54f4	0.015401114
111	0x3c931003	0.01795197
112	0x3c63bd95	0.01390018
113	0x3c0c0e8d	0.008548391
114	0x3d0bd712	0.034140654
115	0x3c861cc7	0.016371144
116	0x3c5d2cd1	0.013499455
117	0x3b3167f1	0.002707001
118	0x3cd09826	0.025463175
119	0x3ad4c102	0.0016231837
120	0x3c3567c6	0.011072105
121	0x3c6726b7	0.014108351
122	0x3ccef1d8	0.025261804
123	0x3cf99bcf	0.030469803
124	0x3c290d96	0.010318181
125	0x3c2fb9c7	0.010725445
126	0x3b96c956	0.004601638
127	0x3c98ed28	0.018667772
128	0x3ca5b44e	0.020227578
129	0x3ccd828a	0.02508666
130	0x3cb5f9d5	0.022213856
131	0x3c859f10	0.016311198
132	0x3ccf8a78	0.025334582
133	0xba552e24	-0.00081321807
134	0x3c599837	0.01328092
135	0x3b1fb23b	0.0024367708
136	0x3cefeb5b	0.02928703
137	0x3ccfe6ee	0.02537867
138	0x3c79613c	0.015220936
139	0x3c863231	0.016381355
140	0x3cbc84db	0.02301257
141	0x3c9d0ea1	0.019172015
142	0x3c5f43ec	0.013627034
143	0x3cc222ba	0.0236982
144	0x3b24ffdd	0.002517692
145	0x3c4d349a	0.012524748
146	0x3c7a5d41	0.0152810225
147	0x3cea6d20	0.028616488
148	0x3cbcf9e5	0.023068378
149	0x3cb3d1ad	0.021950567
150	0x3c5d48be	0.013506113
151	0x3c9b89d6	0.018986624
152	0x3c530b47	0.012881107
153	0x3cb7e7b7	0.022449357
154	0x3c76ef4c	0.015071701
155	0x3c825fd6	0.015914839
156	0x3cab3c8e	0.020902898
157	0x3b9746ff	0.0046166177
158	0x3bcafe98	0.0061949007
159	0x3cf2e287	0.029649032
160	0x3d19816e	0.03747695
161	0x3af85eaf	0.0018949116
162	0x3cb8793b	0.022518745
163	0x3c673b69	0.014113286
164	0x3c78705e	0.015163509
165	0x3cf70013	0.030151403
166	0x3cdcf4fc	0.026972286
167	0x3d00afbb	0.03141759
168	0x3cc3f74b	0.02392163
169	0x3c9312cb	0.017953297
170	0x3c717ffd	0.014739987
171	0x3cce1d8a	0.02516057
172	0x3cea08a7	0.028568579
173	0x3ca1a822	0.019733492
174	0xbb826fc8	-0.0039806105
175	0x3c2904c5	0.010316079
176	0x3ccd6dad	0.025076712
177	0x3ca1b0d0	0.019737631
178	0x3b906521	0.0044065868
179	0xbb0043a0	-0.0019571558
180	0x3cca8620	0.024722159
181	0x3cc68dff	0.02423763
182	0xbb285a1d	-0.0025688477
183	0x3bdc753a	0.0067278417
184	0x3c632eb1	0.013866113
185	0x3cbf9d5e	0.023390468
186	0x3ccd05f4	0.025027253
187	0x3c3f9ed3	0.0116955815
188	0x3c93b881	0.018032314
189	0x3cde6bf3	0.027151084
190	0x3c167f73	0.00918566
191	0x3cb8335a	0.022485424
192	0x3ce587ec	0.028018914
193	0x3c8dee4f	0.017325548
194	0x3cab1c7d	0.020887608
195	0x3bbaf295	0.0057051876
196	0xbc88d23a	-0.016701806
197	0x3c74618a	0.014915833
198	0x3c729813	0.014806765
199	0x3cbabe9d	0.02279597
200	0x3cd3aeaa	0.025840122
201	0x3c12340f	0.008923545
202	0x3cb81588	0.022471204
203	0x3bc29500	0.0059381723
204	0x3c8acbcc	0.016942881
205	0x3ba286a5	0.0049598985
206	0x3c99bed3	0.01876775
207	0x3c8e27fe	0.017353054
208	0x3c6e194f	0.014532401
209	0x3d18d96d	0.03731673
210	0x3cc48783	0.023990398
211	0x3a457d26	0.0007533602
212	0x3d027d0b	0.03185753
213	0x3bf23eb7	0.00739273
214	0x3c555af8	0.013022177
215	0x3c81a3c8	0.015825167
216	0x3bb69dec	0.005573025
217	0x3ce9efd2	0.028556738
218	0x3d14b222	0.036302693
219	0x3bdbe2b9	0.006710377
220	0x3cb1061d	0.02160936
221	0x3d08722c	0.033312008
222	0x3c33b388	0.010968097
223	0x3c8c6781	0.017139198
224	0x3d043d32	0.032284923
225	0x3c90f07f	0.017692802
226	0x3ca87279	0.020562397
227	0x3c862803	0.016376501
228	0xbb41a1ee	-0.002954598
229	0x3c59314d	0.013256383
230	0x3cd909be	0.026493903
231	0x3c9b279e	0.01893979
232	0x3ca14a76	0.019688826
233	0x3cd60393	0.026124751
234	0x3c8668c8	0.016407385
235	0x3b83b0d9	0.0040188846
236	0x3ca58ae0	0.020207822
237	0x3cd721ea	0.026261289
238	0x3c92733b	0.017877212
239	0x3c8239bd	0.015896672
240	0x3ca65fa4	0.020309277
241	0x3c356656	0.011071762
242	0x3c96d337	0.018411262
243	0x3c5d543d	0.0135088535
244	0x3d0266fb	0.03183649
245	0x3c7fab8b	0.015604864
246	0x3cc28154	0.02374331
247	0x3cca6fb9	0.024711477
248	0x3c80bbb0	0.015714496
249	0x3cbfcfc9	0.02341451
250	0x3cd4fee9	0.026000457
251	0x3c9fb046	0.019493233
252	0x3beec945	0.007287177
253	0x3c80c19f	0.015717326
254	0x3c89f9bb	0.016842714
255	0x3cb3620b	0.021897336

neural_net.1.1.layers.1.weight f4 [256, 256]
0	0xbbd367e4	-0.0064515937
1	0xbd057b7b	-0.032588463
2	0x3d22810f	0.03967386
3	0x3d6d55d0	0.057943165
4	0x3c940e80	0.01807332
5	0x3b652710	0.003496591
6	0xbd89ac4b	-0.067223154
7	0x3c365528	0.011128701
8	0xbd45b5b0	-0.048268974
9	0x3ce74b39	0.028234111
10	0xbcfa73d1	-0.030572804
11	0x3d54df4f	0.051970776
12	0x3d4983bd	0.0491979
13	0x3d7408e8	0.059578806
14	0x3ce3ca29	0.027806358
15	0x3ab2df8c	0.0013646944
16	0xbbf9afc0	-0.007619828
17	0x3c84c2c4	0.016206153
18	0x3d6356a7	0.05550256
19	0xbd3ccf52	-0.046096154
20	0xbd0faf1b	-0.035079103
21	0xba417091	-0.00073791394
22	0x3d006a87	0.031351592
23	0x3d03e96e	0.032205038
24	0xbca5e965	-0.020252893
25	0x3cca38f3	0.024685359
26	0xbc78207f	-0.015144466
27	0xbcf97968	-0.030453399
28	0x3d645835	0.055748183
29	0xbd70f9e9	-0.058832083
30	0xbc81eb4f	-0.015859274
31	0x3cbc4afb	0.022984972
32	0x3d9aeccd	0.075646974
33	0x3d8ca1ba	0.068667844
34	0x3c17befa	0.009261841
35	0xbd4434f4	-0.047902063
36	0xbb62ea52	-0.003462453
37	0xbd142332	-0.036166377
38	0xbd2841b5	-0.041078288
39	0x3c22b427	0.009930647
40	0xbd4a9407	-0.049457576
41	0x3d3ee543	0.04660536
42	0x3a1013d8	0.0005496121
43	0x3c959da6	0.01826365
44	0x3cfbc390	0.0307329
45	0xbcca5ca2	-0.024702374
46	0xbb708f9b	-0.003670669
47	0x3c9604d5	0.018312851
48	0x3d29dea1	0.04147208
49	0x3c101711	0.008794562
50	0xbd5560b8	-0.05209419
51	0xbd6554da	-0.055989124
52	0xbd26e593	-0.040746283
53	0x3d91b1fe	0.071140274
54	0x3d29aa0c	0.041421935
55	0x3c969ead	0.01838621
56	0x3d90c9d0	0.07069743
57	0x3d775256	0.060381256
58	0xbd6dba08	-0.05803874
59	0x3d484939	0.048897956
60	0xbc16d24e	-0.009205414
61	0xbc74b7e8	-0.014936425
62	0xbbd15753	-0.0063885837
63	0xbd04c59e	-0.032415025
64	0x3c02b97c	0.007978793
65	0x3d6acdc5	0.057325143
66	0xbd202633	-0.03909893
67	0x3beae5b7	0.0071684974
68	0xbb113861	-0.0022158849
69	0x3d4767fd	0.048683155
70	0x3c25a971	0.010111199
71	0x3cb9fab4	0.022702552
72	0xbd036082	-0.03207446
73	0x3d7ddb15	0.06197651
74	0xbd2452d2	-0.040118046
75	0x3b88ddda	0.0041768374
76	0x3b083de5	0.0020788845
77	0x3c4e93c5	0.012608473
78	0xbc114ce7	-0.008868433
79	0xbce6253e	-0.02809393
80	0x3c346bbe	0.011012016
81	0x3d38dfc3	0.04513527
82	0xbd2b86a0	-0.041876435
83	0x3d20b176	0.03923174
84	0xbd87a97a	-0.06624122
85	0x3d29100b	0.041275065
86	0xbb48b85e	-0.003062747
87	0xb9a0b18e	-0.00030649867
88	0x3d619cbc	0.055081114
89	0x3d2c4592	0.042058535
90	0x3c37b610	0.011212841
91	0x3db94abf	0.0904746
92	0x3cbec038	0.023285016
93	0x3c89dbcd	0.016828442
94	0xbc5860d3	-0.013206678
95	0x3d4bb512	0.04973323
96	0x3c36217b	0.011116381
97	0xbd206259	-0.03915629
98	0xbd6acbab	-0.05732314
99	0xbd57faf3	-0.05272956
100	0xbd295d87	-0.04134896
101	0x3d67b0cb	0.056565087
102	0x3d4e9281	0.050432686
103	0xbcf3b168	-0.02974768
104	0x3d8fec40	0.07027483
105	0x3cb3a849	0.02193083
106	0xbcae2d33	-0.021261787
107	0x3d5d5744	0.0540383
108	0xbca38900	-0.019962788
109	0x3d1f5501	0.038899425
110	0x3d4507db	0.048103195
111	0xbc80829a	-0.015687276
112	0x3d0722c8	0.032992154
113	0xbc596861	-0.013269515
114	0xbd6c21b6	-0.057649337
115	0x3cab5450	0.020914227
116	0x3c90b418	0.017664
117	0x3d49068f	0.04907852
118	0xbd874341	-0.066046245
119	0xbd4e9a81	-0.050440315
120	0x3db96281	0.09051991
121	0x3c854ab9	0.016270982
122	0x3b61e98e	0.0034471485
123	0xbc4cfbc1	-0.012511195
124	0xbbb16509	-0.0054136557
125	0x3d3c0fed	0.045913626
126	0xbc8ccf8e	-0.017188814
127	0xbbb86a89	-0.0056279344
128	0xbd2cf426	-0.042225026
129	0x3b4603d8	0.0030214693
130	0x3d8a50dc	0.06753704
131	0x3cd466f6	0.025928002
132	0xbd81ea57	-0.06343525
133	0xbceb3624	-0.02871234
134	0x3d8a4571	0.06751526
135	0xbbcba8be	-0.006215184
136	0xbd5f8303	-0.054568302
137	0xbc648e73	-0.013949978
138	0x3d075911	0.033043925
139	0xbd0d55e9	-0.03450576
140	0x3d3e43e3	0.04645146
141	0x3db9e567	0.09076958
142	0x3a611351	0.0008585947
143	0xbc1df7c0	-0.009641588
144	0xbc2837b1	-0.010267184
145	0x3d8a58e8	0.06755239
146	0xbb8a05b8	-0.0042121075
147	0xbc944a28	-0.018101767
148	0x3da5c4e8	0.080941975
149	0x3cf26a23	0.029591626
150	0xbd4b5fae	-0.049651794
151	0xbb9119fe	-0.0044281473
152	0x3d216c42	0.039409883
153	0x3d6f78e6	0.058464907
154	0xbd96576f	-0.073408954
155	0xbd192f5c	-0.03739868
156	0xbcab2cb2	-0.020895336
157	0x3c989847	0.018627299
158	0xbd835566	-0.06412773
159	0xbcd8dfcb	-0.0264739
160	0x3d67875e	0.05652558
161	0x3d5270e6	0.0513772
162	0xbd717c5a	-0.05895648
163	0x3c1a794d	0.009428334
164	0xbaf846a4	-0.0018941951
165	0xbd614e23	-0.055006158
166	0x3dabc8dc	0.0838792
167	0xbc383ff8	-0.01124572
168	0x3d04ac5a	0.03239093
169	0xbd94c9fd	-0.07265089
170	0xbcd32626	-0.025775027
171	0x3d6d9e90	0.058012545
172	0xbc8ca152	-0.017166767
173	0x3c91cb5f	0.01779717
174	0x3ae37131	0.0017352459
175	0x3d00aad4	0.031412914
176	0x3c41f47e	0.011838077
177	0x3c621d47	0.013800926
178	0x3d7b4b16	0.061350904
179	0x3b8daa11	0.004323252
180	0x3d5718a9	0.052513752
181	0xbd9a9be4	-0.07549265
182	0x3cc508ab	0.024051985
183	0x3d75713a	0.059922434
184	0xbce8f247	-0.02843584
185	0x3c3ef04e	0.011653973
186	0x3d624058	0.055237144
187	0xbd1b8b6d	-0.037974764
188	0x3b96d0f1	0.0046025445
189	0x3d16b55e	0.03679406
190	0x3d789276	0.06068655
191	0x3d8bb2a5	0.06821183
192	0x3d7b1b4b	0.061305325
193	0x3c0c204f	0.008552625
194	0xbc802a32	-0.01564512
195	0x3d77e1a0	0.060517907
196	0xbd21dcef	-0.03951734
197	0x3c13fd6f	0.009032591
198	0x3a3e5412	0.0007260452
199	0xbb444d40	-0.002995327
200	0xbb57cc50	-0.0032928176
201	0x3d8b601f	0.06805443
202	0x3c2e995b	0.01065668
203	0xbcafa389	-0.021440284
204	0xbcd1fe68	-0.025634006
205	0x3d35b60b	0.044363063
206	0xbd24b44f	-0.04021102
207	0x3c898c53	0.016790545
208	0x3cf909e4	0.030400224
209	0xbc90739a	-0.017633248
210	0xbd1e421e	-0.038637273
211	0xbc02619b	-0.007957841
212	0x3d36b514	0.044606283
213	0x3ca7b927	0.02047403
214	0x3d83cf7c	0.06436059
215	0xbc3a58e0	-0.0113737285
216	0xbcf67251	-0.030083807
217	0x3d87535b	0.06607696
218	0x3d9b780c	0.075912565
219	0x3d992e3a	0.0747952
220	0xbc1e3683	-0.009656551
221	0x3bf6a566	0.0075270412
222	0x3ba09ad7	0.004901271
223	0xbd4ae917	-0.049538698
224	0xb93d3a98	-0.00018046272
225	0x3d31800e	0.043335013
226	0x3bc90289	0.0061343354
227	0xbc624548	-0.013810463
228	0x3c68835c	0.014191475
229	0x3cfcb2cc	0.030846976
230	0x3d0f76d9	0.03502545
231	0xbc5f7052	-0.013637619
232	0x3dadcc71	0.0848626
233	0x3c8d89c1	0.0172776
234	0xbd483094	-0.048874453
235	0xbc9b1ff2	-0.018936131
236	0xbd2fb6d5	-0.04289897
237	0xbc5c7712	-0.013456123
238	0x3bfea3e0	0.0077710003
239	0x3d9a6f32	0.0754074
240	0x3d131b0b	0.035914462
241	0x3da0cb47	0.07851272
242	0xbd00af3f	-0.031417128
243	0x3d80d757	0.06291073
244	0xbcab40f8	-0.020905003
245	0xbd31d02c	-0.04341142
246	0x3d9d85fd	0.07691572
247	0x3b0fdc05	0.002195121
248	0x3cbac2a0	0.022797883
249	0x3d806c24	0.06270626
250	0x3d02b541	0.03191114
251	0xbcf8ab9b	-0.030355265
252	0x3d8ecbd3	0.0697247
253	0xbd243c6a	-0.040096678
254	0x3d3af01e	0.04563915
255	0xbd00c025	-0.031433243

neural_net.1.1.layers.1.bias f4 [256]
0	0x3c63308c	0.013866555
1	0x3c89c013	0.016815221
2	0xb71db28d	-9.399501e-06
3	0x3bdbcb3b	0.0067075766
4	0x3c41d258	0.011829935
5	0x3c5dc55b	0.013535823
6	0x3c67d224	0.0141492225
7	0x3c7c3112	0.015392559
8	0x3c72ba26	0.014814889
9	0x3bcbc12a	0.0062180953
10	0x3c7ef838	0.01556211
11	0x3bbab576	0.0056979014
12	0x3c19bb1a	0.009382987
13	0x3c522439	0.012826019
14	0x3b8d4947	0.004311714
15	0x3b7cd27d	0.003857761
16	0x3be899e1	0.007098422
17	0x3c2278df	0.009916513
18	0x3be788aa	0.007065852
19	0x3c618f65	0.013767098
20	0x3be218a8	0.006899912
21	0x3bdb6149	0.006694947
22	0x3be201a9	0.0068971706
23	0x3bcc0f98	0.006227445
24	0x3c63c305	0.013901477
25	0x3b8f6194	0.004375646
26	0x3c26ab3f	0.010172664
27	0x3c8af580	0.016962767
28	0x3ba27987	0.004958335
29	0x3b98dd23	0.0046650334
30	0x3c5c59cb	0.013449143
31	0x3bc1435e	0.0058979234
32	0x3bccd131	0.0062505235
33	0x3c3470ae	0.011013193
34	0x3c92548c	0.01786258
35	0x3c11ce17	0.008899233
36	0x3bfd4319	0.007728946
37	0x3c08a015	0.008338948
38	0x3c687dc9	0.014190146
39	0x3c860748	0.016360894
40	0x3c755f71	0.014976368
41	0x3c284912	0.010271328
42	0x3c43d748	0.0119531825
43	0x3b474e4f	0.0030411666
44	0x3c58f0c4	0.013240997
45	0x3c4c7466	0.012478923
46	0x3a93a7ab	0.0011265179
47	0x3c6a6a6b	0.014307599
48	0x3b838069	0.0040131104
49	0x3bc300b7	0.005951013
50	0x3bc36a3b	0.0059635914
51	0x3c56b065	0.013103579
52	0x3bd20e0f	0.0064103673
53	0x3c883483	0.016626602
54	0x3a7f43f1	0.0009737602
55	0x3c4b31ff	0.012402057
56	0x3bb900df	0.005645856
57	0x3c5169c7	0.012781567
58	0x3ac55a2a	0.0015056778
59	0x3c12e588	0.008965857
60	0x3c4dfe5b	0.01257285
61	0x3c518b01	0.012789489
62	0x3c2350e8	0.00996802
63	0x3bd70fab	0.006563147
64	0x3be68770	0.0070351884
65	0x3c72bc6b	0.01481543
66	0x3c4d14ef	0.012517198
67	0x3c260f23	0.010135445
68	0x3c3f4176	0.011673322
69	0x3c27747e	0.010220645
70	0x3c943bf4	0.018094994
71	0x3c043417	0.00806906
72	0x3b8d3943	0.0043098046
73	0x3b8884a6	0.0041662036
74	0x3c1455b6	0.009053638
75	0x3bf6451f	0.007515564
76	0x3bfa18ba	0.007632342
77	0x3beeeba7	0.0072912755
78	0x3c137e35	0.009002258
79	0x3b9b31f9	0.004736182
80	0x3c301411	0.010746972
81	0x3c13992c	0.009008687
82	0x3be94519	0.007118833
83	0x3c6397b3	0.013891148
84	0x3c46826b	0.012116055
85	0x3a82a795	0.0009968156
86	0x3c13251c	0.0089810155
87	0x3c6b9a32	0.014380025
88	0x3c42a14d	0.011879277
89	0x3bb5dac4	0.0055497605
90	0x3c10a8f9	0.008829349
91	0x3c43a75f	0.01194176
92	0x3c6385ab	0.013886849
93	0x3c0fd865	0.00877962
94	0x3b9aeeeb	0.0047281883
95	0x3c698327	0.014252461
96	0x3c123033	0.008922624
97	0x3c4cc65e	0.012498466
98	0x3c62f4dd	0.013852325
99	0x3b348a68	0.0027548317
100	0x3c51a2aa	0.01279513
101	0x3c467f83	0.012115362
102	0x3c54ba90	0.012983933
103	0x3c8210e5	0.015877197
104	0xb9e6ca87	-0.00044019913
105	0x3c641029	0.0139198685
106	0x3b593636	0.0033143885
107	0x3c078b28	0.0082729235
108	0x3bc66779	0.0060548154
109	0x3c64c107	0.013962037
110	0x3bd7161e	0.006563916
111	0x3c5fdf29	0.013664045
112	0x3c690ff1	0.014224992
113	0x3c098d60	0.008395523
114	0x3c1bae62	0.009502025
115	0x3c890123	0.016724175
116	0x3c7af568	0.0153172985
117	0x3c4f9225	0.012669121
118	0x3ae16cce	0.0017198564
119	0x3bc78758	0.0060891323
120	0x3c8595ba	0.016306747
121	0x3c6b81a4	0.01437417
122	0x3c335cdf	0.010947435
123	0x3c0dc843	0.008653703
124	0x3c0d4808	0.008623131
125	0x3c80adc5	0.01570786
126	0x3c722a21	0.014780552
127	0x3c2556d3	0.010091501
128	0x3c24ad72	0.010051118
129	0xba9520f0	-0.0011377614
130	0x3c112407	0.008858687
131	0x3c06685b	0.008203591
132	0x3c26bfd3	0.01017757
133	0x3c017099	0.0079003805
134	0x3c50db91	0.012747661
135	0x3c1cf32c	0.009579461
136	0x3c88786d	0.016658986
137	0x3c4b6a7d	0.0124155255
138	0x3c4f7415	0.012661953
139	0x3c272864	0.010202501
140	0x3b5ac01b	0.0033378664
141	0x3c172bbf	0.0092267385
142	0x3c80b50a	0.015711326
143	0x3c38f72b	0.011289398
144	0x3c0ecd77	0.008715979
145	0xba9fdd19	-0.001219663
146	0x3b9ce5e7	0.0047881487
147	0x3b320984	0.0027166316
148	0x3bddef2d	0.0067728967
149	0x3b8d144c	0.004305398
150	0x3c2fd64b	0.010732244
151	0x3c398923	0.0113242
152	0x3c3b62e2	0.01143715
153	0x3c32ae92	0.010905879
154	0x3c1d8adf	0.009615629
155	0x3c191cdf	0.009345262
156	0x3c1dfb47	0.009642429
157	0x3c40f383	0.011776808
158	0x3c248757	0.010042033
159	0x3c85132b	0.016244492
160	0x3c1690a1	0.009189756
161	0x3c36ba30	0.011152789
162	0x3c73173a	0.014837081
163	0x3c3b6722	0.011438163
164	0x3bff7532	0.007795953
165	0x3c85e17d	0.016342873
166	0x3c21d9ef	0.00987862
167	0x3c49a29d	0.012306836
168	0x3bbb5e5a	0.0057180347
169	0x3c4f6169	0.012657502
170	0x3bcb436b	0.006203105
171	0x3bea15f5	0.0071437308
172	0x3c6b2da3	0.014354142
173	0x3c62e609	0.01384879
174	0x3c30af04	0.0107839145
175	0x3c04f701	0.008115531
176	0x3c742624	0.014901672
177	0xba8a6654	-0.0010559061
178	0x3c789f28	0.015174665
179	0x3bf9a6e2	0.007618771
180	0x3c80f2ee	0.015740838
181	0x3c3f79a0	0.0116867125
182	0x3c5e02a6	0.013550436
183	0x3b691f99	0.0035571812
184	0x3c43eb37	0.011957935
185	0x3c201d80	0.009772658
186	0x3c0978c2	0.008390607
187	0x3c682414	0.014168758
188	0x3c57bd3a	0.013167674
189	0x3be2ce26	0.0069215475
190	0xbb047da2	-0.0020216485
191	0x3b44bad2	0.003001858
192	0x3c44c954	0.012010891
193	0x3c602199	0.013679885
194	0x3c61f58e	0.013791455
195	0x3c15ebfa	0.0091504995
196	0x3bafaaf1	0.005360954
197	0x3b0b807c	0.00212863
198	0x3bfb69c7	0.0076725218
199	0x3bbe7656	0.0058124466
200	0x3bb61938	0.0055572055
201	0x3c356144	0.011070553
202	0x3bab1f9f	0.0052222754
203	0x3c5bc74a	0.013414213
204	0x3c27e8e0	0.010248393
205	0x3c0b9844	0.00852019
206	0x3c30acf3	0.010783422
207	0x3c493a4b	0.0122819645
208	0x3c068c5a	0.008212173
209	0x3bc4b782	0.006003321
210	0x3c2c8e21	0.010531933
211	0x3c6d5997	0.014486692
212	0x3bc8e76d	0.0061311037
213	0x3aca7c5a	0.0015448437
214	0x3c814e21	0.015784325
215	0x3bc7bb7b	0.0060953475
216	0x3c624435	0.013810207
217	0x3c67d2e9	0.014149406
218	0x3c30d454	0.0107928105
219	0x3b4a3b89	0.003085824
220	0x3c500f09	0.012698897
221	0x3bf1d890	0.0073805526
222	0xbb219d36	-0.0024660355
223	0x3beeb1c0	0.007284373
224	0xba315965	-0.0006765335
225	0x3c484f88	0.012225993
226	0x3c7bd7a6	0.015371239
227	0x3c383a68	0.011244394
228	0xbbc51fd3	-0.0060157566
229	0x3bfd3fcd	0.007728553
230	0x3c7bad9d	0.015361217
231	0x3c674719	0.014116072
232	0x3c57a8f4	0.01316284
233	0x3bb796eb	0.0056027076
234	0x3b93cd4a	0.0045105563
235	0x3b5dffed	0.0033874467
236	0x3c89d79b	0.016826442
237	0x3c4abb72	0.012373792
238	0x3c1d1022	0.009586366
239	0x3c19283f	0.009347974
240	0x3c357c92	0.011077063
241	0x3c6a48ba	0.014299566
242	0x3bc1d787	0.0059155854
243	0x3c33d02e	0.010974927
244	0xb96471dd	-0.00021786192
245	0x3be841f1	0.007087939
246	0x3c439947	0.0119384
247	0x3c572e6b	0.0131336255
248	0x3b4f12bd	0.0031596862
249	0x3c53acde	0.012919633
250	0x3bd381be	0.0064546755
251	0x3b14ab24	0.0022685016
252	0x3c09dbbd	0.008414206
253	0x3bd882bc	0.0066073816
254	0x3c39163a	0.011296803
255	0x3be6d84e	0.0070448285

neural_net.2.weight f4 [4, 256]
0	0xbda8318a	-0.08212574
1	0x3d9cd56b	0.07657894
2	0xbda920e5	-0.08258227
3	0xbcc2f57c	-0.023798697
4	0xbcce386b	-0.025173387
5	0x3d00d29a	0.031450845
6	0x3dd47b66	0.10375099
7	0x3d2cbd4b	0.04217271
8	0x3daa1fb8	0.08306831
9	0xbd904d92	-0.07046045
10	0x3d8fa899	0.07014579
11	0xbdeeba8c	-0.11656675
12	0x3d8b31f8	0.0679664
13	0x3daf42d6	0.0855767
14	0x3d00fdf1	0.031492177
15	0xbdb946ae	-0.09046684
16	0x3dc280ab	0.09497198
17	0xbda4f9aa	-0.08055432
18	0x3cc046f1	0.023471327
19	0xbbca4eed	-0.0061739595
20	0x3c425a78	0.01186239
21	0x3d792e31	0.060835067
22	0x3d3db1e5	0.04631223
23	0x3dcf2b96	0.10115735
24	0x3ceaa7e2	0.028644506
25	0xbcae6b6b	-0.021291455
26	0x3d4f165b	0.05055843
27	0x3ad2a2ae	0.0016070211
28	0xbdae8e39	-0.085232206
29	0x3c8a4a87	0.01688124
30	0x3dd36622	0.10322215
31	0x3d98e3c3	0.07465317
32	0x3ddd7731	0.108137496
33	0xbc3f949b	-0.011693145
34	0x3dce7b30	0.1008209
35	0xbd6a4304	-0.057192817
36	0xbcd95b8b	-0.026532909
37	0xbc5c6220	-0.013451129
38	0x3dd0d8df	0.10197615
39	0x3d45c660	0.04828489
40	0x3d8af884	0.06785682
41	0xbd3fc780	-0.046821117
42	0x3c6e02a6	0.014526999
43	0x3c5e8331	0.013581083
44	0xbd35184a	-0.044212617
45	0x3d7825d8	0.060582966
46	0xbd322dc8	-0.04350069
47	0x3b25b67b	0.0025285769
48	0x3d924518	0.07142085
49	0xbdb4e9d1	-0.088336594
50	0xbd90869c	-0.07056925
51	0x3d5e4852	0.05426819
52	0x3d181023	0.037124764
53	0x3dad7284	0.08469108
54	0xbd2aa550	-0.04166156
55	0xbdd9b7ac	-0.10630736
56	0x3db6bcde	0.08922742
57	0xbdb4884b	-0.08815058
58	0xbd41fcfc	-0.047360405
59	0xbcb8c34f	-0.022554068
60	0xbd0a408d	-0.033752967
61	0x3db3e09a	0.08783074
62	0xbd5e0c0b	-0.054210704
63	0xbd77bd57	-0.060483303
64	0xbd83c708	-0.064344466
65	0x3d93363f	0.07188081
66	0xbdc5e408	-0.09662634
67	0xbb3387a9	-0.0027394092
68	0xbce27024	-0.027641363
69	0x3a1ee68a	0.00060615747
70	0xbca7a5c1	-0.02046478
71	0xbd28410c	-0.04107766
72	0xbd97d806	-0.0741425
73	0xbb6b7101	-0.003592551
74	0x3d31dc2e	0.04342287
75	0x3d2ec9d9	0.042672966
76	0xbd71d640	-0.059042215
77	0xbdbc9254	-0.092075974
78	0xbd69711c	-0.056992635
79	0x3d3dcb45	0.04633643
80	0x3d973b2b	0.07384332
81	0xbcbdbbfc	-0.023160927
82	0xbdac020e	-0.083988294
83	0x3be1a9ca	0.0068866955
84	0xbd1b205e	-0.037872665
85	0x3c3965b3	0.011315751
86	0x3da85129	0.08218605
87	0xbcb16efd	-0.021659369
88	0x3db14fa2	0.08657767
89	0x3cae0d22	0.021246497
90	0xbdb5fc3d	-0.08886001
91	0x3da8f6ac	0.08250174
92	0x3c73b3c0	0.014874399
93	0xbcb9ca7a	-0.022679556
94	0xbc8d55fa	-0.01725291
95	0xbdb6e293	-0.08929934
96	0xbc963ed1	-0.0183405
97	0xbab77cb7	-0.001399896
98	0xbdc348e7	-0.095353894
99	0x3c85c8ce	0.016331103
100	0x3d99b39d	0.07504962
101	0x3d47c895	0.048775274
102	0x3d18a44b	0.037266057
103	0x3d634957	0.055489864
104	0xbd927ac8	-0.07152325
105	0x3d84b9d1	0.06480754
106	0xbdd19350	-0.10233176
107	0xbc95c01e	-0.018280085
108	0xbd09b7cf	-0.03362256
109	0xbda9e0a1	-0.08294798
110	0xbbf35bd6	-0.007426719
111	0xbd9ed866	-0.077561185
112	0x3d61d67d	0.055136193
113	0xbd43e174	-0.04782243
114	0xbd824878	-0.063614786
115	0x3d8e7937	0.06956714
116	0x3d0356d9	0.032065246
117	0xbcaf0ca8	-0.02136834
118	0xbdadc0f2	-0.08484067
119	0x3d955dc5	0.07293276
120	0x3da6bf0a	0.081419066
121	0x3b6d0d43	0.0036171235
122	0xbdaecb54	-0.085348755
123	0x3d7ec0e6	0.06219568
124	0xbdcc39d1	-0.09971965
125	0x3da692f0	0.08133495
126	0x3d21b80d	0.039482165
127	0xbdc87e99	-0.097897716
128	0x3db44671	0.08802498
129	0x3d9ebd9e	0.0775101
130	0xbdd00831	-0.101578124
131	0xbdcbc563	-0.09949758
132	0xbdba492e	-0.09095989
133	0xbd075dd7	-0.033048477
134	0x3df4c7cb	0.1195217
135	0xbd6c23de	-0.057651393
136	0x3db882ff	0.090093605
137	0x3daa57d0	0.0831753
138	0x3d720f62	0.0590967
139	0xbd6fbc16	-0.058528982
140	0xbda35adc	-0.079763144
141	0x3bd6a48b	0.006550377
142	0xbc5ea539	-0.013589197
143	0x3a8d9e58	0.0010804636
144	0xbdcdea22	-0.10054423
145	0xbd90e2b6	-0.07074492
146	0xbdab93f0	-0.08377826
147	0xbba1157d	-0.0049158917
148	0xbd28a83a	-0.04117606
149	0xbda36039	-0.079773374
150	0x3dd71da0	0.105036974
151	0xbd2ea7f5	-0.042640645
152	0x3dcc3607	0.099712424
153	0xbd9f9535	-0.07792131
154	0x3dd3525e	0.10318445
155	0xbdc9059e	-0.098155245
156	0xbd8d7f6e	-0.06909071
157	0x3d971331	0.07376707
158	0xbdb45dd0	-0.08806956
159	0x3ab3d0b6	0.0013718817
160	0x3daefd56	0.08544414
161	0xbdb30ced	-0.087427
162	0x3db466eb	0.088086925
163	0x3dc1d27b	0.09463974
164	0xbdbb4a82	-0.091450706
165	0x3dd25434	0.10269967
166	0x3cacdad1	0.021100434
167	0x3dbcebc3	0.092246555
168	0xbc87a138	-0.016556367
169	0x3d86909b	0.0657055
170	0xbd4b82fc	-0.049685463
171	0xbd902911	-0.07039083
172	0xbdc747ad	-0.09730468
173	0xbdbf50aa	-0.09341557
174	0xbd3490ac	-0.044083282
175	0xbd042cc2	-0.032269247
176	0xbc33c00e	-0.010971082
177	0xbd20aa9b	-0.039225202
178	0xbdcc1468	-0.0996483
179	0xbcd436af	-0.025904981
180	0x3b026d6c	0.0019901646
181	0xbcb3c72a	-0.021945555
182	0x3d93e323	0.07221057
183	0x3dc1502c	0.0943912
184	0x3d1732d5	0.03691371
185	0x3c0c881c	0.008577373
186	0x3da98e52	0.082790986
187	0x3dd7a89b	0.10530206
188	0x3dcaf92e	0.099108085
189	0x3d317acf	0.04333001
190	0xbd31b1a5	-0.043382306
191	0x3d72ec38	0.059307307
192	0xbdc95257	-0.09830158
193	0x3db27b2d	0.087149
194	0x3dccaffc	0.09994504
195	0x3d7f1abc	0.062281355
196	0x3bd03d46	0.0063549606
197	0xbd306f6f	-0.04307502
198	0xbcd2c5f2	-0.025729153
199	0x3dc01d94	0.093806416
200	0x3dbacfc8	0.091216624
201	0xbc55a228	-0.013039149
202	0x3d197535	0.037465293
203	0x3dd071d9	0.10177965
204	0x3d816987	0.06318956
205	0xbc1912d1	-0.009342865
206	0xbd38be09	-0.045103107
207	0x3c9d52d7	0.01920454
208	0xbd742ac9	-0.059611116
209	0x3d74c665	0.059759516
210	0x3d661633	0.056173515
211	0xbd06ccd3	-0.03291018
212	0xbdab4464	-0.08362654
213	0xbdaf85d5	-0.08570448
214	0x3dca0ddf	0.09865927
215	0x3cd5f850	0.026119381
216	0x3d011862	0.031517394
217	0x3d15d97f	0.036584374
218	0xbd3281a0	-0.04358065
219	0xbd2d305d	-0.04228245
220	0x3db96eb9	0.09054322
221	0xbdbbcae6	-0.09169559
222	0x3d343bab	0.044002216
223	0xbd9db2d5	-0.07700125
224	0xbd82831b	-0.06372663
225	0xbd923a19	-0.071399875
226	0xbc26c8d3	-0.010179716
227	0x3da1e063	0.079041265
228	0xbd6afc9e	-0.05736982
229	0xbd456bb3	-0.048198413
230	0x3d619ba0	0.055080056
231	0xbd75bcc5	-0.059994478
232	0x3d3a4720	0.045477986
233	0xbdd508a1	-0.104020365
234	0x3dabf785	0.0839682
235	0xbd177271	-0.036974374
236	0x3d7c5986	0.061608814
237	0xbcef76e5	-0.029231498
238	0x3bde37c8	0.006781552
239	0xbdd97b8f	-0.1061927
240	0x3d194fce	0.037429623
241	0x3dd7b678	0.1053285
242	0xbdbcea61	-0.09224392
243	0x3d2d06ca	0.042242803
244	0x3d8e5f3c	0.06951758
245	0xbdc35f69	-0.095396824
246	0x3c875847	0.016521586
247	0x3db28f18	0.08718699
248	0xbd182bb4	-0.037151054
249	0xbdb527a4	-0.088454515
250	0xbdb1b606	-0.08677296
251	0xbd9fbff5	-0.07800285
252	0xbd57a22c	-0.052644894
253	0xbd97c66d	-0.074108936
254	0xbd222c7e	-0.039593212
255	0xbdfe69fd	-0.124225594

neural_net.2.bias f4 [4]
0	0x3b8baf63	0.004262851
1	0xbb717c60	-0.0036847815
2	0xbb519ea0	-0.0031985417
3	0x3b2ccb94	0.002636646
