projects/minigrid_repro/data/oversight_levels/policy_43062.pt (torch, 373690 bytes, 6 tensors)

neural_net.1.1.layers.0.weight f4 [256, 100]
000000 e3 91 81 bd 25 2c 2b bd 22 1e be 3d 60 bc 7a 3d
       -0.06326654 -0.041790146 0.09283091 0.061214805
000010 c7 ea 24 3d 45 dc 02 3d eb e9 df bd 1e 37 d1 3c
       0.040262964 0.031948347 -0.10933288 0.025538977
000020 21 55 03 3c 84 a0 dd 3d fc 00 f9 bd 41 a8 23 be
       0.008015902 0.108216316 -0.12158391 -0.15982153
000030 18 db 46 3c 1b 7d de 3b af cf 9a 3d 35 02 8c bd
       0.012137197 0.006789816 0.07559144 -0.068363585
000040 99 69 0f be 60 97 79 3d 6b 38 12 bd 56 08 7d 3d
       -0.14005126 0.060935378 -0.035698336 0.061775528
000050 ca 3f 25 3c 5e 75 22 bd c0 5a d4 3c d9 61 9a bd
       0.010086009 -0.03966271 0.02592218 -0.07538194
000060 49 16 7b bc 58 73 ba 3b fc 41 25 3d 6a 49 3c 3d
       -0.015325137 0.0056900196 0.04034613 0.04596845
000070 d5 89 74 bc 40 ed a1 bd 8e f4 a6 3d e5 1f b0 3d
       -0.01492544 -0.0790658 0.08152114 0.085998334
000080 d8 a0 c5 3c 5d 2c 81 3d 1c fa 3e bd 13 89 6f 3d
       0.024124548 0.0630729 -0.04662524 0.058480334
000090 67 3a 5e bc c6 35 da 3d e6 81 82 bd 25 66 66 bd
       -0.013563729 0.10654788 -0.063724324 -0.056249756
0000a0 fc cb 40 bd b6 34 2d bd 8a 31 9d 3d 3d 30 ea 3c
       -0.047069535 -0.042286597 0.076754645 0.028587455
0000b0 d9 07 cd bc 48 87 84 bd 12 2a b8 bc 32 8a 8d 3d
       -0.025028156 -0.06471115 -0.022480998 0.06911124
0000c0 04 3f 32 bd 7a 1a 0d bc b0 46 1f 3c c6 9c d5 3d
       -0.043517128 -0.00861227 0.009721443 0.10430293
0000d0 2d 38 3e 3d 59 07 98 3c d9 48 3b be d3 e6 fc bd
       0.046440292 0.018558191 -0.18289508 -0.12348714
0000e0 0e ad f5 3d 2e d2 af 3b b2 c0 0e 3d e7 7a f9 bd
       0.11995898 0.0053656315 0.034851737 -0.12181645
0000f0 ae 46 3b 3d f0 bb 08 3d 9b a2 c0 3d 18 50 8e 3d
       0.045721702 0.033382356 0.094060145 0.069488704
000100 5a c5 6a bc c8 42 e6 bd ea a1 0f 3d 24 be 3d bd
       -0.014329279 -0.11243206 0.035066523 -0.04632391
000110 0a 75 22 bd 2f 7a af bd 21 43 94 bc dd 5f 87 3d
       -0.0396624 -0.085682265 -0.018098416 0.06610081
000120 cc 80 a4 bd c1 c4 34 bd 80 2c 82 3d 1c bc 4a bd
       -0.080323786 -0.04413295 0.06356144 -0.0494958
000130 c8 2d 4e 3d 08 d5 88 bc 68 c6 09 bc 1a 98 12 bd
       0.05033663 -0.016703144 -0.00840912 -0.035789587
000140 6a d7 e1 3c b1 60 6a 3d ce bb 1b 39 f2 e3 f0 bb
       0.027568538 0.05722112 0.00014851915 -0.007351392
000150 6d 0f 62 3d 23 87 9c 3d f0 42 13 3d 25 0f ef 3b
       0.055190492 0.07642963 0.03595251 0.0072955065
000160 49 d4 85 bc 05 40 96 bd c4 63 65 3d 94 58 97 bc
       -0.016336577 -0.073364295 0.056003347 -0.018474855
000170 bc 57 35 bd 51 64 ae 3d c4 dc ff 3d d1 b6 d8 bc
       -0.044273123 0.085152276 0.124932796 -0.026454361
000180 57 f1 f1 bc 0f 59 59 bb 47 26 35 bd 39 fe 8b 3d
       -0.029534025 -0.0033164655 -0.044225957 0.068355985
000190 68 f0 b4 bd e1 87 d9 3c 31 32 c5 3d 1c c5 2d 3b
       -0.08834916 0.02655405 0.09628714 0.0026515191
0001a0 cb ed d7 bd 57 87 9f bd c6 fb 8a bd d4 9d de 3d
       -0.10543402 -0.07789486 -0.06786303 0.10869947
0001b0 db a9 48 bd 13 a9 aa 3d 01 ee be bd 96 c4 21 bd
       -0.04899011 0.083330296 -0.093227394 -0.03949412
0001c0 63 35 28 3d c0 ac cb bc 2f 7b 96 bd 09 22 ab bd
       0.04106654 -0.024862647 -0.07347714 -0.08356101
0001d0 d0 64 c0 3d 01 96 81 3d 1a 01 bc 3d f8 32 9e 3d
       0.093942285 0.06327439 0.091798976 0.07724565
0001e0 0e 19 b3 bd fe a1 c5 3d f5 f3 a0 3d 50 89 f1 3d
       -0.08745013 0.09650038 0.07859031 0.117937684
0001f0 5c 51 ee 3d bd 75 7b 3d b6 9b a4 3d 59 e7 b9 bb
       0.11636612 0.06139158 0.08037512 -0.0056733307
000200 98 c9 05 3d c9 87 4f 3c 70 a3 80 bd 09 0a 2d 3d
       0.032662958 0.012666651 -0.06281173 0.0422459
000210 c0 f7 82 bd 81 95 96 3d cd 09 97 bc 3a a2 83 3c
       -0.06394911 0.07352734 -0.01843729 0.016068567
000220 05 a3 eb 3b 98 02 8c bd 47 1b 1c 3d 11 68 ad 3d
       0.0071910643 -0.06836432 0.03811195 0.08467115
000230 8f 53 d9 3c ad 09 53 3c 15 a6 9c bd ec f8 42 bc
       0.026529102 0.012880725 -0.07648865 -0.011900168
000240 79 3d aa bc ef 80 b2 3d 5e fb b9 3d e4 6f 0f 3d
       -0.020781266 0.087159984 0.090811476 0.035018817
000250 9f 34 43 bd e5 84 97 bd 81 5c 80 3d 90 da b9 bc
       -0.047657605 -0.073983945 0.06267644 -0.022687227
000260 c3 44 22 3d c3 e3 be bd fa 3f be bd 84 99 ba 3d
       0.039616358 -0.09320786 -0.09289546 0.09111312
000270 2f 0e c0 3c 35 ec 3e 3d 2f 5e fc bd c1 fc e5 3c
       0.023444263 0.046611983 -0.123226516 0.028074624
000280 65 f3 e0 bd d2 8b 82 3d 80 c3 ba 3d 40 67 46 bd
       -0.10983924 0.06374325 0.0911932 -0.04843831
000290 3f f0 34 bd 2f b1 e7 3d 87 9c 83 3d 61 32 bb bc
       -0.04417443 0.11313092 0.064263396 -0.022851171
0002a0 3a bf 0e 3d b6 cf d3 bc 62 14 43 3d 1d 09 b6 3c
       0.034850337 -0.02585588 0.04762686 0.022221142
0002b0 08 3d 78 3d bc c2 cb bd 75 dc 8a bd dc 5a a8 3d
       0.06060508 -0.09949252 -0.0678033 0.08220455
0002c0 5f af 9d bd b6 43 a1 bc b8 35 c4 3c 92 5b 49 bc
       -0.07699465 -0.019685607 0.023951396 -0.0122898985
0002d0 d3 c7 8a 3d 47 91 a1 3c 46 8a 01 3d f6 7a c4 bc
       0.06776395 0.019722594 0.03162601 -0.023984414
0002e0 10 bd 0e bd 03 9d d1 bc 24 10 de bb 1e bb d9 bc
       -0.034848273 -0.025587564 -0.0067768265 -0.026578482
0002f0 43 14 da 3c e8 25 f5 3c 4e 90 cd bc 82 b2 9c 3d
       0.02662099 0.029925302 -0.025093224 0.07651235
000300 ee 30 bd 3d be 07 00 3d 93 6e ba 3d 70 ad 21 3d
       0.09237848 0.031257384 0.091031216 0.039472044
000310 e9 78 b1 bd a7 5d bd bc 90 06 3d bc 38 e0 08 3d
       -0.0866564 -0.023115946 -0.011537209 0.033416957
000320 3f 38 f2 bd 3d 4c a0 bd de df 1c bd 34 e8 9a bd
       -0.11827134 -0.07827041 -0.038299434 -0.075638205
000330 36 72 48 3d c8 cd df 3c 42 e4 c8 3d 57 9e 57 3d
       0.048937045 0.027319804 0.09809162 0.05264124
000340 a2 aa a4 bd 97 d7 1c 3d 68 f3 9e 3d b8 b8 ac 3d
       -0.08040358 0.03829154 0.0776127 0.0843367
000350 1d 49 cb 3c 52 97 a6 3d 0b 60 dc 3d 37 d2 02 be
       0.024815137 0.08134331 0.10760506 -0.12775503
000360 2a aa 83 3d f6 1c 15 be 46 90 04 be 58 76 a3 3d
       0.064289406 -0.14561829 -0.12945661 0.07981557
000370 1a bf 8f 3d df f7 f5 3d 06 33 95 bd 16 6a 52 3d
       0.070188716 0.12010168 -0.072851226 0.051370703
000380 59 2d 0d be a6 49 25 bd 9e c5 04 3d 7b a5 00 bd
       -0.1378683 -0.04035344 0.032415025 -0.031407814
000390 e5 a9 1a 3c f0 6b f1 3c 72 fc c9 3c 87 ae a0 3c
       0.00943992 0.029470414 0.024656508 0.019614471
0003a0 06 66 7f bd 39 97 4e bd b0 46 f6 ba 03 1d a1 bd
       -0.062353157 -0.050437186 -0.0018789377 -0.07866862
0003b0 92 e8 35 bc 66 5b 73 bd 45 d0 cf bc 03 f8 b0 bd
       -0.011102812 -0.059413336 -0.025367865 -0.086410545
0003c0 ed 3e 1b ba 70 98 e1 3c b8 82 36 3b 63 1b 6e 3d
       -0.00059221574 0.027538508 0.002784891 0.058131587
0003d0 3c 44 0f 3d 60 93 ed 3c a6 10 80 3c a2 76 d5 3b
       0.034977183 0.029000938 0.015632939 0.0065143863
0003e0 50 17 98 3d b6 b6 f0 bc b9 43 9d 3d 1d 26 e1 3d
       0.074263215 -0.029383998 0.07678933 0.10993598
0003f0 23 0f a4 3d 71 f5 0c bd 6b 4b 66 3d 90 98 68 3d
       0.080106996 -0.03441376 0.056224268 0.05678612

neural_net.1.1.layers.0.bias f4 [256]
000000 d6 2e 93 3c f6 aa 43 3c 12 ff 3d 3c 6c 83 88 3b
       0.017966669 0.011942616 0.011596458 0.0041660573
000010 67 a6 91 3b e5 8f 49 3c 65 03 aa bb c4 63 c8 3b
       0.0044448855 0.012302374 -0.005188393 0.0061154086
000020 ed 66 b4 3c 83 9d b4 3a f2 1a cc 3c e1 74 ae 3c
       0.022021735 0.0013779852 0.024915192 0.021295967
000030 8d d7 2c 3c 88 0d 23 3c e6 f6 7a bb 52 7b a6 3c
       0.010549438 0.009951957 -0.0038294136 0.020322476
000040 c9 c6 ad bb d4 8b ce 3c 59 99 0d 3c 59 14 f4 3b
       -0.005303238 0.02521316 0.008642518 0.0074487147
000050 ae 91 15 3b 58 13 54 3c 10 4e 0a 3c ec 98 84 3c
       0.0022822428 0.012944065 0.008441463 0.0161862
000060 fe 87 e1 3b 89 44 93 3c da 24 1c bc 16 c9 87 3c
       0.0068826666 0.017977016 -0.0095302705 0.016575377
000070 70 42 78 bc 97 00 94 3c 65 33 3d 3c ce a7 9c 3c
       -0.015152559 0.018066688 0.011547898 0.019122984
000080 73 64 9f 3c 26 0d c0 3c 95 28 e5 3b 8a 74 db 3c
       0.019457078 0.02344377 0.006993363 0.026788969
000090 36 ee 05 3d 91 b9 a6 ba 90 8c 56 3c d8 00 15 3c
       0.03269788 -0.0012720098 0.013095036 0.009094439
0000a0 f6 54 03 3c 2d e7 ef 3c eb b9 9d 3c d3 59 de 3c
       0.008015862 0.029285038 0.019253692 0.02714244
0000b0 c5 c4 14 bb 78 d7 15 3b c6 b8 4c 3c d2 0a 3d 3c
       -0.0022700292 0.0022864025 0.012495225 0.011538224
0000c0 77 78 a9 3c 8a c0 b3 3c 21 c7 f9 3b 9b 33 26 3c
       0.020687325 0.021942396 0.007622615 0.01014414
0000d0 60 37 07 3d b7 50 ae 3a 6d ef 85 3b 13 36 9b 3c
       0.033011794 0.0013299201 0.0040873797 0.018946683
0000e0 8f 82 8f 3c 72 10 a8 3c 82 a9 ba 3c 67 04 e6 3b
       0.01751831 0.020515654 0.022785906 0.007019568
0000f0 6f 77 f2 3c c9 66 18 3c 9f da 31 3c 54 88 d1 3b
       0.029597966 0.00930185 0.010855346 0.0063944254
000100 78 58 aa 3c 80 5b ca 3c e5 7c 94 3c bd 43 b6 3c
       0.020794138 0.024701834 0.01812596 0.022249097
000110 10 ea 04 bc bd a7 2b 3c 9f 8e 70 3b e4 5d 8e 3c
       -0.0081124455 0.010477004 0.0036706103 0.017378755
000120 2c cf e4 3b 8f a3 a7 3c 70 50 5a 3c 20 af db 3b
       0.0069827046 0.020463733 0.013324842 0.006704226
000130 7b f3 d1 3b fb 63 8f 3c 45 02 98 ba 6a 12 b5 3c
       0.006407199 0.01750373 -0.0011597356 0.022103507
000140 72 fa a2 3c c1 2c 4c 3a a0 d1 40 3c 2f fd df 3c
       0.019894812 0.0007788651 0.0117687285 0.027342407
000150 81 5e 7c 3c 14 40 00 3c 94 03 2a 3c ef d5 9a 3b
       0.015403391 0.007827777 0.01037683 0.00472521
000160 d9 96 d9 3c 3d 3b ab 3b 7d a1 e3 3c ee 56 f3 bb
       0.026561188 0.0052255676 0.027786965 -0.0074261343
000170 7f 75 1b 3c d6 45 d2 3c 69 27 52 3c d4 7b 51 3b
       0.0094884625 0.025668066 0.012826779 0.0031964676
000180 8b a1 9b 3c 08 4e 70 3c 1e ec e2 3b 0e d1 06 3c
       0.018997928 0.014667042 0.00692512 0.008228553
000190 56 aa 91 3c 95 7f 12 3c 6b b4 b0 bb 9f f6 60 3c
       0.017781418 0.008941551 -0.0053926012 0.013730674
0001a0 f8 c0 81 3c 41 c5 2b 3c 10 2d 89 3b b8 fe 1c 3d
       0.015839085 0.010484041 0.00418628 0.038328856
0001b0 0a 93 92 bb fb be 9f 3c a6 3d d1 3c 3d 1e 88 3c
       -0.004473095 0.019500246 0.025542092 0.016615981
0001c0 79 d7 91 3c ee a6 a7 3c 9b 7e 9d 3c b3 dd 01 3b
       0.01780294 0.02046534 0.01922541 0.001981598
0001d0 84 66 62 3c 64 59 4f 3b 2f 04 9a 3c e7 07 3e 3c
       0.013818387 0.0031638974 0.018800823 0.011598564
0001e0 47 d3 09 3c 7c 11 de 3c eb 0b 2c 3c 3b 54 c0 3c
       0.008412189 0.027107947 0.010500888 0.023477664
0001f0 ad a0 1c bc cf 7b b0 3b 8a e4 d5 3b fe b4 5a 3c
       -0.0095597925 0.005385853 0.006527488 0.013348816
000200 72 fa 93 3c 94 d7 62 3c ad 06 b3 3c 8f a0 9d 3c
       0.018063758 0.013845343 0.02185377 0.0192416
000210 c4 79 69 3c 57 2c 80 bc a7 b5 ba 3c 4f 69 9e 3b
       0.014250223 -0.015646143 0.022791697 0.004834331
000220 9c 8d 50 3c 84 ac db 3b ff 6b 70 3c 0c a6 8b 3c
       0.012729075 0.006703915 0.014674186 0.01704695
000230 1d b3 4d 3c 72 cc 46 3c 1a 5b 3a 3c 91 b4 7b 3c
       0.012554911 0.0121337045 0.011374259 0.015362875
000240 7a 13 14 bc 26 3a 3a 3c 71 35 65 3c 20 ca 19 bc
       -0.009037847 0.011366403 0.013989792 -0.009386569
000250 7a be e5 3c 02 48 cc 3b 44 82 af bb ea 92 17 3d
       0.028044928 0.00623417 -0.005356105 0.037005343
000260 a0 04 eb 3b 3f 86 81 3c 42 10 96 3c 42 71 d4 3b
       0.007172182 0.015811084 0.0183183 0.006483228
000270 5d e4 c5 3c d3 5a c1 3c fa 37 9a 3c 20 8b c6 3c
       0.024156744 0.023602879 0.01882552 0.024236262
000280 36 9f c2 3c b7 3a 9d 3c 51 61 10 3c 7b d0 e1 3c
       0.023757558 0.019193036 0.008812265 0.027565232
000290 e5 bc 0c 3d 62 ef e7 b9 f1 55 8d 3c 53 2f 41 3b
       0.03435983 -0.00044238108 0.017252894 0.002947767
0002a0 f7 0c 93 3c ec fc 8b 3c 47 10 bb 3b ec 11 15 3c
       0.017950518 0.017088376 0.0057087275 0.009098511
0002b0 83 67 34 3c 3f 18 37 3d be 72 6d 3a 1d 4f c5 3b
       0.011011007 0.044700857 0.00090579304 0.006021394
0002c0 ca 14 58 3c 92 9d d6 ba 3b 54 7b 3c b5 d6 57 3c
       0.01318855 -0.0016373864 0.015339906 0.013173749
0002d0 7c 93 8a 3b 18 e4 4f 3c 51 ca b0 bb 42 2b 67 3c
       0.0042290073 0.012688659 -0.0053952117 0.014109435
0002e0 f8 76 b9 3b 51 ac 97 ba a2 fd 0f 3d fd b8 c1 3b
       0.005659934 -0.001157174 0.035153992 0.005911945
0002f0 94 8e 89 3c 64 4f a9 3a 5f c2 d8 bb d3 a9 b6 3c
       0.01679162 0.0012917337 -0.0066149677 0.022297775
000300 5a 87 a7 3b f2 11 dd 3c 35 74 37 3c c8 86 4d 3c
       0.0051125707 0.026986096 0.0111971395 0.012544341
000310 65 2f 6a 3c a6 78 cd 3c fe a0 64 3c 7b e8 7b 3b
       0.014293526 0.025081944 0.013954399 0.003843813
000320 62 14 ea 3c ee 94 93 3c 3c fd f3 bb c4 a8 83 3c
       0.028574172 0.018015351 -0.0074459594 0.016071685
000330 11 35 e9 3c 1e 32 53 3c b9 c9 01 bb 43 82 6b 3c
       0.028467687 0.012890367 -0.0019804074 0.0143743185
000340 00 ff ef 3b fc 45 f8 ba 71 bb d4 3b 6b e1 fd 3b
       0.0073240995 -0.0018941755 0.0064920713 0.007747819
000350 9c 3c a6 bb 65 47 33 3c 30 2a 2a 3c ee 13 89 3c
       -0.005073143 0.010942315 0.010386035 0.016733136
000360 71 b9 a1 3c 13 d6 ce b7 7d 40 d5 3c f3 11 00 3c
       0.019741746 -2.46568e-05 0.026031727 0.007816779
000370 67 11 42 3c d2 0b 4c bb 9d 93 9b bb 29 82 fc 3b
       0.011844969 -0.0031134975 -0.0047478215 0.007705946
000380 15 16 a1 3c 8d 4a b9 3c 44 fc 3c 3c 80 6d 71 3c
       0.01966385 0.022618556 0.011534754 0.0147355795
000390 88 c0 90 3c 4e 6c 68 bc 5c 32 91 3c 01 0c b3 3b
       0.017669931 -0.014185978 0.017724209 0.0054640775
0003a0 e2 7d 16 3c 26 b8 85 3c 77 63 82 3c 21 70 42 3a
       0.009185286 0.01632316 0.01591657 0.0007417221
0003b0 ac 58 db 3c ef 30 b0 3b 39 98 36 3c dd 29 9a 3c
       0.02677568 0.005376927 0.011144691 0.01881879
0003c0 ae 3e e4 bb 04 fd 92 3b 12 5f a0 bb b5 d7 e8 3b
       -0.00696548 0.004485728 -0.0048941458 0.0071057924
0003d0 0f 39 a3 bb 0b 30 04 3c b7 d3 e7 3b a9 0a 59 3c
       -0.004981167 0.008068095 0.007074799 0.0132471705
0003e0 f4 53 aa 3c f4 85 13 3d 49 b8 c0 bb 27 f6 b5 3b
       0.020791985 0.03601642 -0.0058813435 0.0055530253
0003f0 02 e4 8e 3c 0f 69 ed 3c 3d 9b e8 3c c1 39 c6 3c
       0.017442707 0.02898076 0.028394336 0.024197461

neural_net.1.1.layers.1.weight f4 [256, 256]
000000 d7 e3 1b 3d 5e e0 81 3c 4c 3e 59 3d b1 e6 5c bd
       0.038059082 0.015854057 0.053037927 -0.053930942
000010 6a f1 19 bd 23 9e 9a bd bc e1 9d 3d ea 2c 0c 3c
       -0.037583746 -0.075496934 0.07709071 0.00855563
000020 49 ea 7d 3d e8 5e ac 3c 1d 1b c9 3d fd e2 bc bd
       0.06199101 0.021041349 0.098196246 -0.09222982
000030 39 13 48 bd f3 34 c5 3a e5 74 50 3d e7 fc 87 bd
       -0.048846457 0.0015045687 0.05089273 -0.06640034
000040 27 4f bd bc 07 27 05 bd b3 60 d3 3c ba c8 8c 3d
       -0.023109032 -0.032507923 0.025802946 0.06874223
000050 9d aa 5b bd 55 49 3d 3d 89 39 63 bc a7 8b d2 bc
       -0.053629506 0.046212513 -0.013868698 -0.025701357
000060 8c 9e 00 bd 92 13 0f 3c a1 e4 6c bd c6 52 fa 3c
       -0.031401202 0.008732693 -0.057835225 0.030557048
000070 39 1f b0 3d 51 e8 6b bd 28 b6 3d 3c ee f5 8d bd
       0.08599705 -0.0575946 0.011579074 -0.06931673
000080 b3 e4 24 3d 10 44 8e bd 20 3e 2e bd b6 b6 1d 3d
       0.040257167 -0.06946576 -0.042539716 0.038504325
000090 30 cf b7 bc f4 90 6b ba 9f 7b 1a 3c 7b a6 a3 3d
       -0.022437662 -0.0008986138 0.009428888 0.07990738
0000a0 b9 67 4d bc 16 14 51 bd d9 6c c7 3c 07 d1 5d bc
       -0.012536936 -0.051044546 0.024343895 -0.0135386055
0000b0 3b 92 44 3d 18 86 08 3d 18 79 21 bc e6 17 b3 3d
       0.04799102 0.033331007 -0.009855531 0.08744793
0000c0 0b ac 52 bd e1 0e bb 3d ab 52 06 3d 5a 19 89 3b
       -0.051433604 0.09133697 0.032793682 0.0041839303
0000d0 cf a7 b1 bd dd 34 b6 3b 3e 77 f5 3b 85 86 97 3d
       -0.08674585 0.005560501 0.0074910214 0.073987044
0000e0 cd 82 c8 bc 44 84 8c bc 14 27 0a bd 4d fb 0d bd
       -0.024476433 -0.017152913 -0.033728674 -0.034663487
0000f0 3c af 28 3d 5b 5f a8 bc 31 eb 8a 3d f4 f3 0f 3d
       0.04118274 -0.020553282 0.067831405 0.03514476
000100 dc d5 c9 3c ef c0 99 3c 52 34 e7 3c a2 e7 23 bd
       0.024638109 0.018768756 0.02822319 -0.040015824
000110 66 ad 28 bc 55 f9 88 3b 10 43 80 3d de 24 72 3c
       -0.010295248 0.0041801133 0.06262791 0.014779298
000120 83 14 8e bd a2 b5 9b bd c6 8f ea 3b 9f a1 5d bc
       -0.06937506 -0.07603003 0.0071582524 -0.013527303
000130 01 9b 1e bd 93 dd 3c bc 48 c8 73 3d d4 f9 84 3d
       -0.038722042 -0.011527437 0.059517175 0.064929634
000140 9d cf 0f 3d 39 b4 67 3d c2 18 92 bd 76 e6 d0 bc
       0.035110105 0.056568358 -0.071336284 -0.025500517
000150 22 44 8b bc 21 4c b5 bb c0 31 8d 3d 7f 65 f9 3b
       -0.017000262 -0.005532757 0.06894255 0.007610976
000160 99 7f 2e 3d c0 c2 7a 3d 3b 04 81 3d 4f 0e 75 bd
       0.042602155 0.061220884 0.06299635 -0.0598281
000170 84 c6 96 3d a3 d8 bd 3d 2a ef 96 3c 55 30 19 bc
       0.073620826 0.09269836 0.01842459 -0.009349902
000180 7f cc 39 bd 70 6f b5 3d 54 e9 a3 3d b0 df 0a bd
       -0.04536104 0.08859146 0.08003488 -0.03390473
000190 8a dc 80 bc fe 00 ef 3b 29 1e bc bb 49 61 d4 3c
       -0.015730161 0.0072938194 -0.0057409 0.025925295
0001a0 7a 33 5d bd 79 5d 3c 3c 89 f4 15 bc cb 89 f0 bc
       -0.05400417 0.011496895 -0.00915254 -0.02936258
0001b0 3e 40 bb 3d 31 5b 54 bd 25 fe 8f bc f6 73 31 bd
       0.091431126 -0.05184478 -0.01757724 -0.04332348
0001c0 b5 a5 29 3d 11 5c b2 bd 8f b0 c4 bc 6d aa 34 3d
       0.041417796 -0.087089665 -0.024009971 0.044107843
0001d0 8e d6 fb bb b9 01 54 3d c1 01 f6 3c d8 e6 29 3d
       -0.007685489 0.051759455 0.030030133 0.041479915
0001e0 6c 39 3b bd 67 9d 89 3d 05 15 a7 bb 6c 51 4d 3c
       -0.04570906 0.06719475 -0.0050989413 0.0125316195
0001f0 de ff c1 3d 02 d9 83 39 5f d2 08 3d eb 19 aa bc
       0.09472631 0.0002514795 0.03340375 -0.020764312
000200 87 56 b8 3c 90 35 12 bd 10 d0 15 3d db 71 50 3c
       0.022502197 -0.035695612 0.036575377 0.012722458
000210 a9 d8 29 bc d4 21 a7 3d 48 92 b9 3c 64 45 20 3d
       -0.010366597 0.08160749 0.02265276 0.039128676
000220 4e b7 86 bd 88 64 20 bc ce 08 25 3d 43 29 66 3c
       -0.06577931 -0.0097895935 0.0402916 0.0140479235
000230 77 5e ae 3d 8f a8 ca 3d 7c c0 e5 bc 21 1c 72 bc
       0.085141115 0.09895431 -0.028045885 -0.014777214
000240 ce e0 67 3a 51 1c 87 bb ce 7f d3 3d 29 f1 bd 3c
       0.0008845449 -0.0041232486 0.10327111 0.023186283
000250 01 89 08 bb 5e db 30 3c f0 f4 0f bd 0b 81 47 3c
       -0.0020833614 0.010794489 -0.0351457 0.012176762
000260 ec 5f b9 3c 45 6f 46 bd b1 5a 40 3d 29 90 46 ba
       0.022628747 -0.04844596 0.04696149 -0.0007574582
000270 30 b9 91 3c c1 3f 30 3d c7 4d b4 bc 41 5e fd 3a
       0.0177885 0.04302955 -0.022009743 0.0019330458
000280 5c c5 f3 3c cf ea 4c 3d 39 6b 45 3d 5c a2 54 3d
       0.029757194 0.05002862 0.04819796 0.05191265
000290 89 19 5e bd 41 cc 36 3c 7c 14 16 3d ba 0b 2e bd
       -0.05422357 0.011157096 0.03664063 -0.042491652
0002a0 e7 58 d5 bb 3b 25 ef bc b6 5d 1c bd 8c b6 86 bd
       -0.006510842 -0.029192558 -0.038175307 -0.06577787
0002b0 67 ef 3c 3c 37 78 c3 bc b4 53 06 bc 97 99 94 bd
       0.011531687 -0.023861034 -0.008198667 -0.072558574
0002c0 00 22 10 3d c1 36 42 3d a7 b9 4c bd ae 53 09 3d
       0.035188675 0.0474155 -0.04998174 0.03352707
0002d0 22 7a 31 3d 80 8f f5 bc b0 4a ca 3c c5 26 42 3d
       0.043329366 -0.029975653 0.024693817 0.047400255
0002e0 dc 78 f1 3b db 2d a9 bd 66 da 90 bd 4f 35 e1 bc
       0.007369144 -0.08260699 -0.07072906 -0.02749124
0002f0 77 ab cb bb f5 f9 e3 3c b2 08 7f bb d8 a0 e3 bb
       -0.0062155086 0.02782915 -0.0038915095 -0.0069466643
000300 10 63 a5 3c ed 72 6c bd 56 88 55 bc 40 13 8c bd
       0.020188838 -0.05772679 -0.013032993 -0.06839609
000310 4d fb 1f bd 48 9d d3 3c a2 b4 ea 3b 66 10 3e bd
       -0.03905802 0.025831833 0.0071626464 -0.046402358
000320 2c 76 84 3d bd 32 76 bc f6 ef 87 bc 67 02 f4 3c
       0.06467852 -0.015026745 -0.016593914 0.029786302
000330 d9 86 1e bc f4 24 45 bd 73 0a 7f 3d f0 26 2a 3d
       -0.009675705 -0.048130944 0.062265825 0.04154104
000340 76 4e 90 3d de a3 9c 3c ee 7f bf 3d e1 06 bc 3d
       0.07046215 0.019121107 0.093505725 0.091809995
000350 b9 5b 59 3c bf a6 fa bc b8 ab 98 bb a3 9d 92 bd
       0.013266497 -0.030597089 -0.0046591423 -0.07158973
000360 1e 73 95 3d 9d 0f 1e bd 41 5d 9a 3d e1 c2 ba bd
       0.072973475 -0.03858911 0.07537318 -0.091192015
000370 46 77 89 3d db 3c 45 bc 69 f0 17 3c 39 95 2c bc
       0.06712203 -0.012038435 0.009273627 -0.010533624
000380 42 8a f9 bb a3 77 3e 3d 95 78 e8 bc 9f 15 7a 3d
       -0.0076153586 0.046500813 -0.02837781 0.061055776
000390 86 fb 4e 3d 79 f3 d2 bc 6d e7 2f 3b c8 28 b2 ba
       0.05053284 -0.025750862 0.0026840821 -0.0013592476
0003a0 e7 0b 4f bc 60 0a ee bc 59 77 6d 3d e4 d8 9f bd
       -0.012637115 -0.029057682 0.057975147 -0.078050405
0003b0 8e e7 93 3b e6 71 b3 3d c8 db 3f 3c 56 0f 13 3d
       0.0045136875 0.08761959 0.011710115 0.035903297
0003c0 a9 2e 57 bc d6 3e e7 b8 4c f3 43 3d 0d 51 04 3d
       -0.013133683 -0.000110266425 0.047839448 0.03230386
0003d0 ee 19 c2 bc 78 85 c0 3c cb b5 11 3d 43 8d 87 3d
       -0.023694005 0.023501143 0.035573762 0.066187404
0003e0 ff 3c 0d bd 74 e6 0a bd 01 30 9a 39 d2 ce b1 3d
       -0.034482 -0.033911183 0.00029408935 0.08682026
0003f0 31 a4 13 bd 60 95 82 3d 24 b6 b0 bd 85 ea 5a 3c
       -0.036045257 0.06376147 -0.086284906 0.013361578

neural_net.1.1.layers.1.bias f4 [256]
000000 ec 12 f7 3b 2f dd 0b 3c e9 15 87 b9 80 a1 27 3b
       0.0075400975 0.008536621 -0.0002576553 0.002557844
000010 0d 43 47 ba 7f 2f 31 3c 59 c3 4c 3c 63 c0 a1 bb
       -0.0007601239 0.010814547 0.012497746 -0.0049362644
000020 0d 12 e0 3b 0e 15 4f 3b e9 b5 d7 3b 24 3c 5b 3a
       0.0068380893 0.0031598243 0.0065829647 0.00083631487
000030 8f 6e d9 3b b0 b8 08 3c 57 d2 8a bb e9 b5 14 bb
       0.006635494 0.008344814 -0.0042365002 -0.0022691435
000040 81 bf 39 3c d9 ff a9 3b 88 ca b6 3a 65 20 f4 bb
       0.011337162 0.00518797 0.0013945857 -0.007450151
000050 cd 62 e7 3b e8 01 fb 3a dc 22 8b 3b 3f 28 0e bc
       0.0070613385 0.0019150348 0.004246099 -0.008676588
000060 23 b0 09 3c 7d 3c 9a 3b 95 2c 87 3b 30 92 ac 3b
       0.008403811 0.004706918 0.0041251876 0.0052664503
000070 89 82 45 bb 1b 36 bc 3b a5 a7 22 3c 33 06 9f 3b
       -0.003013762 0.0057437546 0.009927665 0.004853034
000080 84 d4 0a 3c b8 89 f8 3b 69 5d 90 ba 09 e3 a6 ba
       0.008473519 0.0075847767 -0.0011014167 -0.0012732457
000090 24 98 42 3c b2 f2 bd 3a 0c 4d b1 3b f9 cf ed 3a
       0.011877093 0.0014491885 0.005410796 0.0018143646
0000a0 72 7c 75 3a 84 5c 4f 3c e8 b1 34 3b d7 b7 f8 3b
       0.0009364552 0.012656335 0.002757186 0.007590275
0000b0 d3 79 10 3c 0d 1f 26 3c 8a 61 5d 38 7d 11 fb 3b
       0.008818108 0.010139239 5.2781346e-05 0.007661997
0000c0 a5 58 94 3b 93 4c 10 3a ed 1b 58 3b 5b a5 cf 3b
       0.004527169 0.00055045745 0.003297563 0.0063368506
0000d0 8e 92 d5 bb d9 60 f4 3b f9 38 9f bb 26 43 a0 bb
       -0.006517715 0.007457834 -0.0048590866 -0.004890817
0000e0 6f 94 2a 3b 30 9d 97 bb 26 cd 79 3a 5a 99 fc 3b
       0.0026028415 -0.0046268925 0.00095291657 0.0077087106
0000f0 f9 1d 1a 3c c0 20 15 3c 9c a2 59 bb a7 d0 47 3c
       0.00940656 0.0091020465 -0.0033208495 0.012195743
000100 b6 da af 3b 24 91 cd 3a cd fc 8e 3b c0 38 01 3c
       0.0053666485 0.0015683514 0.0043636323 0.007887065
000110 d4 d6 37 3b 8e 46 2f bb 96 43 1e 3c 36 12 08 3c
       0.0028051632 -0.0026744935 0.009659668 0.008305123
000120 b7 9f 0a bc b5 6d a1 ba 73 0f a3 39 23 dd e6 3b
       -0.008460931 -0.001231602 0.00031101293 0.0070454045
000130 ec 76 4e 3c 13 ac 20 39 67 28 18 bb 96 5b 07 3b
       0.012601595 0.00015322892 -0.002321744 0.0020653955
000140 d3 0f 78 3c cf db 08 3c e5 b4 b0 bb 06 7a a0 ba
       0.015140492 0.008353188 -0.005392658 -0.0012243397
000150 ce 9c e7 3b d9 a7 23 3c 5c 24 13 3c bb 58 13 3b
       0.007068253 0.0099887485 0.008980837 0.0022483307
000160 41 e5 b8 bb ca dc f2 ba cf d2 a8 38 a0 69 4c 3b
       -0.0056425636 -0.0018528935 8.0501304e-05 0.0031190887
000170 07 6c 25 3c 8b 92 e5 3a 41 7b b4 3b 29 07 d3 3b
       0.0100965565 0.0017514987 0.005507857 0.0064400625
000180 18 14 60 3c b0 51 a2 bb 59 79 0d 3b 3b 73 05 3c
       0.013676666 -0.0049535856 0.0021587221 0.008145149
000190 c0 9c bc bb 84 ba 95 3a 01 76 b9 38 ee e9 30 3b
       -0.0057559907 0.0011423384 8.8434674e-05 0.0026994902
0001a0 34 21 81 38 4b fa 7a 3b 56 2f fc 3b 05 23 1f 3b
       6.157384e-05 0.003829616 0.0076960726 0.0024282348
0001b0 cd 99 08 3c 26 63 f4 b8 93 f3 4c 3b 53 19 7a 3c
       0.00833745 -0.000116532945 0.0031273111 0.015264827
0001c0 a0 c4 f3 3b ee 1a 11 3b 51 6f 5a 3b 05 be 2a 3a
       0.007439211 0.0022141295 0.003333051 0.00065133005
0001d0 0d cf ee 39 bf 2c e9 3a 22 bb 30 3a 67 df 0e 3c
       0.00045549162 0.0017789825 0.0006741752 0.008720255
0001e0 d8 88 4c 3c 68 74 e4 3b 98 68 73 3a 1d 57 0f 3c
       0.012483798 0.0069718845 0.00092853 0.008748797
0001f0 3d 0d 29 ba 89 ec 09 3b ae cc 06 3c 31 b8 95 3c
       -0.0006448811 0.0021045527 0.00822751 0.018276306
000200 b3 08 6f ba b7 c2 3f 3c 99 45 a9 3b 1e d8 ad 3b
       -0.0009118423 0.0117041385 0.0051657674 0.005305304
000210 27 15 51 3c 53 0c 2c 3b 05 c4 93 3b 92 d7 8c 3b
       0.012761391 0.0026252463 0.0045094513 0.004298159
000220 bf c0 8f 3b 94 df a2 3b 1e 9f eb bb 4f 3f a5 3b
       0.004386991 0.0049705002 -0.007190599 0.0050429474
000230 44 14 25 ba 15 97 ef 3c f3 ba c1 3a 14 7e 68 bb
       -0.00062972703 0.029246846 0.0014780447 -0.003547554
000240 01 a0 7c ba 33 e7 15 3c af f1 f6 3b 5a 8c b1 ba
       -0.00096368795 0.0091493605 0.007536135 -0.0013545856
000250 27 10 d7 3b 38 86 db 3b c6 52 15 3c 50 8c 64 bb
       0.006563205 0.0066993497 0.009113973 -0.0034873672
000260 c3 b2 05 3c 8a 0c 09 bb 7d 2c 45 3a f3 a0 0e 3c
       0.008160296 -0.0020912015 0.0007521583 0.0087053655
000270 b7 d9 7e 3b c7 50 73 3b 7c 59 45 bb 6d b5 86 3c
       0.0038887092 0.0037127004 -0.0030113151 0.016443932
000280 e9 15 94 3c da 5c 13 3c 88 2c 80 bb 4c 25 78 bb
       0.018076854 0.0089943055 -0.0039115585 -0.0037864028
000290 5f 5f aa 3b 8a 25 46 3b e0 24 c7 3b 8e b5 36 3b
       0.0051993574 0.0030234777 0.006077394 0.002787921
0002a0 d0 80 a6 3b 30 64 b1 b9 a7 5c 6a 3b 4d fc 36 ba
       0.0050812736 -0.00033834716 0.0035760792 -0.0006980345
0002b0 e3 7d a3 3b d3 b8 68 3c 7c b1 05 bb f6 21 9c 3a
       0.004989372 0.014204222 -0.0020399978 0.0011911977
0002c0 90 38 34 3c 44 fc dc 3b 5c a3 0e bb 84 f2 87 3b
       0.010999814 0.0067439396 -0.002176485 0.004148783
0002d0 b1 f2 02 3b d9 e7 82 b9 09 2d 41 bb f8 a9 9b 3b
       0.001998108 -0.00024968272 -0.0029476306 0.0047504865
0002e0 ef 62 39 3b 08 7e 2b 3c ab 29 26 bb 99 65 70 bb
       0.0028287729 0.01046706 -0.0025354426 -0.003668165
0002f0 ec 01 60 3c e8 70 ac ba 0f 8b 54 3b c7 37 89 3b
       0.013672333 -0.0013156207 0.0032431518 0.0041875574
000300 aa 7c d7 3b 3a 9f 03 3b 18 df e0 3b 71 45 26 3b
       0.0065761404 0.002008392 0.0068625323 0.002537098
000310 fb 91 e5 3b d8 f5 ba 3b f9 d3 24 3c 85 c4 19 3b
       0.0070059276 0.0057055764 0.010060304 0.0023463082
000320 c4 95 47 bc 0d 16 94 ba 6b b1 66 bb 65 65 21 bc
       -0.012181703 -0.0011298076 -0.0035200964 -0.0098508345
000330 e6 c3 4a 3b c0 42 4f 3c 95 23 25 3c 2d 50 a9 bb
       0.0030939518 0.012650192 0.010079284 -0.0051670284
000340 39 ac e9 3a ae 92 80 3b 3f 1b 3a 3b 55 33 85 3b
       0.0017827816 0.0039237356 0.0028397588 0.004064957
000350 ff 95 0d 3c e6 65 7b 3b a3 f1 b2 3b 18 67 de 39
       0.008641719 0.0038360297 0.0054609342 0.0004241995
000360 c1 da c5 3b 1a d9 a2 3b 70 cb e0 3b 9e ec 0e 3c
       0.0060380404 0.004969728 0.006860189 0.008723406
000370 28 16 4a bb bb 84 f6 3b a2 f9 32 bb 9b 8d ba 3c
       -0.003083596 0.007523147 -0.0027309437 0.0227726
000380 18 7e 07 bb b8 b5 a4 bb dd df 82 b9 33 f3 7f 3a
       -0.0020674523 -0.0050265454 -0.00024962323 0.00097637175
000390 11 da 6c 3b 93 51 a4 3b 27 60 b7 ba db d9 f5 3b
       0.003614072 0.005014607 -0.0013990448 0.007502777
0003a0 8b ec 04 bb 08 a3 0e 3c a3 d6 b4 3b bc dc f7 3b
       -0.0020282592 0.008705862 0.0055187508 0.0075641554
0003b0 f5 55 9e ba e0 5b 08 3c f3 c9 1d 3b 6c 01 51 3a
       -0.001208006 0.008322686 0.002407667 0.0007972929
0003c0 a9 b2 8e bb ee ee 50 b9 04 27 3f 3c 64 97 95 3c
       -0.004354794 -0.00019925434 0.011667017 0.018260665
0003d0 4e e3 df 39 06 25 89 3a 90 60 0b 39 0b 4e 1a bb
       0.0004270323 0.0010463304 0.00013292045 -0.0023545052
0003e0 b8 61 b5 3a a9 9c be 3b 8e b4 e9 3a 38 b6 41 3b
       0.0013838327 0.005817015 0.0017830299 0.0029558074
0003f0 c2 72 c8 ba 95 45 10 3b d7 4b 18 3c 56 2a e2 b9
       -0.001529299 0.002201413 0.009295425 -0.00043137622

neural_net.2.weight f4 [4, 256]
000000 41 3a 85 3d d8 96 f0 3d 05 ef 07 3d 2e 21 0a 3e
       0.06505252 0.11747521 0.03318693 0.1348922
000010 05 97 c4 3d 20 bf 74 3d 45 2d a1 3d 33 a8 89 bc
       0.09599117 0.059752584 0.078699626 -0.016803836
000020 f7 83 c8 3d 2b 69 b1 bc 89 50 32 3d 4c c3 02 be
       0.09790795 -0.021656593 0.043533836 -0.12769812
000030 73 88 e3 3d fe 7a 4e 3d d2 da 86 bd b8 81 a7 bd
       0.1111001 0.050410263 -0.065847054 -0.08179039
000040 45 22 ed bd 6d 8d f5 bd c2 ff d9 bd ee d4 a2 3a
       -0.11578802 -0.119898655 -0.10644485 0.0012423077
000050 06 5b 03 bd 9c bd 11 bd e4 12 a3 bd f0 0b 0b be
       -0.03206923 -0.035581216 -0.079625875 -0.13578773
000060 81 cc b7 bd 38 18 84 3d 7b fb 86 3d d8 c4 a1 3c
       -0.08974553 0.06449932 0.06590935 0.019747183
000070 df 1a 21 be b2 0d 8a 3d bd c0 9e bd 41 da 66 3e
       -0.15732907 0.067408934 -0.07751606 0.22544195
000080 f6 b4 b5 3c 3b d2 60 3d c8 0c 65 3d 49 9d 10 3e
       0.022181015 0.05488799 0.055920392 0.141225
000090 78 7c b4 3d 51 ef 2f bd c5 b9 a7 bd 63 5a c6 3d
       0.08812803 -0.04295284 -0.081897296 0.09685209
0000a0 29 17 7e bd 93 1e be bd a7 86 3c 3d ed b6 ea bd
       -0.062033806 -0.09283175 0.046026852 -0.114606716
0000b0 25 6f 07 3d 6b fd c4 bd b9 88 b1 bd 24 55 30 bd
       0.03306498 -0.09618648 -0.08668656 -0.043049946
0000c0 16 47 b4 3d 69 7d 71 bc 60 23 74 bd 67 ec dd bd
       0.08802621 -0.014739373 -0.05960405 -0.10836106
0000d0 82 41 db bd 88 3f 04 be 35 32 c4 3d 98 04 e3 bb
       -0.10705854 -0.1291486 0.09579889 -0.006928038
0000e0 a8 24 f9 bd 61 fa 26 3e 05 be 12 3d 3e 10 ff bc
       -0.12165195 0.1630645 0.035825748 -0.031135675
0000f0 64 61 04 3e 4f 44 38 bd d8 12 b5 bd 6f 06 08 be
       0.12927777 -0.04498702 -0.08841485 -0.13283704
000100 0d b1 e6 3d 5d 5e de 3d 9a fc dc bd 3a 16 a6 bd
       0.112642385 0.10857842 -0.107903674 -0.08109708
000110 74 e2 b9 bd c6 e0 e1 3d f6 e8 33 3c 53 9c f6 bd
       -0.09076396 0.110292 0.010980835 -0.12041535
000120 20 87 e7 3d 69 0f e3 bd de 17 2b 3e 36 c8 dc bd
       0.1130507 -0.11086924 0.16708323 -0.10780375
000130 34 f0 fe bd f2 ad 0e be 0d 6f 60 3d de a7 f6 bd
       -0.12448159 -0.13933542 0.054793406 -0.12043737
000140 6e 9a 14 be 66 37 7f bd f6 ea 05 bd 02 e4 1f 3e
       -0.14512035 -0.06230869 -0.03269478 0.15614322
000150 fd 0a 9e bd db 87 01 be 0a bb 60 3d 88 e8 fd 3d
       -0.077169396 -0.12649481 0.054865874 0.123978674
000160 9e ae 65 bc 51 c7 02 3e 3d 7d a1 3d 86 36 02 bb
       -0.014018683 0.12771346 0.078852154 -0.0019868924
000170 09 50 90 bd b0 67 21 3e a5 b2 bf 3c 36 fc 94 3c
       -0.070465155 0.1576221 0.023400614 0.01818667
000180 1d 8e d4 bd 04 70 1c bd c8 18 04 3e b5 07 97 3b
       -0.103786685 -0.038192764 0.12900078 0.004609073
000190 d7 43 15 3e 0c c8 d0 bd ee d2 0a be 16 ac 0a 3e
       0.1457666 -0.10194406 -0.13557026 0.13542208
0001a0 0d a6 2c be ca 43 07 3d 27 e9 90 b9 42 d8 12 be
       -0.16860218 0.033023633 -0.00027639532 -0.14340308
0001b0 73 67 b3 3d 85 ca ac bd 52 a9 ba bd 00 5a 4d 3e
       0.08759966 -0.08437065 -0.091143265 0.20053864
0001c0 66 0e 41 3d bf d2 83 bd 3a 25 bc 3d ec 40 02 3e
       0.047132872 -0.06436681 0.09186788 0.12720078
0001d0 fe e1 10 3d 0a 43 db bd 49 e8 b6 bd d7 83 a4 bd
       0.035371773 -0.10706146 -0.08931024 -0.08032959
0001e0 c3 4c dc bd 82 47 9e 3d 50 7f 05 bd 6d e6 85 3c
       -0.10756829 0.07728483 -0.032592118 0.016345227
0001f0 9e 7c a8 3c 9e 4b 01 3e c6 e0 b7 bc 7d 58 87 3d
       0.020567235 0.12626502 -0.022446048 0.06608675
000200 a5 aa d1 bd 2e 87 f8 bd a3 4e da 3d a7 99 fa 3d
       -0.10237626 -0.121351585 0.1065953 0.12236338
000210 78 5a 05 3e e9 3d 17 3d 73 df f4 3d 06 7e f3 bd
       0.13022792 0.036924277 0.11956682 -0.118892714
000220 ea 26 0b be 8e 59 9d bd ef 76 18 3d 9f 3d e6 bd
       -0.13589063 -0.07683097 0.0372228 -0.11242222
000230 c0 cd ea bd 21 1e db 3d 04 08 6b 3c 63 5c ae 3b
       -0.11465025 0.10699106 0.014345173 0.005321072
000240 dc 1a 1b 3d 6a b9 aa bd a6 5c b3 bd 20 24 0a 3e
       0.037867412 -0.08336146 -0.08757906 0.13490343
000250 9e 28 f7 3c 88 cd e0 3d 94 9a f7 bd d4 f8 ea bc
       0.030170735 0.10976702 -0.1209003 -0.028683104
000260 f0 69 8c bd 24 8d f1 3d 6c 6c 29 be 1d 56 98 3d
       -0.068561435 0.117944986 -0.16545266 0.074383
000270 61 fd 1d 3d 70 a1 b6 bd 2d b4 98 3d 38 cd fc bd
       0.03857172 -0.089175105 0.07456241 -0.1234383
000280 31 58 15 be 9e 24 83 bd 19 47 f4 3c db c8 9b 3d
       -0.14584424 -0.064034685 0.029819058 0.076066695
000290 06 d4 91 bb 79 1a 0d be d8 bf c5 3d 89 36 1b be
       -0.004450324 -0.1377963 0.09655732 -0.15157522
0002a0 36 50 88 3d 1e 81 a3 3d 6f 67 0c be cb 4c 39 3c
       0.06655924 0.079836115 -0.13711332 0.011309813
0002b0 27 08 57 3d bd 1e 0b be 43 a1 1b 3e b5 3e 97 bd
       0.05249801 -0.13585944 0.15198235 -0.07385007
0002c0 80 9c 35 bd 9a cc 9c 3d c9 70 66 3d fd 59 01 bd
       -0.044338703 0.07656212 0.056259904 -0.03157996
0002d0 f3 f7 9f 3d 61 33 eb 3d f6 0e d0 bd 28 bc bf bd
       0.078109644 0.11484409 -0.101591036 -0.0936206
0002e0 7f 96 78 3d e1 e3 a8 bd e1 71 f8 3c 96 f9 0b be
       0.0606904 -0.082465895 0.03032774 -0.13669428
0002f0 a1 54 e4 bd eb 1f 1d bc c4 3f f3 3d e4 f4 03 3d
       -0.11148954 -0.009590129 0.11877397 0.032215968
000300 c0 44 e2 ba f9 76 4e bb 2f ce be 3d 10 a8 43 bd
       -0.0017262921 -0.0031504019 0.0931667 -0.0477677
000310 d7 99 d4 bd 14 e2 26 bd e9 45 6f bd 54 39 e4 3d
       -0.10380905 -0.04074295 -0.05841628 0.11143747
000320 e8 e4 24 bd 47 83 2b 3e 7e bd 2b 3e 32 a6 cd bc
       -0.040257365 0.16749297 0.16771504 -0.025103662
000330 12 38 82 bd b8 bb 0f 3e 93 73 0d be 06 6e c4 bd
       -0.06358351 0.14036453 -0.1381362 -0.09591298
000340 5c 3e 01 be 58 ef 02 3e 5b 0c 84 bd 36 e1 a1 3d
       -0.12621444 0.12786615 -0.06447669 0.07904284
000350 d2 96 f4 bd 8b ba 2d bd 49 13 bb bd a3 98 5a bc
       -0.11942829 -0.04241423 -0.09134538 -0.0133420555
000360 40 a3 23 bd 77 8b ae 3d 00 4f f3 bc f9 6a 21 3d
       -0.03995061 0.085226946 -0.029700756 0.039408658
000370 3e 8b 11 be e0 15 71 bd 82 77 db 3d 98 8d 26 be
       -0.14213273 -0.058858752 0.10716154 -0.16264951
000380 ce 40 13 3d 1d c4 22 bd 5b bb 10 bc 89 0c 28 3e
       0.035950474 -0.03973781 -0.0088337315 0.16411032
000390 7d 1c cb 3d 46 14 3b 3e 5f b6 96 3d 57 7f 48 3d
       0.09917543 0.18269452 0.07359003 0.048949566
0003a0 39 e6 22 bd 5c 57 76 bd 77 2c f7 3d f6 ab cd 3d
       -0.03977034 -0.060141906 0.12069028 0.100425646
0003b0 73 0c 9f 3d bf 39 a9 bc 3e 3c 3e bd cf 3f c4 3d
       0.077660464 -0.020657418 -0.04644417 0.09582483
0003c0 e5 c1 01 be 45 01 04 3d 3b eb dd 3d b4 60 dc bd
       -0.12671621 0.032227773 0.10835882 -0.10760632
0003d0 e5 35 00 3e fb 94 41 3d cb 0d 28 bc 9b 2b 30 3e
       0.12520559 0.04726122 -0.010257195 0.17204134
0003e0 68 1a 06 be 23 b0 a7 3d 63 4f a0 3c 0e 32 06 be
       -0.1309601 0.08187892 0.019569105 -0.13105032
0003f0 9c 5b 97 bd 07 f8 ee bc 97 8f 4b 3d 71 0a 0d 3d
       -0.0739052 -0.029171003 0.049697485 0.034433786

neural_net.2.bias f4 [4]
000000 c1 15 6d bb 81 3e 46 bc a4 83 02 3c f5 e7 06 3c
       -0.0036176296 -0.012099863 0.007965956 0.008234014
