projects/minigrid_repro/data/oversight_levels/policy_99344.pt (torch, 373690 bytes, 6 tensors)

neural_net.1.1.layers.0.weight f4 [256, 100]
0	0xbdc7cd1c	-0.097559184
1	0xbdccb3cb	-0.0999523
2	0xbe15020d	-0.14551564
3	0xbe1d32b6	-0.15351376
4	0x3d2ffd48	0.042966157
5	0x3d91481a	0.070938304
6	0x3db247d4	0.087051064
7	0x3d8a5ad3	0.067556046
8	0xbe1dfa6a	-0.15427557
9	0x3ae7a109	0.0017671894
10	0x3cb95ab4	0.022626258
11	0x3dd7a43e	0.105293736
12	0x3c7800ee	0.01513694
13	0xbe1079a0	-0.14108896
14	0xbd8c5d9e	-0.068537936
15	0x3d194160	0.037415862
16	0xbd9b0f34	-0.07571259
17	0xbd2285f6	-0.039678536
18	0xbe0ac0ab	-0.1355006
19	0xbdcb885c	-0.09938118
20	0xbd4bc742	-0.049750574
21	0xbc993e0e	-0.018706348
22	0x3dbf7404	0.093483
23	0xbd75ade5	-0.059980292
24	0xbdd01419	-0.10160083
25	0xbd3fb72c	-0.046805546
26	0xbd5abaab	-0.053400677
27	0xbca19baf	-0.019727556
28	0x3a8723c3	0.001031034
29	0xbc989bf0	-0.018629044
30	0x3caf1b7a	0.021375407
31	0xbd91f260	-0.071263075
32	0x3d924cdd	0.07143567
33	0x3cf93a1a	0.030423213
34	0xbcf6dff7	-0.030136092
35	0xbc54ea3b	-0.012995298
36	0xbd327a32	-0.043573566
37	0x3daa8554	0.083262116
38	0x3bb67daa	0.0055691795
39	0xbd46abb4	-0.048503593
40	0xbcfaaf37	-0.030601127
41	0xbd417db6	-0.047239028
42	0xbc4dcdd2	-0.012561278
43	0x3dae6ac4	0.08516458
44	0x3b8e4b4c	0.004342472
45	0xbc1c27e1	-0.009530992
46	0x3d397a18	0.045282453
47	0x3d18aaff	0.03727245
48	0x3db3a668	0.08771974
49	0xbcd8a32e	-0.026444998
50	0xbda1026d	-0.07861791
51	0xbdecff71	-0.11572159
52	0xbd95bf32	-0.07311858
53	0xbd5c44ce	-0.053776555
54	0xbdcb4e31	-0.09927023
55	0x3d28b021	0.041183595
56	0x3d14be3a	0.036314227
57	0x3d916611	0.07099546
58	0x3d597579	0.053090546
59	0xbd4dacac	-0.0502135
60	0xbd8529c8	-0.0650211
61	0x3caa10de	0.020759996
62	0x3c553526	0.01301316
63	0x3e135935	0.14389499
64	0xbd864b68	-0.06557351
65	0xbd77f1fa	-0.0605335
66	0xbd624577	-0.055242028
67	0xbd583b56	-0.052790962
68	0xbd0822ac	-0.03323619
69	0xbd67238f	-0.056430396
70	0xbd8742be	-0.06604527
71	0xbb6b9932	-0.0035949466
72	0xbb98b2a4	-0.0046599675
73	0x3d6c0f98	0.05763206
74	0x3dd34b90	0.10317147
75	0x3c0ffcab	0.008788268
76	0x3c36ac4d	0.011149478
77	0x3d9e5c09	0.07732398
78	0x3d7a5404	0.06111528
79	0x3cbb31c8	0.022850886
80	0x3c882e20	0.016623557
81	0x3d34856b	0.04407255
82	0xbdb14126	-0.08655004
83	0xbd8d249a	-0.06891747
84	0x3d9f2efa	0.07772632
85	0x3d44d652	0.048055954
86	0x3d2094a6	0.039204262
87	0x3d8f088b	0.06984051
88	0xbd4ddf74	-0.05026193
89	0x3d8f6eed	0.07003579
90	0xbbf01228	-0.007326383
91	0x3d950b91	0.07277597
92	0xbc9ce22f	-0.019150821
93	0xbe0481e8	-0.1294018
94	0x3bff2bb5	0.0077871927
95	0xbc04ee12	-0.008113401
96	0x3dc728c8	0.09724575
97	0x3bd05ba2	0.0063585797
98	0x3d6861d6	0.05673393
99	0x3c37d8ca	0.01122112
100	0x3b52fe35	0.0032194976
101	0xbdc9c20e	-0.09851466
102	0x3caef64a	0.021357674
103	0x3ab300eb	0.001365689
104	0x3cddb71e	0.027064856
105	0x3cf24b31	0.02957687
106	0xbdc0d1c9	-0.09415013
107	0x3df16316	0.11786477
108	0xbd2e3e7f	-0.04254007
109	0x3e0dfa5e	0.13865039
110	0x3def9818	0.116989315
111	0x3e0fc298	0.14039075
112	0x3d841692	0.064496174
113	0xbe2ece66	-0.17070922
114	0x3c1d72d2	0.009609895
115	0xbcd3c835	-0.025852302
116	0xbd8c277c	-0.068434685
117	0xbc9c12cb	-0.01905193
118	0xbd8905df	-0.06690573
119	0x3d28abad	0.041179348
120	0xbde0c829	-0.109756775
121	0x3d8ae581	0.06782056
122	0x3d995b64	0.074881345
123	0xbdf94398	-0.121710956
124	0xbd020af2	-0.03174872
125	0xbcacae20	-0.021079123
126	0xbd8378cd	-0.06419525
127	0xbd8c01e0	-0.06836295
128	0xbd61bd61	-0.055112246
129	0x38c5eaa6	9.437399e-05
130	0x3da232eb	0.07919868
131	0x3c5fb199	0.013653182
132	0xbd769f04	-0.060210243
133	0x3d0682f8	0.032839745
134	0xbd837774	-0.06419268
135	0x3c8a9113	0.01691488
136	0x3d23ad78	0.039960355
137	0xbd9c4d22	-0.076318994
138	0xbb561613	-0.0032666966
139	0xbdccdf41	-0.1000352
140	0x3d92757d	0.07151315
141	0xbd6b585d	-0.057457317
142	0xbd7593cd	-0.059955407
143	0x3d3a60eb	0.045502584
144	0xbcf30b54	-0.029668488
145	0xbd02c155	-0.031922657
146	0xbc80a328	-0.015702799
147	0xbd16fc6d	-0.036861826
148	0x3b8b124e	0.0042441254
149	0xbd7628e3	-0.060097586
150	0x3c0c7e28	0.008575
151	0x3ddee2b7	0.10883086
152	0x3d05fd9b	0.03271256
153	0x3d82b597	0.06382292
154	0xbe0a39c2	-0.13498595
155	0x3c160ca9	0.009158292
156	0x3d80de99	0.06292457
157	0xbb92f855	-0.00448517
158	0x3da4e5e4	0.08051661
159	0xbcdaecf3	-0.026724314
160	0x3d26a02f	0.040680107
161	0x3d6ab7de	0.057304256
162	0xbdb06652	-0.08613266
163	0x3c11daeb	0.008902292
164	0xbdd33665	-0.10313109
165	0xbda5b59b	-0.08091279
166	0xbe06a748	-0.1314975
167	0xbdb96aed	-0.090535976
168	0x3e022ff2	0.12713602
169	0xbd1dd4b4	-0.038532928
170	0xb9d5235c	-0.0004065287
171	0x3d767c1f	0.060176965
172	0x3c54b118	0.012981676
173	0x3dad2e63	0.08456113
174	0x3c4819aa	0.01221315
175	0xbd621650	-0.05519706
176	0x3d48a0a8	0.04898134
177	0x3cc55059	0.024086164
178	0x3d609e71	0.0548386
179	0xbcb0f2b1	-0.0216001
180	0x3c927a75	0.017880658
181	0xbd4f7e1a	-0.05065737
182	0x3c24a5de	0.010049311
183	0xbc6d56cb	-0.014486025
184	0xbd66020a	-0.05615429
185	0xbc1def12	-0.009639518
186	0xbda3f5c5	-0.08005861
187	0x3d991d8a	0.07476337
188	0x3d2a077d	0.041511048
189	0x3be38402	0.006943227
190	0x3d1a4e09	0.037672076
191	0x3d881a6c	0.066456646
192	0x3da89436	0.08231394
193	0xbd921d5d	-0.07134507
194	0xbd630166	-0.055421256
195	0xbd5ef4a9	-0.054432545
196	0xbd7dd827	-0.061973717
197	0x3c8ed6b7	0.017436368
198	0xbd8edadd	-0.069753386
199	0xbc82bce2	-0.015959207
200	0x3de0326c	0.10947117
201	0x3dc9c447	0.0985189
202	0xbd912297	-0.070866756
203	0xbdbc38c4	-0.09190515
204	0x3e147e35	0.14501269
205	0xbd9514e4	-0.07279375
206	0xbcbfbd40	-0.023405671
207	0xbdad7c69	-0.08470995
208	0xbcc157f2	-0.023601506
209	0x3dd6a5c5	0.10480837
210	0xbdb4082b	-0.087906204
211	0xbd8bfcdf	-0.06835341
212	0xbca15597	-0.019694133
213	0x3cfa77c7	0.030574692
214	0xbd9891ad	-0.074496605
215	0x3da27e19	0.079342075
216	0x3c2351fe	0.009968279
217	0x3d81a1c7	0.06329685
218	0xbccf3f8c	-0.025298856
219	0xbe5b7c62	-0.21434167
220	0x3c0acad9	0.008471214
221	0xbd7bcef1	-0.06147665
222	0x3dd189b0	0.1023134
223	0xbdec3e5c	-0.115353316
224	0xbdb65a10	-0.08903897
225	0xbcd95328	-0.02652891
226	0xbd246471	-0.04013485
227	0xbcf3bc22	-0.029752795
228	0xbd1224e1	-0.0356797
229	0xbd015a8a	-0.031580485
230	0x3d4183a2	0.047244675
231	0x3df52ae4	0.11971071
232	0xbd315519	-0.043294046
233	0xbe0440cb	-0.12915342
234	0x3b97c2de	0.0046313843
235	0xbcab168d	-0.020884776
236	0xbc587e27	-0.013213671
237	0xbdb8933a	-0.09012456
238	0x3ca0ec4c	0.019643925
239	0x3c631d15	0.013861914
240	0xbd0801c4	-0.03320481
241	0xbdb530e0	-0.08847213
242	0x3d0cc6a0	0.03436911
243	0x3daf27a9	0.085524864
244	0x3c2b5b80	0.010458827
245	0x3d554192	0.052064486
246	0x3dca73fb	0.09885403
247	0x3da06a09	0.078327246
248	0x3d545ae5	0.051844496
249	0xbd846b2d	-0.06465755
250	0x3bf6009b	0.0075073964
251	0x3c3e3126	0.011608398
252	0x3bb3f910	0.005492337
253	0xbd8d59c9	-0.06901891
254	0x3b86dba3	0.004115538
255	0x3d01bebe	0.031676047

neural_net.1.1.layers.0.bias f4 [256]
0	0x3cd65ce2	0.026167337
1	0x3c34b781	0.011030079
2	0x3c4944d3	0.012284475
3	0x3c7d835d	0.015473214
4	0x3cba32e0	0.022729337
5	0x3cfdada4	0.030966587
6	0xba912ba3	-0.0011075627
7	0x3d09f68e	0.0336824
8	0x3b945733	0.0045269965
9	0x3cc59152	0.024117146
10	0x3c21e982	0.009882333
11	0xbbe78c1f	-0.0070662643
12	0xbb92eea2	-0.0044840137
13	0x3b97c202	0.004631282
14	0x38f12a65	0.00011499672
15	0x3d1d3e22	0.038389333
16	0x3c644f73	0.013934958
17	0x3c4f8413	0.012665766
18	0x3bf62317	0.0075115073
19	0x3aafccb4	0.0013412447
20	0x3cb08fb7	0.021552904
21	0x3ccebe4c	0.025237225
22	0x3b3310d8	0.0027323272
23	0x3cc11533	0.023569679
24	0x3cc790b9	0.024361001
25	0x3c7c46a0	0.015397698
26	0x3b1417c1	0.0022597166
27	0x3c9ea64e	0.01936641
28	0x3cfc9467	0.030832483
29	0x3ccbb538	0.024866685
30	0x3b0a720b	0.0021125104
31	0x3b8a5e46	0.004222664
32	0x3a9f2e9f	0.0012144631
33	0x3cb4a1df	0.022049842
34	0x3cc958cc	0.024578474
35	0x3d028cf5	0.03187271
36	0x3be46d70	0.006971054
37	0xba8f3616	-0.0010926153
38	0x3aa485f9	0.0012552134
39	0xbbb97caf	-0.0056606154
40	0x3bb948f7	0.00565445
41	0x3c199996	0.009374997
42	0x3c07d512	0.008290546
43	0x3c553de1	0.013015241
44	0x3c602774	0.013681281
45	0xbbfb3956	-0.007666747
46	0x3c51405f	0.012771695
47	0x3bca885d	0.0061808066
48	0x3cdbe95f	0.026844678
49	0x3cac3e9a	0.021025945
50	0x3c83f212	0.016106639
51	0x3c18ec9b	0.009333755
52	0x3c2f123e	0.010685502
53	0x3c685c66	0.014182186
54	0x3c9866f1	0.018603774
55	0x3cde4196	0.027130883
56	0x3b66d084	0.00352195
57	0x3d33c88f	0.04389244
58	0x3c1a19d9	0.009405577
59	0x3c9277a9	0.017879324
60	0x3caee301	0.021348478
61	0x3c836095	0.016037265
62	0x3c613f02	0.013747932
63	0xbbc5571a	-0.006022346
64	0x3ccf6a9e	0.025319394
65	0x3d24735d	0.04014908
66	0x3cead6b6	0.028666835
67	0x3cdbcc95	0.02683095
68	0xbc0a3967	-0.008436537
69	0x3ad8a7b5	0.0016529473
70	0x3c5927f0	0.013254151
71	0xbb81bf84	-0.003959598
72	0x3c5d2987	0.01349867
73	0x3b8ac2c8	0.0042346455
74	0x3cd94eb5	0.026526788
75	0x3bf1d2c1	0.00737986
76	0x3ca0b3f9	0.019617068
77	0x3bea0c98	0.0071426146
78	0xbc4602b8	-0.012085609
79	0x3cf806d2	0.03027669
80	0xbb331519	-0.0027325808
81	0x3c45eafc	0.01207995
82	0x3c4084a0	0.01175037
83	0x3c7927cf	0.015207245
84	0x3d0bf177	0.034165826
85	0x3b9eeee5	0.004850256
86	0x3c63dac6	0.01390714
87	0x3d284689	0.041082893
88	0xb9369b6c	-0.00017414772
89	0x3c00cf5a	0.007861936
90	0x3c9f32a9	0.019433336
91	0xbc846e7c	-0.016165964
92	0x3ce8c08b	0.028412124
93	0x3be62cf6	0.0070244027
94	0x39ab7138	0.00032700016
95	0x3cb401b5	0.02197347
96	0x3c78b91c	0.015180852
97	0x3b5fd952	0.0034156633
98	0xbc2fbdda	-0.0107264165
99	0x3caf01f6	0.02136324
100	0x3ca03820	0.019558012
101	0x3c97c2d0	0.018525511
102	0x3c688179	0.014191025
103	0x3b1b0efb	0.0023660052
104	0x3cba16a9	0.022715883
105	0x3c48ab99	0.012247943
106	0x3bd968b3	0.0066347956
107	0x3ce2775b	0.027644804
108	0xbc281cc8	-0.010260768
109	0x3c972c44	0.018453725
110	0x3c85ff55	0.016357103
111	0x3c8c40da	0.017120767
112	0x3c39d2b5	0.01134174
113	0x3a9cecd4	0.0011972436
114	0x3c835023	0.016029423
115	0x3b8152dd	0.0039466457
116	0x3c093cae	0.008376284
117	0x3c934086	0.017975103
118	0xb955bdde	-0.00020383994
119	0x3cabf46d	0.020990575
120	0xbc9dcd3c	-0.019262902
121	0x3c52178b	0.012822996
122	0x3cc273f0	0.023736924
123	0x3d01b78c	0.031669185
124	0x3ca51212	0.020150218
125	0xbc0c82ee	-0.008576138
126	0xbbc22f50	-0.0059260502
127	0x3c06970a	0.008214721
128	0x3c4b9eeb	0.012428026
129	0x3c6cd91b	0.014456059
130	0x3ca9c7a5	0.02072508
131	0x3c83bb8a	0.016080637
132	0xbb975807	-0.004618648
133	0x3c817d30	0.015806764
134	0x3aa2ef7b	0.001243099
135	0x3cecea9a	0.02892046
136	0x3d0c0683	0.034185898
137	0x3aa967a9	0.001292457
138	0x3c96449e	0.018343266
139	0x3c93d7c5	0.018047223
140	0x3b9f32de	0.0048583588
141	0xbc2e4164	-0.0106357075
142	0x3bf868a9	0.007580836
143	0x3cf12fc6	0.029441725
144	0xbada753e	-0.0016667021
145	0x3d0b9db4	0.034085944
146	0x3ca17f12	0.019713912
147	0x3c150eb3	0.009097743
148	0xbc1ef562	-0.0097020585
149	0x3bc63c65	0.00604968
150	0x3c5e4d3c	0.013568219
151	0x3c24fb7a	0.010069722
152	0x3ce0bbf5	0.027433375
153	0x3c0f8fe0	0.00876233
154	0x3cb9b0b2	0.022667263
155	0xbcc6c99e	-0.02426606
156	0x3d061e7e	0.032743923
157	0x3b9fab48	0.0048727132
158	0x3d51e3c3	0.0512426
159	0x3c30b580	0.0107854605
160	0x3b8165cf	0.003948904
161	0x3c41dcff	0.011832475
162	0x3c05c0a8	0.008163609
163	0x3c2e1119	0.010624194
164	0x3c84a834	0.016193487
165	0x3b9b661d	0.0047423975
166	0xbbf49ec1	-0.007465214
167	0x3cf74f41	0.030189158
168	0x3c7c75e7	0.0154089695
169	0x3cfc184a	0.0307733
170	0x3c391f18	0.011298917
171	0x3bac0e26	0.00525071
172	0x3cd75381	0.026284935
173	0x3ccc45e8	0.024935678
174	0x3d007fe4	0.031371966
175	0x3943c27a	0.00018669097
176	0x3bf33c87	0.007422987
177	0xbbc9b1c6	-0.0061552254
178	0xbc460819	-0.012086892
179	0x3cdad452	0.02671257
180	0x3c9ff574	0.01952622
181	0x3d183a09	0.03716472
182	0xbb95953f	-0.0045649107
183	0x3cce55ba	0.025187362
184	0x3c95711e	0.018242415
185	0x3cc24414	0.023714103
186	0x3c59473a	0.013261611
187	0x3c53958f	0.0129140755
188	0xbc07d9ad	-0.008291644
189	0x3c993500	0.01870203
190	0x3c04bbab	0.008101384
191	0x3c98d99f	0.018658457
192	0x3c80e5a5	0.015734503
193	0x3ca0baa5	0.019620249
194	0x3cb42e28	0.021994665
195	0x3c612bf3	0.0137433885
196	0x3cc7ded4	0.024398245
197	0x3c3fd845	0.0117092775
198	0x3c435b3a	0.011923606
199	0x3b938a00	0.004502535
200	0x3badbcde	0.0053020557
201	0x3c0fcf35	0.008777429
202	0x3c2650f3	0.010151136
203	0x3cb10791	0.021610053
204	0x3c60127e	0.013676284
205	0x3c6f4543	0.014603916
206	0x3c86ede4	0.016470857
207	0x3c7ef93c	0.015562352
208	0xbca26938	-0.019825563
209	0x3c2db010	0.010601059
210	0x3bda13dd	0.0066552
211	0x3c53603b	0.012901361
212	0x3d315f74	0.04330392
213	0x3cbb8672	0.022891257
214	0xbb1dc59d	-0.0024074086
215	0x3ae75287	0.0017648496
216	0x3c6cfc50	0.014464453
217	0x3ac3c8af	0.0014937128
218	0x3b38c293	0.0028192147
219	0x3b9e6e39	0.004834917
220	0x3c97608e	0.018478658
221	0x3abe72d3	0.001453007
222	0xb9316fe7	-0.00016921722
223	0x3bced672	0.006312185
224	0x3c98b57e	0.01864123
225	0x3d3057a0	0.043052316
226	0x3b30e914	0.0026994394
227	0x3c679d1d	0.01413658
228	0x3c8def35	0.017325977
229	0x3c32d6ca	0.0109154675
230	0x3c4700cd	0.012146187
231	0x3b8a33a4	0.004217582
232	0x3c99979d	0.018749053
233	0x3c1fd606	0.009755617
234	0x3bc7e234	0.0060999636
235	0x3c9934a3	0.018701857
236	0x3c7b448d	0.015336168
237	0xba8b5311	-0.0010629614
238	0x3b51cc8b	0.0032012786
239	0x3ccb4f82	0.024818186
240	0xbb410cdb	-0.0029457125
241	0x3b194acd	0.0023390532
242	0xbbc3e7a7	-0.005978543
243	0x3c8a0653	0.016848719
244	0x3c9c4581	0.01907611
245	0x3d1c8213	0.038209986
246	0x3c8db8d8	0.017300054
247	0x3c2419d8	0.010015927
248	0x3bac6c56	0.005261938
249	0x3c0b68f0	0.008508906
250	0xba2bbd96	-0.0006551383
251	0x3c08b505	0.00834394
252	0x3c18ca14	0.009325523
253	0x3c8bacc8	0.017050162
254	0x3cc38b37	0.023870094
255	0x3c84a7f7	0.016193373

neural_net.1.1.layers.1.weight f4 [256, 256]
0	0x3df9f555	0.122049965
1	0xbadd8077	-0.0016899247
2	0x3ba5c362	0.005058692
3	0xbb8bc044	-0.004264863
4	0xbda0004b	-0.07812556
5	0x3d5b55be	0.053548567
6	0xbcb0181c	-0.021495871
7	0x3d574f54	0.052565888
8	0x3d9d2850	0.076737046
9	0x3d50f3c3	0.05101372
10	0x3d4100d2	0.047119923
11	0x3b4e9351	0.0031520913
12	0x3d972d96	0.07381742
13	0xbdd4ffc9	-0.1040035
14	0xbcf45fca	-0.029830832
15	0x3d8506bd	0.06495426
16	0xbba35840	-0.0049848855
17	0x3d857fee	0.06518541
18	0x3b85e48b	0.0040860823
19	0xbd61a923	-0.055092942
20	0x3d8f8229	0.07007248
21	0xbcde04ac	-0.027101837
22	0x3cf790ac	0.030220352
23	0xbceb0428	-0.028688505
24	0x3ba855f0	0.0051371977
25	0x3d6ca537	0.05777475
26	0x3d167174	0.03672929
27	0xbb7cc4de	-0.003856949
28	0x3d6a1acb	0.057154458
29	0x3d6ca453	0.0577739
30	0xbd64940e	-0.05580526
31	0x3dfeb99d	0.12437747
32	0xbce60227	-0.028077198
33	0x3cbb06e5	0.022830436
34	0x3d3aad92	0.045575686
35	0xbd160345	-0.03662421
36	0x3d4e0d92	0.05030591
37	0xbd24e342	-0.040255792
38	0x3cb93b8c	0.022611402
39	0x3b6a6066	0.0035763024
40	0x3d969bf6	0.07353966
41	0xbd47e6b7	-0.04880401
42	0x3d1388eb	0.036019247
43	0x3cb1f3f3	0.02172277
44	0xbdb37e1f	-0.0876429
45	0xbd0d9e54	-0.03457482
46	0x3d514185	0.051087875
47	0x3c986266	0.018601608
48	0x3d4b576a	0.04964391
49	0x3d363f07	0.0444937
50	0x3c345c39	0.011008316
51	0x3cec7dec	0.028868638
52	0x3d03afb8	0.03215
53	0x3d2a2bfa	0.041545846
54	0x3abef6ad	0.0014569365
55	0x3d1a9f72	0.037749715
56	0x3db1cceb	0.08681663
57	0xbc9342e4	-0.017976232
58	0x3c2305e4	0.009950135
59	0x3d64eca3	0.055889737
60	0xb9dd71d0	-0.00042237202
61	0xbd0d4b4f	-0.034495648
62	0x3d829881	0.06376744
63	0xbd2080eb	-0.039185446
64	0x3b980fde	0.0046405634
65	0x3d26a361	0.040683154
66	0xbcaa1344	-0.02076114
67	0xbca478ef	-0.020077197
68	0xbd1b1b8a	-0.03786806
69	0x3de52acb	0.11189803
70	0xbda9a743	-0.08283856
71	0x3c15750b	0.0091221435
72	0x3c7aec0b	0.015315066
73	0xbde4f2bb	-0.1117911
74	0xbdabeaf9	-0.08394427
75	0x3c354b15	0.011065264
76	0x3dfd97a7	0.12382441
77	0xbca37946	-0.019955289
78	0xbda74656	-0.081677124
79	0xbcb364d3	-0.021898663
80	0x3d16355e	0.03667199
81	0x3df8de3e	0.12151764
82	0x3ca0fc89	0.019651668
83	0xbd427a1a	-0.047479726
84	0x3d196e73	0.03745885
85	0x3d56d865	0.052452464
86	0x3c9b0eed	0.018928016
87	0xbd151322	-0.0363952
88	0x3c493412	0.012280481
89	0x3d90eafe	0.07076071
90	0x3a36c449	0.0006971998
91	0xbd03f3b1	-0.032214824
92	0x3dcfa3b1	0.101386435
93	0xbd0a666a	-0.033789076
94	0xbd1a6952	-0.037698098
95	0x3ddae91b	0.106889926
96	0xbc3a9aaa	-0.011389414
97	0xbdb833a6	-0.08994226
98	0x3d0bc288	0.034121066
99	0x3c56621b	0.013084914
100	0xbc5f89e9	-0.01364372
101	0xbd8879f1	-0.066638835
102	0xbc21621f	-0.009850054
103	0x3d4e45e2	0.050359614
104	0xbc00fe55	-0.0078731375
105	0xbb9c1df2	-0.004764312
106	0x3c3ad161	0.011402459
107	0xbd42fd54	-0.047604874
108	0xbba2cd29	-0.0049683047
109	0x3d3590eb	0.044327658
110	0xbd77294b	-0.060342114
111	0xbd5e9832	-0.054344364
112	0xbdb97e46	-0.09057288
113	0xbd330962	-0.04371012
114	0xbd23a153	-0.039948773
115	0xbc20e505	-0.0098202275
116	0xbd635417	-0.055500116
117	0x3cbaba51	0.02279392
118	0x3b11d8db	0.00222545
119	0xbc5f1d6f	-0.013617857
120	0x3c3fe0b5	0.011711289
121	0x3d1b4a03	0.03791238
122	0x3d620889	0.05518392
123	0xbae90fb5	-0.001778117
124	0xbd01995b	-0.03164039
125	0xbd607c43	-0.054806005
126	0x3d492e79	0.049116585
127	0x3d62f06d	0.05540507
128	0xbcf12672	-0.029437277
129	0xbe24178e	-0.1602461
130	0xbd9cbfd7	-0.07653778
131	0x3bc4b4a6	0.0060029803
132	0x3da402e8	0.08008367
133	0x3c038e87	0.008029587
134	0x3b4e8c65	0.0031516787
135	0xbda02871	-0.078202136
136	0xbdbd1544	-0.09232572
137	0xbd108ef7	-0.035292592
138	0x3d2954a0	0.04134047
139	0xbd64289d	-0.055702794
140	0x3d1f187d	0.038841713
141	0x3acfe560	0.0015861206
142	0x3d326ec1	0.043562654
143	0xbcd6d150	-0.026222855
144	0xbce3901c	-0.027778678
145	0xbc900787	-0.017581714
146	0xbcbb9dd4	-0.022902407
147	0x3b9bd640	0.004755765
148	0xbd6dd131	-0.05806083
149	0xbca341ee	-0.019928899
150	0x3d956559	0.07294721
151	0x3d8f9249	0.070103236
152	0x3ba3f0a8	0.0050030537
153	0xbcb36e7b	-0.021903267
154	0xbd84a2ba	-0.0647635
155	0x3d90c4bb	0.07068773
156	0x3db9a705	0.090650596
157	0x3c97a1d0	0.018509775
158	0x3d0d02e7	0.034426596
159	0xb9c53816	-0.00037616555
160	0x3ba481a7	0.0050203386
161	0xbd6ee555	-0.058324177
162	0x3d711673	0.0588593
163	0x3da84809	0.082168646
164	0xbc66d8aa	-0.014089743
165	0xbd9361fd	-0.07196424
166	0x3d4a3d6e	0.04937499
167	0xbdb6fdfa	-0.08935161
168	0xbcfa1ff5	-0.030532816
169	0x3c891bfb	0.016736975
170	0x3c967b02	0.018369202
171	0xbdde2844	-0.10847524
172	0xbd3c99c9	-0.0460451
173	0x3d8d6fc0	0.0690608
174	0xbcd450f5	-0.02591751
175	0x3d05f51b	0.032704454
176	0xbd1c163c	-0.03810714
177	0xbd5fcf7b	-0.05464123
178	0xbd3e7d9e	-0.046506517
179	0x3d57157c	0.052510723
180	0xbbae9b75	-0.0053285905
181	0x3c7dff58	0.015502773
182	0xbd3f28a9	-0.046669636
183	0xbcad2cab	-0.021139463
184	0x3d4efd8d	0.050534774
185	0xbd6ed4e9	-0.058308516
186	0xbd6c6fc5	-0.05772378
187	0xbd553244	-0.05204989
188	0xbd4fa4d8	-0.050694317
189	0xbc1abf30	-0.009444997
190	0x3cc3e122	0.023911063
191	0x3cc07ba7	0.023496462
192	0xbdb10caf	-0.08644997
193	0x3d1c59a8	0.03817144
194	0xbd519c56	-0.051174484
195	0x3c8c1830	0.017101377
196	0x3dc117f9	0.094284005
197	0x3d9177ac	0.07102904
198	0x3cc270ee	0.02373549
199	0x3cf1e93a	0.029530156
200	0xbca33787	-0.019923938
201	0x3ca18e4a	0.019721169
202	0xbcb4412d	-0.022003734
203	0x3d8364f3	0.06415739
204	0xbdb2ab5f	-0.08724093
205	0xbd724523	-0.059147965
206	0xbdae3a0c	-0.08507165
207	0x3db38a28	0.087665856
208	0x3ca0f6e8	0.019648984
209	0xbd110f67	-0.03541508
210	0x3d6b1170	0.057389677
211	0x3c74b635	0.01493602
212	0xbd010031	-0.031494323
213	0x3c2c551a	0.010518337
214	0xbd0efa8d	-0.034906913
215	0xbc416632	-0.01180415
216	0xbd155c6a	-0.036465086
217	0xbdd08436	-0.10181467
218	0xbdbd9921	-0.09257723
219	0x3d1302fc	0.035891518
220	0x3dc9d16d	0.09854398
221	0x3d875f2e	0.06609951
222	0xbd16f114	-0.036851004
223	0x3c8a2e2f	0.016867725
224	0x3b91003e	0.0044250777
225	0x3d7d79e0	0.061883807
226	0x3d260d00	0.04053974
227	0x3d8c0b55	0.06838099
228	0xbd35edef	-0.044416364
229	0xbbf10fb3	-0.007356608
230	0x3ce4b9c1	0.027920606
231	0xbdc9076e	-0.0981587
232	0x3c8178fe	0.015804764
233	0xbad59bc0	-0.0016297027
234	0xbd449aba	-0.04799912
235	0x3cc42fc6	0.023948561
236	0xbb9ed939	-0.0048476723
237	0xbded72d1	-0.11594165
238	0x3d99c669	0.07508547
239	0xbd1da24e	-0.038484864
240	0xbd98f79b	-0.07469102
241	0xbd61796f	-0.05504745
242	0x3d8af187	0.06784349
243	0x3de1c4fe	0.110239014
244	0xbd4107a5	-0.04712643
245	0xbb243def	-0.002506133
246	0xbd44ed9b	-0.04807816
247	0xbc50d7d3	-0.012746769
248	0xbda8d30a	-0.082433775
249	0xbcd3d5dd	-0.025858814
250	0x3c5f56fb	0.013631578
251	0xbcb5b7a4	-0.022182293
252	0x3d6d42e3	0.057925116
253	0xbd980297	-0.07422369
254	0x3c15aac8	0.009134956
255	0x3d2cb16d	0.042161394

neural_net.1.1.layers.1.bias f4 [256]
0	0x3ad5fdec	0.0016326285
1	0x3b6505a2	0.0034945984
2	0x3b1f9dd8	0.0024355557
3	0xbac6ddf8	-0.0015172353
4	0xbafc0b81	-0.0019229503
5	0xbc08e93c	-0.008356389
6	0xb92d0503	-0.00016500433
7	0xb8f25794	-0.00011555772
8	0x3c008eb3	0.007846522
9	0x3c15dcf8	0.009146921
10	0x3bbbafe3	0.0057277544
11	0x3ae6df5f	0.0017614177
12	0xba711b5e	-0.00091974984
13	0xbaf55150	-0.001871625
14	0x3b2493b3	0.002511245
15	0xbc05883f	-0.008150159
16	0x3ba8a401	0.005146504
17	0xba0b3dcc	-0.00053116377
18	0xbb2d3c15	-0.0026433517
19	0xbbc3d14c	-0.005975878
20	0x3b367734	0.0027842047
21	0x3a5bad63	0.00083800236
22	0x3c2eea3a	0.010675961
23	0x3b953b8b	0.004554217
24	0x3bf85a98	0.007579159
25	0x3b663a7c	0.0035130074
26	0xbc326b82	-0.01088989
27	0xbbe1b1f7	-0.00688767
28	0x3afc94fe	0.0019270477
29	0xbc1f3452	-0.009717064
30	0xbb9563ea	-0.00455903
31	0x3937b856	0.0001752091
32	0xbab82b10	-0.001405092
33	0x3b96adf5	0.004598374
34	0x3c0dab3a	0.008646781
35	0xbb4d20ed	-0.0031300143
36	0x3c0cd4e4	0.008595679
37	0xbb80de7d	-0.0039327727
38	0xba1af19e	-0.00059106376
39	0x3b2e8287	0.0026628093
40	0x3bb3d351	0.0054878374
41	0xbb7ede1f	-0.0038889719
42	0x3b44e291	0.003004227
43	0x39b36d9a	0.000342232
44	0x3bed4410	0.0072407797
45	0xbb35f9d6	-0.0027767322
46	0x3b82fd65	0.003997492
47	0xbb017ff3	-0.0019760102
48	0xbbdcee01	-0.0067422395
49	0xb9c73f27	-0.0003800329
50	0xb9a4156d	-0.0003129648
51	0x3a5c7ccf	0.0008410932
52	0xbc0ee32f	-0.008721157
53	0x3a5e7d82	0.000848733
54	0xba27fa37	-0.00064078294
55	0x3a2567c8	0.0006309715
56	0x3ba8e36d	0.0051540644
57	0x3969bdfc	0.00022291386
58	0x3b70f5b3	0.0036767542
59	0x3a3f3334	0.00072937016
60	0x3bc6e234	0.006069446
61	0x3be222ed	0.006901136
62	0x3aaed90f	0.0013339835
63	0x3b2e55b8	0.0026601385
64	0x3c0c394a	0.008558581
65	0x3afabfe1	0.0019130671
66	0x3a896357	0.0010481876
67	0x3942a272	0.00018561797
68	0x3bbf310a	0.0058347033
69	0xbbfea9c2	-0.0077717016
70	0x39a4c2f2	0.00031425763
71	0x3b3e5cd6	0.0029047034
72	0x3b9a0b79	0.0047010747
73	0xbbc52add	-0.0060170726
74	0xbaceaa2b	-0.0015767267
75	0xba060185	-0.0005111921
76	0xb98f969e	-0.00027387304
77	0x3b910535	0.0044256696
78	0xbba643d7	-0.005074005
79	0x3b22d806	0.0024847998
80	0xbb86face	-0.0041192537
81	0xba8a2725	-0.001054023
82	0x3c55a576	0.013039937
83	0x3b539d3b	0.0032289762
84	0x3bfc3d42	0.007697732
85	0x3c386054	0.011253435
86	0x3af8b150	0.0018973742
87	0x3c0f480f	0.008745207
88	0x3bc7dac7	0.0060990783
89	0xb98b72d8	-0.0002659771
90	0xba2e8d9c	-0.00066586747
91	0x3bf30c0a	0.0074172067
92	0x3c9a32cf	0.018823056
93	0xbc1edac4	-0.0096957125
94	0x3ab6f9b1	0.0013959912
95	0x3b48a519	0.0030615984
96	0xbb9f694f	-0.0048648487
97	0x3b3e3966	0.0029025911
98	0x3b6c2507	0.0036032812
99	0xbb35d302	-0.0027744179
100	0x3c3dc855	0.011583407
101	0xbb5b0d06	-0.003342451
102	0xba11976a	-0.00055538735
103	0xbb16b13c	-0.0022993824
104	0x3b48579d	0.00305698
105	0xb9098a1d	-0.0001311679
106	0x3bcf0635	0.0063178786
107	0x3c103e80	0.008803964
108	0x3aadd0f9	0.0013261131
109	0x3c459156	0.012058577
110	0xbc0b924b	-0.008518766
111	0x3ac3dac0	0.0014942512
112	0xb9b9ffaf	-0.0003547645
113	0xbbf2b86a	-0.007407238
114	0xba052257	-0.00050786644
115	0x3b92dd20	0.0044819266
116	0x3b01b0fd	0.001978933
117	0x3bb017a7	0.0053739133
118	0xbb8686e0	-0.004105434
119	0x3c74af7e	0.014934419
120	0x3b763b84	0.0037572095
121	0xbbd09f56	-0.0063666506
122	0x3b1175e3	0.002219551
123	0xbb05bbe8	-0.002040619
124	0xbb407b06	-0.0029370203
125	0xb91627f5	-0.0001432
126	0x3bb62be4	0.0055594314
127	0x3bfb6932	0.0076724524
128	0xb8999d90	-7.324957e-05
129	0xbc1682e6	-0.009186482
130	0x39809662	0.00024526106
131	0xbb389875	-0.0028167043
132	0xbb081c71	-0.0020768906
133	0xbb0c6d2d	-0.0021427379
134	0xba1dd3bc	-0.00060206256
135	0xbb3fc406	-0.0029261126
136	0xba9b2b1b	-0.0011838408
137	0xba793ad7	-0.0009507364
138	0xbbda769d	-0.006666972
139	0xbb1e8e34	-0.0024193646
140	0x3b9ba2eb	0.004749646
141	0x3bf34698	0.007424187
142	0x3b7c9169	0.003853882
143	0x3bde7fe3	0.0067901476
144	0x3ad580e5	0.0016289024
145	0x39b2e0f7	0.00034118418
146	0x3c0ec04c	0.008712839
147	0xbb4934c2	-0.0030701612
148	0x3bfb3d08	0.0076671876
149	0x3bbeb2ac	0.005819639
150	0x3bdec84e	0.0067987805
151	0x3ca7992e	0.020458784
152	0xbade834d	-0.0016976387
153	0xbb1c50ee	-0.0023851949
154	0x3b844b61	0.004037306
155	0xb99a3d06	-0.00029418635
156	0xb8c84f5a	-9.5515235e-05
157	0x3b4138e6	0.0029483377
158	0xbbd70ae6	-0.0065625785
159	0x3bae3e96	0.0053175194
160	0x3b7db829	0.0038714504
161	0xbbb4391a	-0.005499971
162	0x3c2bd7cc	0.010488462
163	0xbb68ca85	-0.0035521102
164	0xbc26d302	-0.010182144
165	0x3abfcebf	0.0014633759
166	0xbb88ae09	-0.004171137
167	0x3c4437b8	0.011976175
168	0xbc0ddfc0	-0.008659303
169	0xbbc1f87d	-0.0059195147
170	0x3be8a933	0.0071002482
171	0x3a07c9b2	0.0005179896
172	0x39c17f59	0.0003690671
173	0x3b314271	0.0027047659
174	0x3c9db7a7	0.019252611
175	0x3bc92727	0.0061387005
176	0xbb7e41f4	-0.0038796635
177	0x3a128dd9	0.0005590595
178	0xbb7578d7	-0.003745606
179	0x3c3dd763	0.011586997
180	0x3cdef444	0.027216084
181	0xbb53d2d8	-0.0032321718
182	0xbb809887	-0.0039244327
183	0x3b99b05b	0.0046902127
184	0xbaec8009	-0.0018043529
185	0x3b56a3ec	0.0032751514
186	0x3c3237f6	0.0108776
187	0x3aa1246e	0.0012294182
188	0x3b71f01d	0.00369168
189	0x3c209678	0.0098015
190	0xb83b553e	-4.4663662e-05
191	0xbbff3076	-0.0077877594
192	0x3b752115	0.0037403752
193	0x3c272fd4	0.010204274
194	0xbbe9f753	-0.007140079
195	0x3a855a5c	0.0010174024
196	0xbaec8a24	-0.001804654
197	0xbacb1ca3	-0.0015496205
198	0x3bfd18ed	0.0077239187
199	0x39cc5f47	0.000389809
200	0xbbe20d05	-0.0068985247
201	0xbb678c58	-0.0035331454
202	0xbb5e7dcb	-0.003394949
203	0x3b80b31d	0.003927602
204	0x3bdabde1	0.0066754674
205	0x39ddd162	0.00042308407
206	0x3bac01c3	0.0052492335
207	0x3b9a8836	0.0047159446
208	0x3b0d916c	0.002160157
209	0x3bd25948	0.0064193346
210	0xbb2ececc	-0.0026673554
211	0x38f1bc89	0.00011526893
212	0x3b45e2ab	0.003019492
213	0xbba9ab7c	-0.0051779132
214	0x3a3a5de6	0.0007109329
215	0x3bc83655	0.0061099925
216	0xbbf3762d	-0.007429859
217	0x3b03fa4b	0.00201382
218	0xbb794851	-0.0038037489
219	0xbb87bedd	-0.0041426257
220	0x3b8ad4f6	0.0042368127
221	0x3b647381	0.0034858885
222	0xba87508d	-0.0010323689
223	0xbb51ebc0	-0.0032031387
224	0x3a73c01e	0.0009298342
225	0xbba668fd	-0.0050784335
226	0xbbdedb33	-0.006801033
227	0x3b8a9404	0.0042290706
228	0xbbb1e8b7	-0.005429353
229	0xbbba7b9d	-0.0056910054
230	0x3bc41d41	0.0059849326
231	0x3bd0bc91	0.006370135
232	0x3b73c2b5	0.0037194912
233	0x3c84b540	0.016199708
234	0x3ca189bb	0.019718995
235	0x3af1775c	0.0018422413
236	0xbb9f42ee	-0.0048602736
237	0x3b52d1aa	0.0032168427
238	0x3bc28cf9	0.0059372154
239	0x3a6abf7a	0.0008954924
240	0x3c14291d	0.009043005
241	0xba2c38ef	-0.0006569763
242	0x3acdc708	0.0015699575
243	0x3b3139b2	0.0027042446
244	0x3b09c8f7	0.0021024325
245	0xbbc6daa3	-0.006068544
246	0x3bdca5e2	0.006733642
247	0x3b08ee7f	0.0020894108
248	0x3c07f36a	0.0082977805
249	0xbbc81bb0	-0.006106816
250	0xbbc350ca	-0.0059605585
251	0xba0c10f2	-0.0005343101
252	0xbc42b475	-0.011883845
253	0xbb7aedcc	-0.003828871
254	0x3b606678	0.0034240764
255	0x3ad4152c	0.0016180626

neural_net.2.weight f4 [4, 256]
0	0xbe590b39	-0.21195687
1	0xbe0d3ab6	-0.13791928
2	0x3dfe23a6	0.12409143
3	0xbd827731	-0.0637039
4	0xbd9be7f9	-0.07612605
5	0xbe65a9ae	-0.22428009
6	0xbdfb8b63	-0.12282445
7	0xbe32a6aa	-0.1744639
8	0x3e7cbb95	0.24680932
9	0x3e083890	0.13302827
10	0x3da2b82c	0.07945284
11	0x3c6bd381	0.014393688
12	0x3cd103c1	0.025514485
13	0x3e0e8331	0.13917233
14	0x3dfaa428	0.122383416
15	0xbdca2171	-0.0986966
16	0xbdd9419d	-0.10608218
17	0x3e3565e1	0.17714645
18	0xbd485a11	-0.04891402
19	0xbc017166	-0.007900571
20	0x3dc1715e	0.09445451
21	0xbe0ab3ce	-0.13545153
22	0x3e59d075	0.21270926
23	0xbddec0f9	-0.1087665
24	0xbb0ddb58	-0.0021645632
25	0x3d98fb08	0.074697554
26	0x3e28dabd	0.16489692
27	0xbe37e776	-0.17959389
28	0xbe5c3438	-0.21504295
29	0xbe1cd976	-0.1531733
30	0xbd36f5f8	-0.044668168
31	0x3da508d8	0.080583274
32	0x3e053dad	0.13011809
33	0xbe3cbf6c	-0.18432397
34	0x3d2dea79	0.04245994
35	0x3e433ee7	0.19066964
36	0xbe6ca483	-0.23109631
37	0xbde951f5	-0.11392585
38	0x3e49f76a	0.19723287
39	0xbe49bbe7	-0.19700585
40	0xbe13af02	-0.14422229
41	0xbe169e12	-0.14708737
42	0x3c9c1a6b	0.019055566
43	0xbdcaaee4	-0.09896639
44	0xbd5c496b	-0.053780954
45	0xbdfe24f1	-0.1240939
46	0xbb2b6381	-0.0026151838
47	0x3d2887ca	0.041145124
48	0xbe1e3031	-0.15448071
49	0x3db3629f	0.08759045
50	0xb93c0927	-0.00017932487
51	0x3df6fa5c	0.12059471
52	0x3d5515af	0.052022632
53	0xbceb2cd5	-0.028707901
54	0xbe67cf39	-0.22637643
55	0xbd98a402	-0.07453157
56	0xbd615d4e	-0.055020623
57	0xbe44bfd7	-0.19213806
58	0x3d9e623c	0.077335805
59	0x3e29d150	0.16583753
60	0x3daed764	0.08537176
61	0xbe46966a	-0.19393316
62	0xbe27403c	-0.16333097
63	0xbdafde7d	-0.08587358
64	0xbe224cd3	-0.15849619
65	0xbe44c531	-0.19215848
66	0xbe904f6d	-0.28185597
67	0x3d1e75fe	0.038686745
68	0x3e1735ec	0.14766663
69	0xbe18eeb0	-0.14934802
70	0x3ddd03eb	0.10791763
71	0x3e31a387	0.17347537
72	0x3e25394b	0.16135137
73	0xbe1b653c	-0.15175337
74	0xbcfe6a9b	-0.031056693
75	0x3db241a2	0.08703925
76	0xbe6f1645	-0.23348339
77	0x3e11fa44	0.14255625
78	0xbe0d4383	-0.13795285
79	0xbcd95800	-0.02653122
80	0xbd8e1a2f	-0.06938588
81	0xbdc1bd1a	-0.094598964
82	0x3d965ca7	0.07341891
83	0xbb291396	-0.0025799028
84	0x3c5c9fc6	0.013465827
85	0xbe049457	-0.12947212
86	0xbe1781f1	-0.14795662
87	0x3e8ad3da	0.27114755
88	0x3dfa4251	0.1221968
89	0x3d51cda9	0.051221523
90	0xbdc59718	-0.096479595
91	0xbddb5e1e	-0.10711311
92	0x3e4262cb	0.18982999
93	0xbe0c6972	-0.13712099
94	0xbdcf239b	-0.10114213
95	0x3e44559d	0.19173284
96	0xbe4e35b8	-0.2013768
97	0xbd4d4675	-0.05011602
98	0x3e03015a	0.12793484
99	0x3db6afcd	0.0892025
100	0x3e2b02ee	0.16700336
101	0xbe4aa564	-0.19789654
102	0xbdf6b00c	-0.12045297
103	0xbe6599bd	-0.22421928
104	0x3d04ea15	0.0324498
105	0xbe4050f7	-0.18780886
106	0xbe5e1213	-0.21686582
107	0xbdd5bc99	-0.10436363
108	0x3e228b38	0.1587342
109	0xbd27d85d	-0.040977824
110	0x3d9e8d35	0.07741777
111	0x3ddd299d	0.10798953
112	0x3b99ac9a	0.004689765
113	0xbe3535c3	-0.1769629
114	0xbe08b3ce	-0.1334984
115	0x3e512bbd	0.20426841
116	0x3e027885	0.12741287
117	0x3e77f9fe	0.24216458
118	0x3e43ffbf	0.19140528
119	0x3d1c45c6	0.03815248
120	0xbdd9ad91	-0.10628808
121	0xbd8b3fbe	-0.06799267
122	0xbe569fd4	-0.20959407
123	0x3ae5e9f5	0.0017541038
124	0x3d8b80f4	0.06811705
125	0xbe28653c	-0.16444868
126	0xbe278f2e	-0.16363212
127	0x3dc0b254	0.094090134
128	0x3e4258b8	0.18979156
129	0xbd942e96	-0.07235448
130	0xbde6c6aa	-0.11268361
131	0x3e23700a	0.15960708
132	0xbe306cef	-0.17229055
133	0x3e04f803	0.12985234
134	0xbde6ff7a	-0.11279197
135	0x3cb40e77	0.021979554
136	0x3d2bd46f	0.04195064
137	0x3de76b35	0.11299745
138	0xbdf5c69a	-0.12000771
139	0x3da45dfa	0.08025737
140	0x3e34c802	0.17654422
141	0xbe2dd9ad	-0.16977568
142	0x3d7d73bb	0.061877947
143	0x3e1ef124	0.15521675
144	0x3c064c72	0.008196937
145	0xbe63390d	-0.22189732
146	0xbdefa8d0	-0.1170212
147	0x3b72ee99	0.0037068485
148	0x3dafc49c	0.08582422
149	0xbe1fb761	-0.15597297
150	0x3d30a742	0.04312826
151	0xbde72311	-0.11285985
152	0x3de711bd	0.1128268
153	0x3d500a52	0.050791092
154	0x3e071529	0.13191666
155	0x3c30cb66	0.0107906815
156	0x3e2a210c	0.16614169
157	0xbdf70e0f	-0.12063228
158	0x3df62582	0.12018873
159	0x3e030e11	0.12798335
160	0x3e73be65	0.23803098
161	0xbe2aa91d	-0.16666074
162	0xbe183165	-0.14862593
163	0xbe156f08	-0.14593136
164	0xbdffea9c	-0.1249592
165	0xbe1c35d1	-0.15254904
166	0x3e1fbda7	0.1559969
167	0x3dca55ce	0.09879647
168	0xbe5b3a83	-0.21409039
169	0xbcfd6460	-0.030931652
170	0xbd7b4dc7	-0.06135347
171	0xbe61d335	-0.22053225
172	0x3b8fa7b9	0.004384008
173	0x3e44bb69	0.19212116
174	0x3e087cef	0.13328908
175	0xbe247572	-0.16060427
176	0x3e020c82	0.12700084
177	0x3dd977c8	0.106185496
178	0xbdbaa676	-0.09113781
179	0xbe196bd9	-0.14982547
180	0x3e3d662a	0.18496004
181	0x3d7a0c19	0.061046693
182	0x3d96d838	0.07365459
183	0xbe3c8f21	-0.18413974
184	0x3db7d1f6	0.08975594
185	0x3d44d5a3	0.048055302
186	0x3c2ee2f1	0.010674224
187	0xbd389c4c	-0.04507093
188	0x3e59800f	0.21240257
189	0xbdfa9825	-0.122360505
190	0xbe3780e1	-0.17920257
191	0x3d0c24fc	0.03421496
192	0x3dc89889	0.09794719
193	0xbd4bec01	-0.049785618
194	0xbe1aa14b	-0.15100591
195	0x3dc37018	0.095428646
196	0xbe062a67	-0.13102113
197	0x3dbf511b	0.093416415
198	0x3d253f03	0.040343296
199	0xbe17919e	-0.14801642
200	0xbe2f0365	-0.17091139
201	0x3e19b47a	0.15010253
202	0xbe769844	-0.24081522
203	0x3e8c928a	0.2745555
204	0x3d856e74	0.06515208
205	0x3d80d0a8	0.06289798
206	0x3df697e7	0.12040692
207	0xbe22b086	-0.15887651
208	0xbe3e5fe7	-0.18591271
209	0xbcf9d808	-0.03049852
210	0xbe24e7a7	-0.16103993
211	0xbd8466b6	-0.06464903
212	0x3e6a791a	0.22897759
213	0xbe210a5b	-0.15726607
214	0xbcbcc054	-0.023040928
215	0x3e166dc8	0.14690316
216	0x3d8516f5	0.06498519
217	0xbde5bfc5	-0.11218218
218	0x3dce4de1	0.10073448
219	0x3dd5933f	0.104284756
220	0xbdf8b257	-0.121433906
221	0xbd91b8b3	-0.07115307
222	0x3d8ec6b1	0.06971491
223	0xbd56c020	-0.05242932
224	0x3bd5a138	0.006519463
225	0xbd91c1cb	-0.07117041
226	0x3dd74d86	0.10512833
227	0x3de17bf4	0.1100997
228	0xbd9d2fcf	-0.076751344
229	0x3d349a7a	0.044092633
230	0x3e2b1f47	0.1671115
231	0xbca9841b	-0.020692876
232	0x3d37580b	0.0447617
233	0x3dbd77c6	0.092513606
234	0xbea4670e	-0.32109874
235	0xbe21e9c2	-0.15811828
236	0x3e191821	0.1495061
237	0x3d712f58	0.05888304
238	0x3d7e6768	0.062110335
239	0xbdfd79cd	-0.12376747
240	0x3c1b1d97	0.009467504
241	0x3e049214	0.1294635
242	0x3c966b2e	0.018361654
243	0x3dba5019	0.09097309
244	0xbd3b99a8	-0.045800835
245	0xbe5b7b8f	-0.21433853
246	0x3e1ebb47	0.15501128
247	0x3df9981b	0.12187215
248	0x3e6292ff	0.22126387
249	0xbdeb845d	-0.11499856
250	0xbd69a7c7	-0.05704477
251	0xbe6b8ec3	-0.23003678
252	0xbd808717	-0.06275766
253	0xbe5ae39c	-0.21375889
254	0x3d9aac49	0.07552392
255	0x3e5d4eec	0.21612138

neural_net.2.bias f4 [4]
0	0x3bf4c663	0.0074699386
1	0x39412ef4	0.00018423406
2	0x3bbc8506	0.0057531623
3	0xbc60fd28	-0.013732232
