projects/minigrid_repro/data/oversight_levels/policy_281705.pt (torch, 373700 bytes, 6 tensors)

neural_net.1.1.layers.0.weight f4 [256, 100]
0	0xbdcbc7e6	-0.09950237
1	0x3c301134	0.010746289
2	0x3d350a3d	0.044199217
3	0x3de9cc8c	0.11415967
4	0x3d8ea8bf	0.069657795
5	0xbe20c3f8	-0.15699756
6	0xbe20c107	-0.15698634
7	0x3cb6badf	0.022305904
8	0x3d21a1a7	0.039460804
9	0x3e007016	0.12542757
10	0xbd5404be	-0.051762335
11	0x3de1f3f6	0.1103286
12	0xbd800d09	-0.06252486
13	0x3c94e729	0.018176632
14	0x3d757942	0.059930094
15	0xbd433cdf	-0.047665473
16	0xbe1801d7	-0.14844452
17	0x3def5156	0.116854355
18	0x3dc0cd7d	0.09414194
19	0x3d42d766	0.0475687
20	0xbdd73b3c	-0.10509345
21	0xbd342592	-0.043981142
22	0xbe1aecc7	-0.15129386
23	0xbe0fa03c	-0.14025968
24	0x3d2ced55	0.042218525
25	0x3ca5e7b5	0.020252088
26	0xbd1d03a2	-0.038333543
27	0x3cc428e2	0.023945276
28	0x3b923a6c	0.004462531
29	0xbdb399d6	-0.08769576
30	0xbd07800d	-0.033081103
31	0x3d61f1b6	0.055162154
32	0x3ce6c531	0.0281702
33	0xbd442e86	-0.04789593
34	0xbcd78d5b	-0.02631252
35	0x3d79abf5	0.060955007
36	0x3cdfbdee	0.027312245
37	0xbdc684f0	-0.096933246
38	0xbc651bd4	-0.0139836855
39	0xbba99c52	-0.0051761055
40	0xbd2ff5a3	-0.042958867
41	0x3c998286	0.018738996
42	0xbb68fd4f	-0.0035551374
43	0x3cda1d4a	0.026625294
44	0xbd060712	-0.032721587
45	0xbd7db8c7	-0.061943796
46	0xbd5991bf	-0.05311751
47	0x3c22d2ca	0.009937951
48	0xbd5e1c6a	-0.054226317
49	0x3cd8d367	0.026467992
50	0x3d3a6606	0.045507453
51	0x3cbd05a5	0.02307398
52	0xbcd06fc6	-0.025443923
53	0xbddf901f	-0.10916161
54	0xbdeedb12	-0.11662878
55	0xbd98e006	-0.07464604
56	0xbcbb959d	-0.02289849
57	0x3db370c7	0.08761745
58	0x3c6ac872	0.014330016
59	0xbd9b1dc3	-0.07574036
60	0xbd3b2c91	-0.0456968
61	0x3d8b4236	0.06799738
62	0xbcbf5d72	-0.023359988
63	0xbc8ac95a	-0.016941715
64	0xbda9d1b3	-0.0829195
65	0xbdba565f	-0.09098505
66	0x3cf45502	0.029825691
67	0x3d89ef35	0.06735078
68	0x3d9ad70b	0.075605474
69	0x3d13c038	0.036071986
70	0x3cdf61de	0.027268346
71	0xbe03f8d3	-0.12887888
72	0xbc9fb3af	-0.01949486
73	0xbd0edd63	-0.0348791
74	0xbd1234be	-0.03569483
75	0xbd2d9a1c	-0.0423833
76	0xbd125356	-0.035724007
77	0x3ca24830	0.019809812
78	0x3d940581	0.07227612
79	0x3d9d4e77	0.076809816
80	0x3d8b9902	0.06816293
81	0xbd63b857	-0.055595722
82	0xbda3e54e	-0.08002721
83	0xbd5375d5	-0.051626045
84	0x3dc99f39	0.098448224
85	0x3b894fd5	0.004190425
86	0x3d6e4f9b	0.058181386
87	0x3dbc3c5e	0.091912016
88	0x3d83b52c	0.0643104
89	0x3de4e1e4	0.11175898
90	0x3da1041d	0.07862113
91	0xbd9f3e92	-0.07775606
92	0xbd6186fe	-0.05506038
93	0xbd8d8fb1	-0.069121726
94	0x3dcfefdc	0.101531714
95	0x3d65731a	0.056017973
96	0x3dddbb28	0.10826713
97	0x3d34e3a5	0.04416241
98	0x3c309da5	0.010779773
99	0x3d26f708	0.04076293
100	0x3da18915	0.078874744
101	0x3d5aeba5	0.053447384
102	0x3d30ea3c	0.043192133
103	0xbda34037	-0.079712324
104	0xbdc75510	-0.09733021
105	0x3d0392c5	0.032122392
106	0x3d8d96b5	0.06913511
107	0xbdf771dd	-0.120822646
108	0xbc3b54c0	-0.01143378
109	0x3d2afb37	0.041743483
110	0x3e063f07	0.1310998
111	0x3e0500b5	0.12988551
112	0xbe27565e	-0.1634154
113	0xbc547dd6	-0.012969455
114	0x3d3b7f85	0.04577591
115	0x3e16269c	0.14663166
116	0x3e0c6aa0	0.13712549
117	0xbda62d20	-0.08114076
118	0xbb73e7ff	-0.0037217138
119	0x3d9e3781	0.0772543
120	0xbe1d7c33	-0.1537941
121	0xbd19f4bf	-0.037586924
122	0x3c9d3762	0.019191448
123	0xbd4f9772	-0.05068154
124	0xbd74c8f8	-0.05976197
125	0xbcce9894	-0.02521924
126	0x3d8444e5	0.06458453
127	0x3c4b0413	0.012391108
128	0x3d894d85	0.06704239
129	0x3d0f3399	0.034961317
130	0x3cf3b194	0.029747762
131	0xbd3bcf14	-0.045851782
132	0xbc1a70d0	-0.009426311
133	0xbd1984a4	-0.03748001
134	0xbdb2db00	-0.08733177
135	0xbd421053	-0.04737885
136	0x3bf7b5bc	0.007559506
137	0xbbb7a328	-0.0056041665
138	0x3d5ff4f7	0.054676976
139	0x3d19c088	0.037537128
140	0xbd1e1e36	-0.03860303
141	0xbcfb3a33	-0.0306674
142	0xbbc9f933	-0.00616374
143	0x3d177276	0.036974393
144	0x3db37e6d	0.08764348
145	0x3d97461a	0.07386418
146	0x3d01eecb	0.03172187
147	0x3d5707f8	0.052497834
148	0x3d4e3ce1	0.050351027
149	0x3cee24e3	0.029070323
150	0xbc6b25b6	-0.014352253
151	0xbccc5fb8	-0.024947986
152	0x3d92adf6	0.07162087
153	0xbc81d20b	-0.015847227
154	0xbc903704	-0.017604358
155	0xbc3a3f15	-0.011367579
156	0x3ce2ee8a	0.027701635
157	0x3d41c8cd	0.04731064
158	0xbd4be6dc	-0.04978071
159	0x3c6cc788	0.014451869
160	0xbd934934	-0.07191697
161	0x3c0caaa2	0.008585604
162	0x3e025010	0.12725854
163	0xbdbef6b9	-0.09324402
164	0x3c898860	0.016788661
165	0xbe4e3407	-0.20137034
166	0x3da44156	0.08020274
167	0x3df8e312	0.12152685
168	0xbde4f5c1	-0.11179686
169	0xbd2ff5b3	-0.042958926
170	0xbe5aed7d	-0.21379657
171	0xbd2408a7	-0.040047314
172	0xbcbbfdc2	-0.02294815
173	0x3c787892	0.015165465
174	0xbccb9a99	-0.024853991
175	0x3dbfa13c	0.09356925
176	0x3d98af18	0.074552715
177	0x3be815ec	0.0070826914
178	0xbdfef787	-0.12449556
179	0xbcbbf093	-0.022941863
180	0x3ccce1e4	0.025010057
181	0x3d3b3f54	0.04571469
182	0xbd6e937b	-0.058246117
183	0x3d8c7d0e	0.0685979
184	0x3d985ded	0.0743979
185	0x3d3d6e90	0.04624802
186	0x3c99f66d	0.018794263
187	0xbdc25a60	-0.09489894
188	0x3dc49e31	0.09600485
189	0x3d1bc670	0.03803104
190	0x3c8fdfd0	0.017562777
191	0xbd7eb2dd	-0.062182296
192	0xbdafff26	-0.085935876
193	0x3d91b85e	0.071152434
194	0xbd62eed8	-0.05540356
195	0xbcbc6a2b	-0.022999844
196	0x3d488386	0.048953556
197	0x3cdb9c2a	0.026807863
198	0x3c9235d7	0.017847938
199	0x3c856f0c	0.016288303
200	0x3e09ef03	0.13470082
201	0x3d973a98	0.07384223
202	0xbc7ee8db	-0.015558447
203	0x3ddda6bd	0.108228184
204	0xbd1a1d86	-0.037625812
205	0x3dc9a826	0.09846525
206	0x3c6e0f04	0.014529947
207	0x3cba289d	0.022724444
208	0x3d3254ff	0.04353809
209	0xbd6eed81	-0.05833197
210	0x3d3e9330	0.046527088
211	0x3d8e3920	0.069444895
212	0x3debfd7b	0.11522957
213	0xbc394f12	-0.011310356
214	0xbd77f580	-0.06053686
215	0x3d75d857	0.06002077
216	0x3aab4879	0.0013067863
217	0xbdb4087d	-0.087906815
218	0x3d529949	0.051415715
219	0xbd8476b6	-0.06467955
220	0xbcbc55e5	-0.022990176
221	0xbb58a8f3	-0.0033059686
222	0x3c006b7a	0.007838124
223	0xbda93d16	-0.08263604
224	0xbe34b916	-0.1764873
225	0xbd1f9834	-0.03896351
226	0x3d1bc3bb	0.03802846
227	0xbd80ba30	-0.062855124
228	0x3cf8ed01	0.03038645
229	0x3dd56eb8	0.104215086
230	0xbd8cad4f	-0.068689935
231	0xbd33c39e	-0.043887727
232	0x3c100d80	0.008792281
233	0xbcfa0dab	-0.030524096
234	0x3ccb6072	0.024826262
235	0x3d8c4dc4	0.0685077
236	0x3dc5aa54	0.09651628
237	0xbcd0dcb1	-0.025495859
238	0x3bf6010c	0.007507449
239	0xbdc800a2	-0.09765746
240	0x3caed6f4	0.021342732
241	0x3da86af6	0.08223526
242	0x3d31fead	0.04345577
243	0x3d5d040c	0.053958938
244	0x3db275a6	0.08713846
245	0x3cc6a765	0.024249742
246	0xbd99c781	-0.075087555
247	0x3b81d1f6	0.003961797
248	0x3db03d80	0.0860548
249	0x3d98cc7a	0.07460876
250	0xbe08f0b9	-0.13373078
251	0xbd7bc204	-0.061464325
252	0xbdb38e1c	-0.087673396
253	0xbd1de06e	-0.03854411
254	0x3cf283bd	0.029603833
255	0x3c71dd47	0.014762229

neural_net.1.1.layers.0.bias f4 [256]
0	0x3cd96d26	0.026541304
1	0xbb3d8ef2	-0.0028924313
2	0x3c44054c	0.0119641535
3	0xba8af617	-0.0010601905
4	0x3cad1c60	0.021131694
5	0x3d19e5f7	0.037572827
6	0x3b12be9d	0.0022391446
7	0x3bd3051e	0.006439819
8	0x3c45ab54	0.012064774
9	0x3cc9604f	0.024582056
10	0x3bea6812	0.0071535194
11	0x3be79f27	0.007068533
12	0x3ca72396	0.02040271
13	0xbc05ded9	-0.008170807
14	0xbc017450	-0.007901266
15	0x3c5831f7	0.013195506
16	0x3c085360	0.008320659
17	0x3d3e8e1b	0.04652224
18	0x3c72e9e1	0.014826269
19	0xbbd01912	-0.006350645
20	0x3ca94d31	0.02066669
21	0x3c0025f1	0.007821546
22	0x3c1a3cf0	0.009413943
23	0x3c1bf651	0.009519176
24	0xbc1a643f	-0.009423315
25	0xbb1191ab	-0.002221207
26	0xbc3aee9e	-0.01140943
27	0x3a2b0f86	0.00065254455
28	0xbb881f1a	-0.004154098
29	0x3c0aa38c	0.008461844
30	0x3bd73de1	0.006568656
31	0xbb884bb3	-0.0041594147
32	0xbc1bb1ee	-0.009502871
33	0x3c868fd1	0.016425999
34	0x3cd99f8a	0.026565332
35	0x3c55b0c8	0.013042636
36	0x3cdb2823	0.026752537
37	0x3c5f2e20	0.013621837
38	0x3c2de2f3	0.010613191
39	0x3d09486a	0.033516325
40	0xbb7f86da	-0.003899029
41	0x3d18c510	0.03729731
42	0x3c70dcb2	0.014701055
43	0xbc357a8d	-0.011076582
44	0x3cfbc241	0.030732276
45	0x3cfed761	0.03110856
46	0x3a7ebb0a	0.0009717202
47	0x3cd039b6	0.025418144
48	0x3cd658b4	0.026165344
49	0x3d07da32	0.03316707
50	0x3b7b6759	0.003836116
51	0x3c01c582	0.007920625
52	0xbb13739f	-0.0022499335
53	0x3af8cc51	0.001898179
54	0x3add1b2b	0.0016869059
55	0x3bf9dfbd	0.0076255486
56	0x3d09571f	0.03353035
57	0xba3d98fa	-0.0007232573
58	0x3cb09263	0.021554178
59	0x3c79f096	0.015255114
60	0x3cd68e32	0.02619085
61	0x3d070e96	0.032972895
62	0xbc2e3ce4	-0.010634635
63	0x3ccfc2dd	0.025361473
64	0xbab63e72	-0.0013904108
65	0x3c39ce94	0.011340756
66	0x3c366d0d	0.011134398
67	0x3d078221	0.033083085
68	0xbce15d3e	-0.027510282
69	0x3b5d2f53	0.0033750131
70	0x3c1fa0c2	0.0097429175
71	0x3cc1cd4e	0.023657467
72	0x3bdc3f09	0.0067213816
73	0x3b74cf97	0.0037355179
74	0xbc6f8378	-0.014618747
75	0xbba5f73f	-0.0050648744
76	0x3b8e924a	0.004350935
77	0x3bcf6475	0.006329114
78	0x3c9b9665	0.018992612
79	0x3c817b37	0.015805824
80	0xbbdb72f4	-0.006697053
81	0x3cdae6d7	0.026721401
82	0x3b1444f1	0.00226241
83	0xbc8edcbd	-0.01743924
84	0x3ca3c93f	0.019993423
85	0x3bba1373	0.005678588
86	0x3d019a3c	0.03164123
87	0xbb777df3	-0.003776428
88	0x3cf277a4	0.029598065
89	0x3c8c1477	0.017099602
90	0xbc14191b	-0.009039189
91	0x3c69216a	0.014229158
92	0x3d0cfa9b	0.034418683
93	0x3cae7bf1	0.021299334
94	0xbbada4f0	-0.005299203
95	0x3cdbe3ef	0.026842086
96	0xbb4dbc5a	-0.0031392784
97	0x3c2f4e98	0.010699891
98	0x3c37e8e9	0.011224964
99	0x3c8830ef	0.016624896
100	0x3b99bc0f	0.004691608
101	0x3c85f25c	0.016350918
102	0xba7d3bf7	-0.00096601195
103	0x3c240468	0.010010816
104	0x3c5072d0	0.012722686
105	0x3cfb379d	0.030666167
106	0x3d771bf0	0.060329378
107	0x3c5d7e70	0.013518915
108	0x3c77729b	0.015103008
109	0x3c165e12	0.009177702
110	0x3c6b7aa8	0.014372505
111	0x3ca87ba6	0.020566773
112	0x3c31dd8f	0.010856046
113	0x3cda4fb4	0.026649334
114	0x3cd0051c	0.025393061
115	0x3c9dff87	0.019286884
116	0x3c923c8a	0.017851133
117	0x3caacf84	0.020850904
118	0x3d09c54a	0.033635415
119	0x3bb36723	0.0054749413
120	0xbc514d7c	-0.012774821
121	0x3c584d43	0.013202014
122	0xbb0e8fa7	-0.0021753104
123	0x3c85491e	0.016270217
124	0x3d0222b2	0.03177137
125	0x3c84c475	0.01620696
126	0x3c9594c2	0.01825941
127	0xbbaa632b	-0.00519981
128	0x3bfaeefe	0.0076578846
129	0x3c223c2a	0.00990204
130	0x3cb3b41d	0.02193647
131	0x3c0c98ea	0.008581379
132	0x3c9a1192	0.018807206
133	0x3a3abdaa	0.0007123599
134	0xbbf1a285	-0.00737411
135	0x3c78d322	0.015187057
136	0x3d0ab0b9	0.033859942
137	0x3bc0fa17	0.005889188
138	0x39d80e59	0.0004120942
139	0x3abc7d5b	0.001438062
140	0x3c36ddce	0.011161281
141	0x3d040028	0.03222671
142	0x3c9d6277	0.01921199
143	0x3cc13c20	0.02358824
144	0x3c0945ae	0.008378429
145	0x3d3148aa	0.04328219
146	0x3c075f4d	0.008262468
147	0x3c28833c	0.010285195
148	0x3c594059	0.013259971
149	0xbb03f507	-0.0020135061
150	0x3b84b06c	0.0040493514
151	0x3cc0d91f	0.023541031
152	0xbcc157b6	-0.023601394
153	0xbc39ae0b	-0.011332999
154	0x3cef366a	0.029200751
155	0x3c254464	0.010087106
156	0x3d01ad4f	0.03165942
157	0x39b08815	0.00033670725
158	0x3c9e87d4	0.019351877
159	0x3beac57b	0.007164655
160	0x3c92d5a8	0.017924145
161	0xbc343609	-0.010999211
162	0x3c8e4e18	0.017371222
163	0xbc61ace5	-0.013774131
164	0x397ce53f	0.00024117994
165	0x3cd4d8b9	0.025982248
166	0x3d1c25b9	0.038121913
167	0x3c7f8566	0.0155957695
168	0x3c8f199e	0.01746827
169	0xbcab5f6c	-0.020919524
170	0x3c0ae252	0.0084768105
171	0x3d1e1a1a	0.03859911
172	0x3c994733	0.018710708
173	0x3cf85e09	0.030318277
174	0xba61f9a7	-0.000862027
175	0x3c649b05	0.013952975
176	0xbba1aa43	-0.004933627
177	0xbc28c1ad	-0.010300082
178	0x3bc23838	0.005927112
179	0x3a8720ae	0.0010309422
180	0x3a4e9279	0.00078801025
181	0x3c885a94	0.016644754
182	0xbb2e7e12	-0.0026625437
183	0x3c4d8396	0.01254358
184	0x3b9a655c	0.00471179
185	0xb884b848	-6.3285755e-05
186	0x3c3203ff	0.010865211
187	0x3cb67187	0.02227093
188	0xbc883d1e	-0.016630705
189	0xbbb2b0d7	-0.00545321
190	0x3bc2d19a	0.0059453966
191	0x3c76dd2f	0.015067383
192	0x3c91039d	0.017701918
193	0x3ca4151d	0.020029599
194	0x3cbd038b	0.023072978
195	0x3c5cf1e1	0.013485403
196	0x3d03482e	0.032051258
197	0x3c28806e	0.010284526
198	0x3cf4c5db	0.029879501
199	0x3ca84236	0.020539384
200	0x3c7b43d6	0.015335998
201	0x3b944629	0.0045249653
202	0x3c0d76f5	0.008634319
203	0x3cd14133	0.025543785
204	0x3c6fec89	0.014643797
205	0x3c954557	0.01822154
206	0x3c2d7d0a	0.010588894
207	0x3c1bb66c	0.009503942
208	0xba6b3cdf	-0.0008973609
209	0x3bc24163	0.005928205
210	0x3c75a614	0.014993209
211	0x3d0e0784	0.034675136
212	0x39c974a4	0.00038424612
213	0x39b147b8	0.00033813505
214	0x3c2bb24e	0.010479523
215	0xbc9d352e	-0.019190397
216	0x3cfb57e2	0.030681554
217	0x3c6b800f	0.014373793
218	0x3c228b5f	0.009920924
219	0x3c99bfda	0.01876824
220	0x3ca9e3c1	0.020738484
221	0x3cd27013	0.025688207
222	0x3d0dbcdf	0.03460395
223	0xbcd0bde3	-0.02548117
224	0x3ce10bb5	0.027471403
225	0x3c285edf	0.010276525
226	0x3c0a8675	0.008454909
227	0x3cc8ef7c	0.024528258
228	0x3c717adb	0.014738764
229	0x3c0c4f00	0.008563757
230	0x3c0553a7	0.00813762
231	0x3a85e9cf	0.0010216775
232	0x3c6b3478	0.014355771
233	0xbca845dc	-0.020541124
234	0x3c1973bd	0.009365973
235	0xbb0a0e4d	-0.0021065653
236	0x3a79c52d	0.00095279777
237	0x3c1b83cb	0.009491871
238	0x3cf898f8	0.030346379
239	0x3b292359	0.0025808422
240	0x3ce16af4	0.02751682
241	0x3cde34a5	0.027124712
242	0x3c9781d6	0.018494528
243	0xbc213990	-0.009840384
244	0x3d535046	0.051590227
245	0x3cd02f50	0.025413185
246	0xbbfff725	-0.0078114443
247	0x3c8fdf99	0.017562674
248	0x3cbf4f56	0.02335326
249	0x3cb11618	0.02161698
250	0xbc3c3716	-0.011487743
251	0x3c087fc1	0.00833124
252	0xbb789fe8	-0.0037937108
253	0x3be96388	0.0071224608
254	0x3bccc9e2	0.0062496522
255	0x3be61272	0.007021242

neural_net.1.1.layers.1.weight f4 [256, 256]
0	0xbcb14524	-0.021639414
1	0xbd43cbcb	-0.047801774
2	0xbc4c5150	-0.012470558
3	0x3bc59efd	0.006030916
4	0x3d617634	0.055044368
5	0x3d4faad5	0.050700027
6	0xbc7d6a77	-0.015467278
7	0xbc8a074c	-0.016849183
8	0xbdd05583	-0.1017256
9	0x3bc27513	0.0059343665
10	0x3d30b681	0.0431428
11	0x3daa6626	0.083202645
12	0x3d9b500a	0.075836256
13	0xbc66ae01	-0.014079572
14	0x3c65c5a4	0.014024172
15	0x3b4a3454	0.0030853944
16	0x3d09a9f5	0.03360935
17	0xbc77881a	-0.015108133
18	0xbd1bf23f	-0.03807282
19	0x3d2ff6a0	0.04295981
20	0x3d6ff9e4	0.058587924
21	0x3ccf568c	0.025309823
22	0x3db621d7	0.08893173
23	0x3ceb5a69	0.028729634
24	0x3dd32d15	0.10311333
25	0xbd5cf0b3	-0.053940486
26	0x3dcfc6c1	0.10145331
27	0x3d32641e	0.04355251
28	0x3d59b897	0.053154554
29	0x3d446135	0.047944266
30	0x3d81041b	0.06299611
31	0x3bbadf73	0.0057029068
32	0x3d926dc5	0.07149843
33	0xbc9922a3	-0.018693274
34	0x3c3e4cdc	0.011615004
35	0xbc34b834	-0.011030246
36	0x3cbbd712	0.022929702
37	0xbd119234	-0.03553982
38	0x3d44eed9	0.048079345
39	0xbd4af66b	-0.04955141
40	0x3b7b837a	0.0038377927
41	0x3d501ce4	0.050808802
42	0x3ce7b226	0.02828319
43	0xbc18382e	-0.009290738
44	0x3d5f308e	0.054489665
45	0x3c0a225f	0.008431046
46	0x3d5cea07	0.053934123
47	0xbd375d4e	-0.044766717
48	0x3c9b8aa4	0.018987007
49	0xbd6bf694	-0.057608202
50	0x3cc6f89b	0.024288466
51	0xbddfe249	-0.10931832
52	0x3c909aab	0.017651876
53	0x3d972b30	0.07381284
54	0x3ce2df95	0.027694503
55	0xbb4f98b6	-0.0031676716
56	0x3d28a30d	0.041171122
57	0xbd6140ae	-0.054993324
58	0x3d90e178	0.07074255
59	0xbc5048c6	-0.012712663
60	0xbc6f4e12	-0.014606016
61	0x3d4145fa	0.047185875
62	0x3dd4865d	0.1037719
63	0xbd445353	-0.047931027
64	0xbd00af09	-0.031416927
65	0xbcb8542b	-0.022501072
66	0xbd300cd0	-0.04298097
67	0xbb14617d	-0.0022641115
68	0xbdcbf165	-0.09958152
69	0x3c3f2e56	0.011668762
70	0x3d5a113a	0.053239085
71	0x3d273423	0.040821206
72	0x3dfb3f4f	0.122679345
73	0x3d659045	0.05604579
74	0x3e05b6ab	0.13057964
75	0xbd49ac9b	-0.049236875
76	0x3d82635e	0.06366609
77	0x3d4ccdcc	0.05000095
78	0xbcade1a8	-0.021225765
79	0xbd0ea668	-0.034826666
80	0xbc95a0e6	-0.018265199
81	0x3d543336	0.05180665
82	0x3ce3c775	0.02780507
83	0x3c468c2b	0.01211838
84	0x3d003cb6	0.0313079
85	0x3c8a423d	0.016877288
86	0xbcde95d3	-0.027171051
87	0x3cf133bc	0.029443614
88	0xbcc32bb7	-0.023824556
89	0xbd094401	-0.03351212
90	0x3ce90aef	0.028447596
91	0x3d96a4b7	0.073556356
92	0x3c9f2406	0.019426357
93	0xbd29f891	-0.041496817
94	0x3ae8f6fb	0.0017773801
95	0xbcd94ba8	-0.026525334
96	0xbb249859	-0.002511522
97	0x3ccf4ebd	0.0253061
98	0x3d8746aa	0.06605275
99	0xbcf8e971	-0.030384751
100	0x3cb352de	0.0218901
101	0x3ab2d55e	0.0013643911
102	0x3ce09ac3	0.027417546
103	0xbcdc60b3	-0.026901579
104	0xbd18f565	-0.0373434
105	0xbb6f8c63	-0.0036552183
106	0x3b2017de	0.0024428288
107	0x3ccba09f	0.024856864
108	0xbd7d9c8e	-0.06191688
109	0xbd03fd99	-0.03222427
110	0x3d550b12	0.05201251
111	0x3b0e01df	0.0021668596
112	0x3c1f32c4	0.009716693
113	0xbd595d21	-0.05306733
114	0x3d3062fe	0.043063156
115	0x3c559ff9	0.013038629
116	0x3cd1a219	0.02558999
117	0x3c558032	0.013031052
118	0xbc6bcccf	-0.014392092
119	0xbba9f4b4	-0.0051866416
120	0x3d36f875	0.04467054
121	0x3db5b42b	0.08872255
122	0x3d2e8398	0.042605966
123	0xbd97bd28	-0.074091256
124	0x3ccf6f8a	0.02532174
125	0xbb212e2e	-0.0024594176
126	0x3a87b90d	0.0010354832
127	0x3dd3f0c8	0.1034866
128	0xbba62c28	-0.005071182
129	0xbb458b38	-0.0030142795
130	0x3d454b5f	0.048167583
131	0x3d157dfc	0.0364971
132	0xbd97b710	-0.07407963
133	0x3cb1658e	0.02165487
134	0xbcbdd594	-0.023173131
135	0xbdb6835d	-0.08911774
136	0xbd217690	-0.03941971
137	0x3cc03eaa	0.02346738
138	0xbc75157b	-0.014958735
139	0xbdb5af8e	-0.08871375
140	0xbc97962a	-0.018504221
141	0xbe01d83c	-0.12680143
142	0xbdbc2179	-0.09186072
143	0x3c1b1204	0.0094647445
144	0x3cae9108	0.02130939
145	0xbddba8c5	-0.107255496
146	0x3dc68396	0.09693067
147	0x3b87e4d6	0.0041471524
148	0x3d084e25	0.03327765
149	0x3d54a46f	0.05191463
150	0x3da1a844	0.07893422
151	0xbcf579f4	-0.029965378
152	0x3d1013b4	0.03517504
153	0xbbf23d0a	-0.0073925303
154	0xbd9b5212	-0.07584013
155	0xbd4f7d56	-0.05065664
156	0xbd5e41bd	-0.05426191
157	0xbbc1b9b6	-0.005912031
158	0xbc274d00	-0.010211229
159	0x3d798149	0.06091431
160	0x3cc597ff	0.024120329
161	0xbc80e2c0	-0.015733123
162	0x3c2c508e	0.010517253
163	0xbcb5965e	-0.022166427
164	0xbe0bb191	-0.13641955
165	0xbc11d01f	-0.008899718
166	0x3df3ec24	0.119102746
167	0xbd08f3cb	-0.033435624
168	0xbca47f1f	-0.020080147
169	0x3d08afec	0.033370897
170	0xb81b3741	-3.700634e-05
171	0xbc6edc1f	-0.014578848
172	0xbd9e7099	-0.0773632
173	0xbd06ff00	-0.03295803
174	0x3c8c0cee	0.01709601
175	0xbc7c9a0a	-0.015417585
176	0x3c979475	0.018503407
177	0x38bef898	9.10621e-05
178	0xbdeced1d	-0.11568663
179	0xbd392051	-0.045196835
180	0xbdee9a03	-0.11650469
181	0xbd43df7a	-0.047820546
182	0xbd5509bc	-0.052011237
183	0xbc5cc77d	-0.013475296
184	0xbd33042f	-0.04370516
185	0xbdaf8ae7	-0.085714154
186	0xbd4527e9	-0.048133764
187	0xbc22b591	-0.009930984
188	0xbd2ce925	-0.04221453
189	0xbd752a03	-0.05985452
190	0x3d17f469	0.037098322
191	0xbdf54068	-0.11975175
192	0xbb40b340	-0.0029403716
193	0x3cd07732	0.025447462
194	0xbb519fff	-0.0031986234
195	0xbcb94839	-0.022617446
196	0xbcf65011	-0.030067476
197	0x3d86cd8f	0.06582176
198	0x3df90e6f	0.12160956
199	0xbe0c2e93	-0.13689642
200	0x3e0eeb74	0.13957006
201	0xbc45bf55	-0.012069543
202	0xbd8e26c9	-0.069409914
203	0x3d294578	0.041326016
204	0xbd1f8be0	-0.038951755
205	0x3d8915a7	0.06693583
206	0x3d24ee8d	0.040266562
207	0xbdb909f9	-0.09035105
208	0xbaeb360e	-0.0017945187
209	0xbd546c86	-0.05186131
210	0x3dc38eed	0.09548745
211	0xbdb25724	-0.08708027
212	0xbc81cef2	-0.01584575
213	0x3d6df0f9	0.058091138
214	0xbc03011e	-0.007995872
215	0x3cf95f4b	0.030440947
216	0x3d928599	0.07154388
217	0xbd975f2f	-0.07391202
218	0x3dc0840d	0.09400187
219	0x3be849e4	0.0070888866
220	0x3cc74f27	0.024329735
221	0xbde56e67	-0.11202698
222	0xbc371ac7	-0.011175818
223	0xbe088c5f	-0.13334797
224	0xbd88ef18	-0.066862285
225	0x3d10831b	0.035281282
226	0x3d0887b0	0.033332527
227	0x3c4e5731	0.01259403
228	0xbd2f4017	-0.04278573
229	0xbcada84d	-0.021198416
230	0x3d94ba33	0.07262077
231	0xbd596b34	-0.053080752
232	0x3c6ba566	0.014382696
233	0xbc77ad89	-0.015117058
234	0xbca8ef7e	-0.020622011
235	0xbd545bef	-0.051845487
236	0x3d98908c	0.07449445
237	0x3b387222	0.00281442
238	0x3cd7300e	0.026268031
239	0x3d088d8e	0.033338122
240	0x3cb0bd54	0.021574654
241	0xbd8b9814	-0.06816116
242	0x3da1c3c6	0.07898669
243	0x3ce84152	0.02835146
244	0x3b1b8396	0.0023729554
245	0xbd835d09	-0.064142294
246	0xbc455e74	-0.012046445
247	0xbd7c280e	-0.061561637
248	0x3d0175c4	0.03160645
249	0xbd34171b	-0.043967348
250	0xbd30a41b	-0.043125253
251	0xba252e9a	-0.00063011947
252	0x3c9d7789	0.019222038
253	0x3d406400	0.046970367
254	0x3ce7ed64	0.028311439
255	0xbd8e60ce	-0.06952058

neural_net.1.1.layers.1.bias f4 [256]
0	0x3bc28753	0.005936542
1	0xbbe11b18	-0.006869685
2	0x3afc233b	0.0019236574
3	0xbb755edc	-0.0037440574
4	0xbc02c64b	-0.007981847
5	0x3ab78486	0.0014001287
6	0x3ccb3b36	0.024808507
7	0x3992aec3	0.00027977498
8	0x39784b04	0.00023679069
9	0xbb04facb	-0.0020291086
10	0x3a126484	0.0005584436
11	0xbca79d8d	-0.020460868
12	0x3a8aa542	0.0010577815
13	0x3b8ec7e0	0.004357323
14	0x3b6d806e	0.003623988
15	0xbb65a3e5	-0.0035040316
16	0x3a0af3f5	0.00053006347
17	0xbc0f059a	-0.008729363
18	0x3b2e9da2	0.002664425
19	0xbbcdd04a	-0.0062809335
20	0xbbf62bb5	-0.0075125345
21	0xbc1769a7	-0.009241498
22	0xbb8669c1	-0.0041019623
23	0xbbd669a3	-0.0065433546
24	0x3c455b35	0.012045671
25	0xba2b4491	-0.00065333495
26	0xbba9c4e3	-0.0051809414
27	0x3b9a1634	0.004702354
28	0xbafe8c0e	-0.0019420402
29	0xbbba808b	-0.005691593
30	0x39fa8031	0.00047779226
31	0xbbebf198	-0.007200431
32	0xb99689c0	-0.0002871286
33	0xba7c0151	-0.0009613233
34	0xbb080ea1	-0.0020760673
35	0xbbf6f80f	-0.007536895
36	0x3b4de16d	0.0031414882
37	0xbbde164c	-0.0067775603
38	0xbbca26f3	-0.006169194
39	0xbc98e17a	-0.018662203
40	0xbb2439e4	-0.002505892
41	0x3b38bd1d	0.0028188892
42	0xba9b5e3a	-0.0011853643
43	0x3c2a78c7	0.010404772
44	0xbc4ede5a	-0.012626255
45	0x3ba3eb00	0.0050023794
46	0xbc25fde4	-0.010131333
47	0xbbb0eec2	-0.005399556
48	0xbbcce90f	-0.0062533687
49	0xbca4a669	-0.020098882
50	0x3ba6b1e3	0.0050871237
51	0x3a942640	0.0011302903
52	0xbb8420e6	-0.004032242
53	0xbb28b3e5	-0.002574199
54	0xbc1ad0e0	-0.009449214
55	0xb90717c2	-0.00012883454
56	0xba4d3686	-0.0007828254
57	0xbb078bbd	-0.0020682656
58	0xbca0568f	-0.019572524
59	0xbb82f73d	-0.0039967583
60	0xbb37cfd7	-0.0028047466
61	0x3b97550b	0.004618292
62	0x3bc1b7ee	0.0059118187
63	0xbbd8f820	-0.0066213757
64	0xbb29a964	-0.0025888318
65	0xbc2513bb	-0.010075505
66	0xbc50197a	-0.012701387
67	0xbbe274eb	-0.0069109104
68	0xbb4684c4	-0.0030291537
69	0xbb66652e	-0.0035155523
70	0xbb8e427c	-0.0043414216
71	0x3ba3d8b0	0.0050001964
72	0xbb58beec	-0.0033072783
73	0x3a892173	0.0010462239
74	0xbc6e8e66	-0.014560318
75	0xb92ab1a5	-0.00016278641
76	0x3b9259cd	0.0044662715
77	0xbb85e0d8	-0.0040856414
78	0x3bb86bfb	0.0056281066
79	0xbc8a4c6c	-0.016882144
80	0x3be81fb0	0.0070838556
81	0x3bd01fcb	0.0063514463
82	0x3b6c6360	0.0036069974
83	0x3b02c134	0.0019951584
84	0x396a723c	0.00022358535
85	0xbb350a60	-0.0027624592
86	0xb8f19d97	-0.00011521129
87	0x39813549	0.00024644498
88	0x3b9ad972	0.0047256285
89	0xbb4f9bd1	-0.0031678567
90	0xbbd7034a	-0.0065616714
91	0x3b0419a7	0.0020156892
92	0xbc75cc1a	-0.015002275
93	0xbb2d8eef	-0.00264829
94	0xbac7c7ce	-0.0015242042
95	0xba5185ba	-0.0007992644
96	0xbb9c6f57	-0.004774015
97	0x3bbdf182	0.0057966122
98	0xbb3d890b	-0.0028920795
99	0x3b65db91	0.0035073499
100	0xbb4735ec	-0.003039713
101	0x3c40759a	0.011746788
102	0xbb7454f5	-0.0037282084
103	0x3affb1f4	0.001950799
104	0xbad96468	-0.001658571
105	0xbcd9d49e	-0.026590642
106	0xbc6db59c	-0.014508631
107	0x3a9ad0e3	0.0011811521
108	0xbc4485f0	-0.011994824
109	0x3b9f3fff	0.004859924
110	0xbbb360eb	-0.0054742
111	0x3b848626	0.004044312
112	0xbb4a7220	-0.0030890778
113	0xbb86348f	-0.004095621
114	0xbc039272	-0.008030521
115	0xbb8a2a5a	-0.0042164745
116	0x3a015b0a	0.00049345254
117	0xbba27c09	-0.004958634
118	0x3c206117	0.009788773
119	0xbc29778d	-0.0103434445
120	0x3b1bb395	0.0023758162
121	0xbab629b2	-0.0013897924
122	0xbbb61a42	-0.0055573294
123	0xbc245f02	-0.010032417
124	0xbc3f9050	-0.011692122
125	0xbc3b9d1d	-0.011451033
126	0xbc03f7e4	-0.008054707
127	0xbb84d0ab	-0.0040531955
128	0xbb01b706	-0.0019792928
129	0x3b0e02a5	0.0021669057
130	0xbc1af68f	-0.009458198
131	0x3c5fd2ad	0.013661069
132	0xbb7d5a63	-0.003865861
133	0x3adff509	0.0017086576
134	0xbc7c33f0	-0.015393242
135	0xbb2f89dc	-0.0026785051
136	0xbbc5d6bf	-0.0060375626
137	0x3b6067e9	0.0034241623
138	0xbb6cebaa	-0.003615121
139	0x3a71d164	0.0009224622
140	0xbbbe7683	-0.0058124675
141	0xbc10719c	-0.008816149
142	0xbb3b8a84	-0.0028616497
143	0xbbe1c28f	-0.0068896483
144	0x3aa233d7	0.0012375069
145	0xbbb4e85a	-0.0055208625
146	0xbbcd39a9	-0.006262977
147	0x3be54577	0.0069968062
148	0x3c02e06a	0.007988075
149	0xbbb3e1a0	-0.005489543
150	0xba134900	-0.0005618483
151	0x3bb1a4b6	0.0054212464
152	0xbbb9e363	-0.0056728586
153	0xbb8df221	-0.0043318425
154	0xbc822b01	-0.015889646
155	0x3b519846	0.0031981631
156	0xbab24808	-0.0013601789
157	0x3b8fad2e	0.0043846583
158	0xbc07a6bf	-0.008279501
159	0xbba6508d	-0.0050755204
160	0x3c02ff7d	0.007995483
161	0xbbbfc245	-0.005852016
162	0xbbe3abd1	-0.0069479723
163	0xbc2ed019	-0.010669732
164	0xbb943764	-0.0045232046
165	0x3c239247	0.009983606
166	0xbbdd28e6	-0.0067492602
167	0x3b271c38	0.0025498997
168	0xbc82da1d	-0.015973145
169	0x3b607128	0.0034247134
170	0xbb9d5857	-0.0048017907
171	0x3bc4905f	0.0059986557
172	0xbb9a2b74	-0.004704887
173	0x3b56abf2	0.0032756296
174	0xbaeceb46	-0.0018075488
175	0xbbdd6212	-0.0067560757
176	0xb9d93a89	-0.00041433077
177	0xbaf8d8dd	-0.0018985529
178	0x3aa280f8	0.0012398055
179	0xbbb8c7a4	-0.0056390334
180	0xbaa17b04	-0.0012319987
181	0xbb090be7	-0.0020911635
182	0x3c2ac5df	0.010423153
183	0xbc2c06c2	-0.010499658
184	0xbab6ece4	-0.0013956097
185	0xbc1e8e14	-0.009677429
186	0x3a57c668	0.0008231164
187	0x3a3f7297	0.0007303147
188	0xbba1bd3f	-0.00493589
189	0x3bad602d	0.005291006
190	0xbc8f225d	-0.01747244
191	0x3ace77da	0.0015752271
192	0xbc2ff5f6	-0.010739794
193	0xbc26b663	-0.01017532
194	0xbc2edbe0	-0.0106725395
195	0xbbf26613	-0.007397422
196	0x3bdd70e3	0.006757842
197	0x3b46e60f	0.0030349528
198	0x3b881e76	0.004154022
199	0x3b321301	0.0027171972
200	0xbb2f38f2	-0.0026736823
201	0xbb216329	-0.0024625754
202	0xbafc989d	-0.0019271557
203	0xbbb3deda	-0.0054892125
204	0xbc0ba63d	-0.008523521
205	0xbc800b7b	-0.015630474
206	0xbbb4e285	-0.0055201673
207	0xbbc0a2f1	-0.005878799
208	0xbbf39371	-0.007433348
209	0x3b2fc240	0.0026818663
210	0x3c3b70a6	0.011440432
211	0xbc489ab0	-0.012243912
212	0xbc37bf06	-0.011214977
213	0xbb963369	-0.0045837653
214	0xbc0eaf81	-0.008708836
215	0xbc2985e5	-0.010346864
216	0x3be4bde8	0.0069806464
217	0xbbedb31e	-0.0072540184
218	0xbc438654	-0.011933882
219	0x3b9122ce	0.004429198
220	0xbc020a8b	-0.007937084
221	0x3bb8b2e2	0.005636559
222	0x3b1e172f	0.0024122705
223	0xbc2ac538	-0.010422997
224	0x3bc0249a	0.0058637382
225	0xbc389d8b	-0.01126803
226	0xbb47f400	-0.0030510426
227	0xbc80431b	-0.015656998
228	0xbb408747	-0.0029377507
229	0x3b1dd711	0.0024084488
230	0x3b11aed7	0.0022229457
231	0x3c09fa1b	0.008421446
232	0x3c25405b	0.010086144
233	0xbbc251f4	-0.0059301797
234	0xbc330888	-0.010927327
235	0x3c250433	0.010071802
236	0x3921c05e	0.00015425819
237	0xbbef67c0	-0.007306069
238	0xbc0da694	-0.008645672
239	0x3b391739	0.0028242602
240	0x3b1549ee	0.0022779661
241	0xbccbc0a3	-0.02487213
242	0xbc4e8b29	-0.012606421
243	0xbbdd3195	-0.0067502954
244	0xbbbe9ea6	-0.005817252
245	0x3ac2866d	0.0014841087
246	0xbb0c2c43	-0.0021388687
247	0x3b1750a2	0.0023088832
248	0x39bf5d5a	0.0003649991
249	0xbc631d11	-0.01386191
250	0x3b4020b7	0.0029316375
251	0xbba2dbc8	-0.0049700476
252	0xbbbdb739	-0.005789664
253	0x3ae36555	0.0017348925
254	0xbb439b10	-0.0029847063
255	0xbc5043fd	-0.012711522

neural_net.2.weight f4 [4, 256]
0	0x3dd91ed6	0.106015846
1	0xbde87877	-0.11351102
2	0x3da31b21	0.07964159
3	0xbde02607	-0.10944753
4	0xbe009c3c	-0.12559599
5	0x3e5e7882	0.21725658
6	0xbb14de28	-0.0022715423
7	0x3e085e9f	0.13317345
8	0x3d3466c6	0.044043325
9	0xbe4d91b8	-0.20075119
10	0x3d743dc2	0.05962921
11	0xbce875b2	-0.028376434
12	0xbe6d7338	-0.23188484
13	0x3e364fa2	0.17803815
14	0x3e8f4d3c	0.27988613
15	0x3e008403	0.12550358
16	0x3e5b5627	0.21419583
17	0x3c3b5e59	0.011436068
18	0xbe4ad321	-0.19807102
19	0x3d989295	0.07449833
20	0x3d8e51eb	0.06949218
21	0x3dfdd9ad	0.12395034
22	0xbe068929	-0.1313826
23	0x3cf2707d	0.029594654
24	0x3dc500c8	0.0961929
25	0xbe5fe6a7	-0.2186533
26	0x3d500bc0	0.050792456
27	0xbe94f99f	-0.29096696
28	0xbcb1b64c	-0.021693371
29	0x3dce0722	0.10059954
30	0x3dd01e9a	0.10162087
31	0x3d7a2aa9	0.06107584
32	0x3e0b1eed	0.13586016
33	0x3e1b21c6	0.15149602
34	0xbe1ab858	-0.15109384
35	0x3cad7622	0.021174494
36	0x3e628b21	0.22123386
37	0xbdce5d4e	-0.1007639
38	0xbd3f3753	-0.04668362
39	0xbdeaf7f5	-0.11473075
40	0xbe08e68c	-0.13369197
41	0x3e4d1b95	0.20030053
42	0x3e3b81e6	0.18311271
43	0x3d9b990d	0.075975515
44	0x3dcae9c0	0.099078655
45	0xbe9c0ab4	-0.30476916
46	0x3d543aa3	0.051813733
47	0xbdedde2d	-0.11614642
48	0xbd2ad3e3	-0.041705977
49	0xbd595b4e	-0.05306559
50	0x3e017772	0.12643221
51	0xbc3a73af	-0.01138012
52	0x3d2d12cf	0.042254265
53	0xbde27b05	-0.1105862
54	0xbe619f49	-0.22033419
55	0x3e19c663	0.15017085
56	0xbe4c45ea	-0.19948545
57	0x3db7be75	0.08971874
58	0xbc5efaff	-0.013609647
59	0xbe04f5b6	-0.12984356
60	0x3e0e0f69	0.13873066
61	0xbe243f92	-0.16039875
62	0xbe8f1135	-0.27942815
63	0xbe091be9	-0.13389553
64	0x3e212498	0.15736616
65	0xbd64a1e7	-0.055818465
66	0xbe33773b	-0.17525952
67	0xbde0f450	-0.10984099
68	0x3d3d37fe	0.046195976
69	0x3e4291e5	0.19000967
70	0x3e3a3c1f	0.18186997
71	0x3d8413e9	0.0644911
72	0xbdb0448a	-0.08606823
73	0xbe2db3d2	-0.16963127
74	0xbdbb8b9b	-0.09157487
75	0x3db32694	0.087475926
76	0x3dca5d25	0.09881047
77	0x3c8d9c70	0.01728651
78	0xbe550d5f	-0.20805882
79	0xbe3f064c	-0.18654746
80	0x3e17ccb7	0.14824186
81	0xbe7d180f	-0.24716209
82	0x3e4e58bc	0.20151037
83	0x3e4508a0	0.19241571
84	0x3d426f93	0.047469687
85	0xbdb2b1bb	-0.08725306
86	0x3e3dfdfd	0.1855392
87	0x39e9014a	0.00044442184
88	0xbd38b5ab	-0.045095127
89	0x3c8fac43	0.017538195
90	0xbe62626b	-0.22107856
91	0xbe4f9021	-0.20269825
92	0xbe083aa8	-0.13303626
93	0x3e716e67	0.23577271
94	0xbd58574b	-0.052817624
95	0x3c33344a	0.01093776
96	0x3b6f1255	0.0036479433
97	0x3e1351c1	0.14386655
98	0xbd88ea66	-0.06685333
99	0x3d864b82	0.06557371
100	0xbe396cff	-0.18107985
101	0x3dca3a55	0.09874407
102	0xbe3d4374	-0.18482763
103	0x3e1f543e	0.1555948
104	0x3dd5336f	0.10410201
105	0xbddc1fec	-0.10748276
106	0x3d12423b	0.035707694
107	0x3c8ef597	0.01745109
108	0x3db92f76	0.090422556
109	0x3df83dff	0.121212
110	0xbe0d38b5	-0.13791163
111	0xbe4bff06	-0.19921502
112	0xbde8fab6	-0.11375944
113	0x3de1c569	0.11023981
114	0xbdecb4cc	-0.11557922
115	0xbdacaaf9	-0.08431048
116	0xba0c0990	-0.0005342001
117	0x3d514821	0.051094178
118	0xbc8e309f	-0.017357169
119	0x3d93ef4a	0.07223375
120	0x3c212583	0.009835604
121	0xbbb49eeb	-0.0055121086
122	0xbe0827b4	-0.13296396
123	0xbdb65126	-0.089021966
124	0xbe02bb98	-0.12766874
125	0xbe2a1cc2	-0.16612533
126	0x3d8daf61	0.069182165
127	0xbdc64f93	-0.09683146
128	0x3e009fc6	0.12560949
129	0xbe13ef3b	-0.14446728
130	0xbe26567f	-0.16243933
131	0x3d37727f	0.044786926
132	0xbe5c1a74	-0.21494466
133	0x3d7b5548	0.061360627
134	0xbe6116d8	-0.2198137
135	0xbca35f5d	-0.019942934
136	0xbe017055	-0.12640508
137	0x3e4859bd	0.19565482
138	0x3e1a7af1	0.15085961
139	0xbe22cefd	-0.15899272
140	0xbe43c06c	-0.19116372
141	0x3dc92bb5	0.098227896
142	0x3dc69ded	0.09698091
143	0xbccc8f96	-0.02497081
144	0xbc1de4d4	-0.009637076
145	0x3e824505	0.25443283
146	0xbd5414b2	-0.05177755
147	0x3decca0b	0.11561974
148	0x3d848f8b	0.06472691
149	0x3d712c24	0.058879986
150	0x3d3b5562	0.045735724
151	0x3aad36d7	0.0013215196
152	0xbe69be57	-0.22826515
153	0xbe2c450a	-0.16823211
154	0xbe092c88	-0.13395894
155	0x3dcfc187	0.10144334
156	0x3e7352e5	0.2376209
157	0x3ca91c02	0.020643238
158	0x3e0abbf7	0.13548265
159	0x3dd508d7	0.10402077
160	0x3da804ce	0.082040414
161	0xbe2a960d	-0.16658802
162	0x3d296f16	0.041365705
163	0xbdbaa849	-0.09114129
164	0x3e1c47b6	0.1526173
165	0xbda69770	-0.08134353
166	0x3dfbd433	0.12296333
167	0xbe0fd429	-0.14045776
168	0xbe0b3016	-0.13592562
169	0xbe0d13d6	-0.13777098
170	0x3df3ff40	0.119139194
171	0x3d5ef82b	0.05443589
172	0xbdf5e43c	-0.12006423
173	0x3dfbbb20	0.12291551
174	0xbe1f7297	-0.15571056
175	0xbdfb6315	-0.12274758
176	0x3e0249b5	0.1272343
177	0x3e49c6b4	0.19704705
178	0xbdc05702	-0.093915954
179	0xbe558a19	-0.20853461
180	0x3def5c01	0.1168747
181	0xbdaaed56	-0.083460495
182	0x3d3153f7	0.043292966
183	0xbe27b18e	-0.16376325
184	0xbe324b7d	-0.17411609
185	0xbe5d50bf	-0.21612833
186	0x3db49fdc	0.08819553
187	0xbe138d7c	-0.14409441
188	0xbdb58882	-0.088639274
189	0xbde04343	-0.10950329
190	0xbc2f521e	-0.010700731
191	0x3dc3b134	0.09555283
192	0xbd6a7b6b	-0.057246607
193	0xbe1f4edb	-0.15557425
194	0xbdb9360a	-0.0904351
195	0xbd81f300	-0.06345177
196	0xbca74c0b	-0.020422002
197	0x3e76f6b4	0.24117547
198	0x3d829d6e	0.063776836
199	0xbe7af9d6	-0.24509367
200	0x3e427e7d	0.18993564
201	0xbd828d9a	-0.063746646
202	0xbe6b8244	-0.22998911
203	0xbe58b026	-0.21160945
204	0xbbbcc70e	-0.005761034
205	0xbe1942da	-0.14966908
206	0xbe88b47e	-0.26700205
207	0xbe75a8f8	-0.23990238
208	0xbd96cfdd	-0.073638655
209	0x3d2fd224	0.042925015
210	0x3d96645d	0.073433615
211	0x3de1152f	0.109903686
212	0xbc9304a8	-0.017946556
213	0xbe023f06	-0.12719354
214	0xbcb7167c	-0.022349589
215	0xbe26769e	-0.16256186
216	0x3dddf729	0.10838158
217	0xbe3498e2	-0.17636445
218	0x3d31ee1d	0.043439973
219	0xbd19ea79	-0.037577126
220	0x3c6e2428	0.0145349875
221	0xbc1d5e37	-0.009604982
222	0x3dad5db1	0.08465136
223	0xbdf55724	-0.119795114
224	0x3ddea374	0.1087102
225	0xbd785e41	-0.060636763
226	0x3e3ae5d7	0.1825174
227	0x3e403fcc	0.18774337
228	0xbe6d22f8	-0.23157871
229	0x3e0d3a3e	0.13791749
230	0x3d97bb20	0.07408738
231	0x3db9452b	0.09046396
232	0xbe9d1d00	-0.30686188
233	0xbdd291bd	-0.102817036
234	0xbe6d2870	-0.23159957
235	0x3e3d7356	0.18501028
236	0x3de9477a	0.11390586
237	0xbe5b5f1b	-0.21422999
238	0x3de655be	0.11246823
239	0x3e6d77cc	0.2319023
240	0xbcc72eff	-0.024314402
241	0xbe1fdf42	-0.1561251
242	0x39c309ed	0.00037200694
243	0x3dbf00bf	0.09326314
244	0x3ddbad3d	0.10726402
245	0x3e6c1f15	0.23058732
246	0x3dec18ae	0.11528145
247	0xbe100a2d	-0.14066382
248	0x3de89b28	0.11357719
249	0xbda70699	-0.08155555
250	0x3e4d2e9d	0.20037313
251	0xbe2b4ab3	-0.16727714
252	0xbd67131a	-0.0564147
253	0x3db20806	0.086929366
254	0x3e0b761d	0.13619275
255	0x3e245c0e	0.16050741

neural_net.2.bias f4 [4]
0	0x3bf556ad	0.007487139
1	0xbc1cf4da	-0.009579862
2	0xbb91e9c9	-0.004452918
3	0x3be432da	0.00696407
