projects/minigrid_repro/data/oversight_levels/policy_501020.pt (torch, 373700 bytes, 6 tensors)

neural_net.1.1.layers.0.weight f4 [256, 100]
00000000: 15b0 8f3d b244 a3bc fbb3 cd3d 3182 d3bd
00000010: a442 49bd 08d1 cf3d 3839 a93c 986b 2fbd
00000020: a03b 36bd 761f bb3d 8c68 fc3b 50b1 403d
00000030: c725 3abd daca 913d abae 4f3d 20b6 6cbd
00000040: 81cf 4cbc 33c7 d63b 0e23 913c 6e1d 753d
00000050: f86d 16bd b59e bc3c a040 8abd bac0 ad3c
00000060: 624a 263d e94d b4bd 4023 75bc c0a6 88bd
00000070: abcd d93a 032d 253c 276b 573d 9193 ff3c
00000080: 4098 3fbd 352f a3bc da2e 70bd 9f49 a73c
00000090: 7ba6 643d 9a70 bfba 610f c13d 47f1 69bc
000000a0: 4f96 2fbd 50a8 11bd 77db 023d 5644 813c
000000b0: 3496 b63d 8349 013c f726 a43c b173 a03d
000000c0: 0b99 643d 979b c93c 220a 3fbd 1f9e f4bd
000000d0: 13f1 0c3d 8971 4abd 7acb 5e3d c36b 78bd
000000e0: 09a6 a4bd 4074 163d 88d1 b1bc 5f76 c8bd
000000f0: 577c 54bd 142b dcbc d207 9dbb 6157 74bd
00000100: a6f3 7a3d ce7b 4a3d 5088 1cbd 9e5a 9fbd
00000110: 431a e83d cf68 ad3d 47ae 5d3c 2563 2e3d
00000120: afc9 b43d 1e60 8a3d cd0a de3d af3e c3bd
00000130: e8e5 6ebd bd16 633d 208e 84bd d7a3 d8bc
00000140: 2f30 813d 9f6e 563d 0f3f 4fbb 6590 1abd
00000150: dd7b 7cbd 2521 243d 0d05 18bc 8ed8 9dbb
00000160: 5e6c d93c 3c76 903d 3c4d 16bd 23e4 89bc
00000170: d7fc b73d da30 123d f08d 44bd 3ac6 543d
00000180: 6ae5 83bd ffa2 2bbd a8ef a8bd f9f7 29bd
00000190: 83a5 c7bd 5758 ffbd 2452 873b 7e63 a83d
000001a0: a4be 6a3c 03e3 ebbd 6ef8 bfbd ef38 bf3b
000001b0: 1490 883d e97c c43d b70a 9a3d a643 333d
000001c0: e830 25bd 420f 6fbc da2c 633d 21a6 b4bd
000001d0: 5572 f4bd 134a bbbd 7ef0 863d 035b 72bd
000001e0: 8429 ffbd 5a90 43bd b273 b03d 5c3a ef3d
000001f0: 5d00 80bd 430e 3e3d 5285 a83d 1850 bf3d
00000200: e7e8 9c3d cffe 82bd d149 c0bc 3509 c83d
00000210: b063 433d 96d2 11bd d421 b8bd f1d4 a43c
00000220: 236c 54bd 19fc 613d f733 653d e095 12bd
00000230: ef0d 503d 0318 e43c 8ae8 b7ba cbee 8c3c
00000240: fffb 1ebd b276 043d 610a a9bc 0a99 00bd
00000250: c4b8 233d 708b c4bb fe04 163d 3de9 b43d
00000260: d8d9 ca3d 4675 c23d e78a a5bd 31d6 953b
00000270: 924d 243d 75aa 8c3c 8a7f febc 5128 9dbc
00000280: 854c 4bbd c782 2f3d e5ce c03d a5c0 693c
00000290: 2d08 dfbd a720 97bd 8b8d e53b 8a63 b33c
000002a0: 6d40 463d da7e 84bd 8e3d 9b3c 01c6 823d
000002b0: 4152 85bc e716 85bc baa7 b5bd 6aa7 433d
000002c0: e2bb b1bd f6c1 a9bd 1545 673d 0099 703d
000002d0: d12e 863d 42d7 a33d 406f 16bd 045b 9b3d
000002e0: 88f4 66bd 2aac 253d 663e 4d3d a199 123d
000002f0: 8520 ca3d f0bd 8abc 856b e93c 533b 493c
00000300: e6b9 9d3d 15bb e43d ebcf 7ebc 1709 afbd
00000310: 4708 4f3d 2313 8dbc 821a 5bbd 50c5 723d
00000320: e8ae 803d 1379 7d3d ccbb 3c3c 3385 eabd
00000330: 6f23 70bd 2176 a63c 9ffb afba 23c3 7abd
00000340: ea8c 4f3d 01e2 39bd 1421 d63d 23e1 5c3d
00000350: 7a2e f93c 4d89 963c ad38 813c 8fd0 533d
00000360: ab60 adbc db05 e2bd 1671 a7bd 4a8f 44bd
00000370: cfea 673c 9825 cdbd a244 19be c01d bc3c
00000380: e1e6 043d 6787 76bd d7eb 9d3d aede e33c
00000390: 0641 843d 5836 d03c 992a 6fbd 8219 183d
000003a0: 1432 193d bb1e 143d b8c1 f2ba 56b4 86bd
000003b0: be33 ef3c 2b67 37bd e177 943d 19ed 733d
000003c0: 855e 2ebd d7bb bf3c 5541 73bd fda0 60bd
000003d0: deaf 893d 7756 a6bc 378c ac3d e0af 0c3d
000003e0: 5405 adbd e48b 1b3d 2230 2ebd 2037 9fbd
000003f0: 543e 483d f2c2 edbc b31f 1f3d ef82 323d
0.07016007 -0.019930217 0.10044094 -0.103275664 -0.04913582 0.101472914 0.020657167 -0.04282722
-0.044490457 0.0913686 0.0077028926 0.0470441 -0.045446184 0.07118769 0.050703686 -0.057790875
-0.012500645 0.006554508 0.01771691 0.05984252 -0.036725968 0.023024896 -0.067506075 0.021210063
0.04059828 -0.08803923 -0.014962018 -0.0667243 0.001661708 0.010081532 0.052592423 0.031198295
-0.046776056 -0.019919971 -0.05863843 0.020420847 0.05582283 -0.0014605701 0.094267614 -0.014278716
-0.042867955 -0.035560906 0.03194758 0.015779655 0.08915368 0.007891062 0.020038111 0.078345664
0.055810016 0.024610324 -0.046640523 -0.11944222 0.034409594 -0.04942468 0.05439327 -0.060649645
-0.08039481 0.03673196 -0.021706358 -0.097882025 -0.051876392 -0.02687601 -0.004792192 -0.059653644
0.061267518 0.049434476 -0.038215935 -0.07780956 0.11333134 0.08467256 0.0135303205 0.04257502
0.088275306 0.06756614 0.10841904 -0.0953344 -0.058324724 0.055441607 -0.06472421 -0.026445312
0.063080184 0.05235159 -0.003162328 -0.03773536 -0.061641563 0.04007067 -0.009278548 -0.004817075
0.026540931 0.070538014 -0.03669475 -0.016832417 0.08983772 0.03569112 -0.047986925 0.051946856
-0.06440242 -0.041903492 -0.08248836 -0.04149625 -0.09748366 -0.12468021 0.004129665 0.08222102
0.014327679 -0.115179084 -0.09373556 0.0058356444 0.06668106 0.09594137 0.07521575 0.043765686
-0.040329844 -0.01459104 0.055462696 -0.08820749 -0.119358696 -0.09144988 0.06588839 -0.059168827
-0.1245909 -0.047745086 0.08615817 0.11681053 -0.06250069 0.04640032 0.08228554 0.093414485
0.0766161 -0.06396257 -0.023472698 0.09767381 0.04770249 -0.03560122 -0.08990827 0.02012107
-0.05186094 0.05517206 0.05595776 -0.035787463 0.050794538 0.02784348 -0.0014031094 0.01720371
-0.03881454 0.03233976 -0.020634832 -0.03139595 0.039971128 -0.0059980676 0.036625855 0.08833549
0.09904832 0.094950244 -0.08083134 0.0045726527 0.04011304 0.017171124 -0.031066675 -0.019184263
-0.04963352 0.04284933 0.09414462 0.014267121 -0.10890231 -0.07379275 0.0070053986 0.02189805
0.048401285 -0.064695075 0.01895025 0.063854225 -0.016274573 -0.016246272 -0.08869882 0.04776708
-0.08678414 -0.08288948 0.056462366 0.058739662 0.06551898 0.080000415 -0.03672719 0.07585719
-0.056385547 0.04044739 0.050108336 0.035791043 0.09869484 -0.016936272 0.028493652 0.01228221
0.07701473 0.111684956 -0.015552501 -0.085466556 0.050545003 -0.01722104 -0.053492077 0.059270203
0.06283361 0.061883043 0.011519384 -0.11451187 -0.058627542 0.02032 -0.0013426429 -0.061221253
0.050671495 -0.04538155 0.10455528 0.053925645 0.03041767 0.018376017 0.015774095 0.05171257
-0.021164259 -0.11036273 -0.08175866 -0.047988214 0.014155104 -0.10016936 -0.14967588 0.022963405
0.032446746 -0.060187723 0.077109985 0.027816143 0.06457715 0.025416538 -0.058390234 0.0371337
0.037401274 0.03616212 -0.0018520867 -0.06577365 0.029199477 -0.044776123 0.072494276 0.059552286
-0.04257061 0.023404999 -0.059388477 -0.05484103 0.06722997 -0.020304902 0.08425181 0.034347415
-0.08448282 0.037975207 -0.04252637 -0.07774186 0.048887566 -0.029023621 0.03884859 0.0435819

neural_net.1.1.layers.0.bias f4 [256]
00000000: 5de3 b43c 6e0b 9b3c 2d01 e53c b328 7b3c
00000010: 4de7 ae3c 9644 b23c 390a 033c f977 36bb
00000020: a0bb 043d ba18 353c 8c90 c23c 7b2b 9e3c
00000030: bfd1 c53c 4019 ec3c a838 1c3c 46d1 0f3d
00000040: 8e41 6d3c e76f 553b c77f b03c dbb9 883c
00000050: b324 ddb9 1009 8d3c 63fe c23c e7fb dd3c
00000060: a2e9 a23c a1e0 bd3c cb7a ca3c cff0 c53c
00000070: e498 1d3d 8503 983c 4484 c23c 2f56 353c
00000080: bdd7 c4bb 911f 3d3c f300 ca3b 6a02 733c
00000090: 2d9f c93c 7718 903c 88fb 193c b0f7 ea3b
000000a0: ee68 f53c f4ca ae3c add4 d03c 2623 843c
000000b0: c14c b03c 2d11 533c 0d69 613c 70a6 27bb
000000c0: e80b 863c 6a1a c73c 7f1d cc3c 0d13 f3bb
000000d0: 8bca 923a b1d9 3a3c 7a2d a23b 37a0 943c
000000e0: 95da 993c 6e8f ae3c aea6 683c 921e 45bb
000000f0: 13fd c03c 1f71 103d 9c12 e33c b4a1 e13c
00000100: 4b65 883c 842d 973c ae13 f33a 6cf6 c03b
00000110: cd87 483c 6d56 d03c 3bd0 823c 4d80 8e3c
00000120: 0499 9d3c 5b16 633c 0284 5a3c 3f75 983c
00000130: 608c 243c cd13 643c 8573 99bb 2e6d 753b
00000140: 92be 773c b905 5a3c 33bf 823c d6dc 813c
00000150: 1ca6 e13c ce4d c23c 4b3d 3e3c 64ac 993c
00000160: e92c ae3c 32a1 763c 1c74 d23c 1389 e63c
00000170: 5cc7 9e3c d501 c23c 105b 973c e9ff 033d
00000180: a31a e33c be39 723c 967e b73c a218 ba3c
00000190: 3b43 c93c e73e 373c ca82 6b3c 3c7a 9b3c
000001a0: ef7e ad3c bde4 8d3c ab5e 803c bf9a ba3c
000001b0: ce71 673c 2fbf c93c 75da 933c dcb4 af3c
000001c0: bbe3 b93b 6c35 0439 4593 fd3c f30e 683c
000001d0: f4f5 b03c 6359 e33c 4e98 1e3c fe50 ae3c
000001e0: fff6 883c 2b73 a73c 7877 923c 0f9c 0d3b
000001f0: 36a7 6f3c 88fc 0d3c c095 513c 74f2 193d
00000200: ba9b 3b3c 41ab 3a3c 8ad4 a83c 1288 ae3c
00000210: 8c06 f53c 2e40 963c 2dbb 8f3c 0cc7 f73b
00000220: 2e4a 9a3c 3431 fd3c 1076 913c ed82 b03b
00000230: 30f0 c63c 75c3 843c 7bbd 683c 3743 803c
00000240: 8f0f a33c 80c6 0d3d 140e 403c 89ba 923c
00000250: 6c53 b23b 5511 823c 97f3 483c bf72 bfbb
00000260: 7067 ba3c 6c8c 2a3c 74ae ab3c 3fd8 063c
00000270: 136a e13c 6aad 753c e14e fc3c a9a7 df3c
00000280: 8588 b93c b16c b23c 53fa fa3b b017 013d
00000290: 71c8 ef3c 693f 9a3c 3bba bd3c 4242 673c
000002a0: 082b e43c 19c0 ef3c 7048 ba3c e425 ffba
000002b0: b2ad d83c bd9e 7d3c e573 d63c 81eb 023c
000002c0: 396a 433c fc49 aa3c 0798 823c e65e 823c
000002d0: 41ce d83c be37 ac3c 0925 e03c d2d6 f33b
000002e0: d9ef 303c b84c c53c b199 153c a4f1 913c
000002f0: c8ce 813c 7950 833c 4f5e 593c 0d80 9a3c
00000300: 9bde 933c 9079 ac3c 392a 523c 0fdc c03c
00000310: 800c 753c 8e3e ad3c 8bad a23c 5eba 213c
00000320: 5e89 8f3c 2d58 923c c97b 5b3c f036 853c
00000330: ee85 9a3c 7152 b83c c511 fd3c c7bf 803c
00000340: 087f a33c a5a2 da3c 7a97 d43b 9e7b 313c
00000350: fab9 b33c 669a 153c 4bb5 1a3d da21 ca3c
00000360: a857 9f3c d5ad 223c 25f9 7f3c 2957 b33c
00000370: 7068 223c 7a83 103d 890f 163d 0b1d 573c
00000380: 2e30 b33c 8be0 313c 978d b63c 8c42 0f3c
00000390: 4dea fb3c 367a cc3c 5c6c 533c 016e 993c
000003a0: 6c82 193d 1392 953b 07b2 b73c a575 00bb
000003b0: 06da ce3c 6008 e33c 73b2 813c 90be 543c
000003c0: f739 c03c 5720 be3b eb67 aa3c fd41 6e3c
000003d0: 2cd3 b43c 063d a53c 4c40 663c aecf c93c
000003e0: bff8 933c 96fa 143d 9b4b 963c 28ac 093c
000003f0: 4dc1 183d deb8 e83c 8d12 583c 386d 9d3c
0.022081072 0.018926349 0.027954662 0.015329528 0.021350527 0.02176122 0.007998043 -0.0027842505
0.032405496 0.011053259 0.023750566 0.019307842 0.024147866 0.028820634 0.009534992 0.035111688
0.0144809615 0.003256792 0.021545304 0.016690185 -0.00042179748 0.017216235 0.023802942 0.027097655
0.019886795 0.0231784 0.024716755 0.024162678 0.038475886 0.018556366 0.02374471 0.011067911
-0.0060071633 0.011543171 0.006164664 0.0148321185 0.024612034 0.01758979 0.009398349 0.00717064
0.029957261 0.02133701 0.025492037 0.016130041 0.021520974 0.012882513 0.013757956 -0.0025581382
0.0163631 0.024304587 0.024916409 -0.0074180425 0.0011199279 0.011404441 0.004949269 0.018142803
0.018780986 0.021308627 0.014199896 -0.0030078036 0.023558175 0.03526413 0.027718835 0.027542926
0.016649863 0.01845432 0.0018545294 0.005888751 0.012239409 0.025431836 0.015968433 0.017395163
0.019238003 0.01386031 0.013337137 0.018610595 0.010043234 0.0139207365 -0.0046829605 0.003744911
0.015121119 0.013307028 0.015960312 0.015852373 0.027545027 0.02371874 0.011611293 0.01875896
0.02126165 0.01505308 0.02569013 0.028141534 0.019382171 0.023682514 0.01847604 0.032226477
0.027722662 0.014784275 0.022399228 0.022716824 0.02456819 0.011184431 0.014374444 0.018979184
0.02117869 0.017320985 0.015670141 0.022778867 0.014126254 0.024627296 0.018048504 0.021448545
0.0056728995 0.00012608402 0.030954013 0.01416372 0.021601655 0.027752584 0.009679867 0.021278854
0.01671934 0.020440659 0.017879233 0.002160791 0.014627269 0.008666165 0.012792051 0.037584737
0.011450702 0.011393369 0.020609159 0.021305118 0.029910348 0.01834115 0.017545307 0.00756157
0.0188342 0.030907251 0.017756492 0.0053867013 0.024284452 0.016206482 0.014205332 0.01565705
0.01990488 0.034613132 0.0117221065 0.017911213 0.0054420736 0.015877405 0.012265108 -0.005842536
0.022754401 0.010409456 0.02095721 0.008230268 0.0275164 0.014994958 0.030799331 0.027301626
0.022648105 0.021780344 0.0076592355 0.03151673 0.029270383 0.018829064 0.02316009 0.014114918
0.02785255 0.029266404 0.022739619 -0.0019466248 0.026450012 0.015479741 0.02617831 0.007990719
0.011927181 0.020787232 0.015941633 0.015914392 0.026465537 0.021022674 0.02736141 0.00744138
0.010799372 0.024084434 0.009130881 0.017815419 0.015845671 0.016029583 0.013267114 0.018859887
0.018050482 0.02105406 0.0128274495 0.023542432 0.0149565935 0.021147992 0.019858142 0.009871094
0.017521556 0.017864311 0.013396212 0.016261548 0.01886269 0.022500249 0.030892262 0.015716447
0.019958034 0.026688883 0.006487784 0.010832695 0.021939266 0.00913105 0.03777055 0.024674345
0.019450977 0.00992914 0.0156233655 0.021892147 0.009912595 0.035281636 0.03663591 0.013129483
0.02187356 0.010856758 0.022284312 0.008743893 0.030751372 0.024960618 0.012904253 0.018729212
0.037477896 0.0045645325 0.022423757 -0.0019601372 0.025250446 0.027713954 0.015832162 0.012984887
0.02346514 0.005802195 0.020801505 0.0145421 0.02207335 0.0201707 0.0140534155 0.024635162
0.018062947 0.03637179 0.018346598 0.008402862 0.03729372 0.028408464 0.013188017 0.019217119

neural_net.1.1.layers.1.weight f4 [256, 256]
00000000: 5a27 af3c d77a bbbc b4f4 963d b2a4 983d
00000010: c5ba 0dbd a2d5 11bd 2f44 18bc 11e6 51bd
00000020: b475 163d aec4 f53c cd98 2b3d dceb a53b
00000030: 4bc2 babc d75d babc 5c54 31bd b2c8 3fbd
00000040: b7cf fc3c 1f7c cabc c45e bb3c f2dc 273d
00000050: 3115 273d cd69 2f3d abaf 343d c754 8dbd
00000060: f3c7 493d 7ff7 83bd b655 35bd 61e7 c53b
00000070: e48a 3a3d 3e0c 27bd 2c6f 373b daf1 913d
00000080: b5ac c93c 5372 2cba d0c9 03bd b3fe 0e3d
00000090: 4449 983d 3ca4 07bd 9065 333d 7596 b9bc
000000a0: 6d00 323c aa6b f6b9 2543 4f3d c76f 613c
000000b0: 79d6 16bd b5be cbbc a30f 4e3d 450d f03c
000000c0: 4021 42bc 9f6b fb3c 54aa f63c fb02 4dbd
000000d0: 4c8d 36bc e7e8 aebc f6df b1bc 3614 433d
000000e0: f23d 97bd a6af 6a3d 5c8d 653d 9604 d2bb
000000f0: 09a5 48bd a356 5dbd 6d1b 103d 7ef0 5b3c
00000100: 7839 dabc b7d8 21bc 4ae1 873d 68b0 513d
00000110: 13a5 e33a 5ad9 69bd 855e 95bc 7fdf 953d
00000120: 1017 aabc e82d 88bc cefa 0a3d 400a ca3c
00000130: 58f7 01bd c765 55bd 6a35 413d ad5f 923c
00000140: 712e ed3c 724f 103d 2065 80bb 3e2d 883b
00000150: 85ff 81bd a5ac b4bc 4207 80bd 2a4d 37bd
00000160: d7d6 c6bb 0a1b 81bd 725c ea39 122b 20bc
00000170: 929f 14bd dc08 193d 75af 8b3d e7eb c4bc
00000180: 00d0 63bd 567d 843d 7f73 f73c 0e21 0e3c
00000190: fa7b c8bc 8704 b1bb 13d0 c93b ee3f 743c
000001a0: 7c25 d0bc d871 f9bc 1906 fa3c 0307 73bc
000001b0: 9443 97bc 6339 ed3c 2bb8 54bc 7221 9e3d
000001c0: b88d ff3b 6316 153d 44ac fb3b ddfe a53a
000001d0: 9307 3f3d c306 8fbd 231b c13c 5ca2 853c
000001e0: 3727 103d 3707 8e3b d3c7 933d 5d90 1ebd
000001f0: 4cc9 2e3c b689 023d 3e9e 8ebd e114 21bd
00000200: 677c 3dbd bec4 afbc dc9a 723c 8349 90bb
00000210: 4b9d 8a3d e411 0a3d cfd3 7fbd 6f9f 76bc
00000220: b27e f53b 2a14 0dbd e594 c1bc ec7f f63c
00000230: e63a 213d 0627 6bbd ceca 533c f23a 973b
00000240: 3510 a43c 0920 b3bd f88f 2a3c be08 2d3c
00000250: badd 7f3d 9371 9dbc 4f33 883d be1b 08bb
00000260: bad7 aebd a4d8 dd3c 7a24 233d e285 123d
00000270: 0b78 c63a 7407 6f3c e190 6b3d 687c 1ebc
00000280: 92d8 8a3d 5f77 ee3b d631 c4bc c254 08bd
00000290: cef3 cfbc c2d2 553d 604a 4bbd c883 d33c
000002a0: 4c69 bc3c a129 d6bb c4c7 57bd 8b97 a03d
000002b0: a305 dabc 0684 833d 9ba9 093d ee50 8fbc
000002c0: fa78 17bd 0121 a93d f536 cb3c f683 5cbb
000002d0: c70d cf3c d93b 033d 32df 063d ffab 1cbd
000002e0: fc1c 86bd 9a4d cabc ee6b 303c 14d6 28bb
000002f0: ad1e 373d 2dd0 8b3b 40c6 d83c 895d 2abd
00000300: 901f 40bb 3c1e 5fbd ecdd 81b9 4fad e2bb
00000310: bc9c 6dbc 57a5 57bd e676 38bd eadf 063d
00000320: 7527 893d cefa 813c d23c a83d 3bac 953c
00000330: 104c 433d 92ea 873b 4bbe 0abd d78a e6ba
00000340: 6e77 fa3c 82d0 22bd 5f3a 163d 9cb4 e8bc
00000350: 9a50 aabb 0b80 b2bc 4dc8 843d 0f14 113c
00000360: e8aa 983d e51a 6a3c 5a5b 973c 2b30 1cbd
00000370: d647 80bd 2c9f 8f3d 92b3 8e3d f400 0a3b
00000380: a311 923b a778 a03c b527 d2bc 72ac 723a
00000390: 7c7d a1bd 9b9a a0b9 0f63 3f3d ff1b 25bd
000003a0: feeb 8cbd e60f 08bd 09c8 2b3a d409 d13c
000003b0: 319c 853d a45f 19bc 9c5f 33bd 8faa 323c
000003c0: f436 f63b 4b3d 88bc db4d 0cbb dcdf 983c
000003d0: de6c c6bc 7856 6fbc 83ad 1cbd 8748 813d
000003e0: d78f 89bd a354 103d d123 52bd 96f8 8a3d
000003f0: 0ccb a53c 3c44 c3bc 847c 923d 3c03 e13c
0.021381069 -0.022885723 0.07370892 0.07453288 -0.034601945 -0.035604127 -0.0092936 -0.0512448
0.036733344 0.03000101 0.04189377 0.005063517 -0.022797724 -0.022749824 -0.043293342 -0.046822257
0.030860765 -0.024717389 0.022872336 0.040982194 0.040791694 0.04282551 0.044112843 -0.069009356
0.049262952 -0.064436905 -0.044271193 0.0060395454 0.045542613 -0.04078316 0.0027989848 0.07126208
0.024618486 -0.0006578315 -0.032174885 0.03491087 0.07435849 -0.03311561 0.04379803 -0.022654751
0.010864359 -0.00047000992 0.050601143 0.01375956 -0.03682563 -0.02487121 0.05030788 0.029303202
-0.011848748 0.030690966 0.030110516 -0.05005167 -0.011142086 -0.02135129 -0.021713238 0.047626697
-0.07384862 0.057296418 0.056043014 -0.006409238 -0.048985515 -0.0540377 0.035182405 0.013424037
-0.026638731 -0.009878329 0.06634767 0.051193625 0.0017367922 -0.05709205 -0.018233547 0.07318019
-0.02076295 -0.016623452 0.033930592 0.02466309 -0.031730026 -0.052099016 0.04717008 0.017867887
0.028952809 0.035232015 -0.003918305 0.004155784 -0.063475646 -0.02205498 -0.06251384 -0.044751324
-0.0060680914 -0.063039854 0.00044700835 -0.009775894 -0.03628499 0.037361965 0.06820575 -0.024038268
-0.055618286 0.064692184 0.03020644 0.008674873 -0.02447318 -0.005402151 0.0061588376 0.01490782
-0.025408499 -0.030449793 0.030520486 -0.014833215 -0.018464841 0.028958028 -0.012983362 0.07721223
0.0077988766 0.036398303 0.007680448 0.0012664456 0.046638083 -0.069837116 0.02357251 0.01631277
0.03519365 0.004334356 0.07215848 -0.038711894 0.01066811 0.031869613 -0.06963776 -0.039326552
-0.046261217 -0.021456119 0.014807429 -0.0044032945 0.067682825 0.033708468 -0.062457856 -0.01505266
0.00749191 -0.034443058 -0.023630569 0.030090295 0.03936281 -0.057410263 0.01292677 0.004615181
0.02002726 -0.087463446 0.010410301 0.010561166 0.062467314 -0.019219195 0.06650411 -0.0020768489
-0.0853724 0.027080841 0.03982971 0.03577221 0.0015141977 0.014589179 0.057511214 -0.009673215
0.06779589 0.0072774137 -0.023949545 -0.033283956 -0.02538481 0.052202947 -0.049631476 0.025819674
0.022999428 -0.0065357243 -0.052680746 0.078414045 -0.026614016 0.06421666 0.033609014 -0.017494645
-0.036980607 0.08258248 0.024806479 -0.003364799 0.025275124 0.032039497 0.0329277 -0.038249966
-0.06548497 -0.024695206 0.01076792 -0.0025762366 0.04470699 0.00426676 0.02646172 -0.04159311
-0.0029315688 -0.054472193 -0.00024770142 -0.0069176327 -0.0145027 -0.052647915 -0.045035265 0.032928385
0.06696979 0.015866663 0.082147256 0.018270602 0.04767996 0.004147836 -0.033872884 -0.0017588985
0.030574527 -0.03974963 0.03667676 -0.028406434 -0.0051975967 -0.021789571 0.06483517 0.00885488
0.07454473 0.014288639 0.018476177 -0.038131874 -0.062637016 0.070127815 0.06967844 0.0021057697
0.004457669 0.019588782 -0.0256537 0.0009257264 -0.07885262 -0.00030632768 0.04672533 -0.040309902
-0.068809494 -0.033218287 0.000655294 0.025517382 0.06523932 -0.009361181 -0.043792352 0.010904922
0.007513875 -0.01663079 -0.002140871 0.018661432 -0.024221834 -0.014608018 -0.03825141 0.063126616
-0.067168884 0.035236966 -0.05130369 0.06785695 0.020238422 -0.023836248 0.07152656 0.027467363

neural_net.1.1.layers.1.bias f4 [256]
00000000: 909d 043c 772c 893c 5611 bc3b ec42 543c
00000010: af2c ee3b b5b5 7f3c 4b0e 9b3b b8cb 513c
00000020: 65e4 213c c2cb 523c d1bf 503c 828a 763c
00000030: 30ac 073c 3738 343c 14ab 3f3c fc53 a83b
00000040: 36bd 403c d772 cb3b 0d26 123c 4497 4b3c
00000050: 3292 6a3c 31c1 e63b d18d 7b3c c363 f43b
00000060: 8944 f33b b89e 293c 30e7 533c a11d 543c
00000070: 0ece 313c c306 e43b eabf 313c 44bf 853c
00000080: 4787 f03b e9a5 513c dfc3 513c f50c de3b
00000090: e0fe e83b 9f57 9e3b ae50 d93b 02d7 3f3c
000000a0: 20a1 333c 4f4a 3d3c 634f 053c d2d5 3a3c
000000b0: b7c3 0c3c 1d10 6e3c e375 093c 7868 6e3c
000000c0: 5f03 f23b a20a 2c3c 88e5 573c a8bf 5e3c
000000d0: 85e4 aa3b 4f5d e93b d055 1a3c faec 9c3b
000000e0: c2df 1c3c 13ce 493c 3a8b 013b df0e 923c
000000f0: 3d3f 1f3c 7704 813c 25b5 683c d6a5 5d3c
00000100: 4bd5 9c39 94c0 653c db20 0a3c 1bb9 1e3c
00000110: 4817 0c3c 186c 603b 287a 7d3c e339 443c
00000120: e337 663c 370e ef3b 6934 633c 0985 9b3a
00000130: 386b 703c f7c3 b53b 7225 dfbb 0605 0d3c
00000140: 6205 343c a9cc 2f3c 59c5 3d3c 9b15 6f3b
00000150: 5e7c 0e3c b0a5 6f3c 3810 203c a111 673c
00000160: 1300 4e3c b7ea 823c 8cd9 303c 7bc6 0a3c
00000170: aa00 723c a5ea 0d3c 871e 3c3c cacc 353c
00000180: 9cc3 363c 5bab 823c 06cc 513c 5e78 0f3c
00000190: c43a 7c3c 8c18 fa3b 1baf 783c bde1 503c
000001a0: f812 213c f678 db3b 3cf4 003c 259d 553c
000001b0: 7deb f93b 5a52 1b3c 4dab 44bb 9cee ee3b
000001c0: 50cc 893c 93ad 4b3c e322 a83b 6094 303c
000001d0: cbcf 653b d582 5e3c 8f4a 563c 5a4a df3b
000001e0: 4daf 183c edcf a2bb 4c1b 053c 1009 3f3c
000001f0: af1f 693b 6563 7d3c 7ba4 4e3c a8de c53b
00000200: 1618 253c de09 913c 1881 283c 5b70 153c
00000210: 44e3 763c 4507 443c 9001 8c3c a14a 503c
00000220: ea46 833b 5107 db3b 84e1 2f3c caca 013c
00000230: 428b fd3b 8a1e 213c 8270 903b c392 e53b
00000240: 4687 843c e8c2 2d3c 4a2d 533c 960d 063c
00000250: 34e7 a33b e561 253c e05f 6b3c 1022 503c
00000260: 2f6c 413c 479f 3d3c d6d6 473c 0acc 3d3c
00000270: 6156 543c ae8e c4ba ec0c 433c 0b20 053c
00000280: 4c2e de3b a012 103b 020c 283c 4b34 4e3c
00000290: 3ef8 263c d2d6 603c 096b a53b 7781 523c
000002a0: fee0 6e3c 82dd 213c a4d6 923b 589e 143c
000002b0: c9de 543c ee8d 4d3c d65e 993c 4393 683c
000002c0: e611 153c f381 cf3b 0e1b e13b 64f4 893c
000002d0: 5a58 923c 7217 a63c 0798 423c 42de a43b
000002e0: 7f9c 2d3c 7bfe 823c 2d25 d63b cae8 823c
000002f0: 0c46 f33b 846d fc3b e5ea 403c cbd6 643c
00000300: a4f4 303c debb db3b 0fff 0a3c 604c ed3b
00000310: 6d81 083c cec2 e03b ec2d 573c 00cd 453c
00000320: e80e 0c3c 6ddf 3a3c 97a5 2d3c dd2a 903c
00000330: 969c 6c3c bf06 873c a85a 9a3b 6035 603c
00000340: 360e 383c 00af 1d3c 7413 0d3c 8c8b 003c
00000350: 8249 773c 2c6b 083c 14b8 813c a1a6 403c
00000360: 63f9 3d3c 03c9 8d3c 44a7 92ba 5984 163c
00000370: f91d 343c 9ff7 f83b e44c 6c3c 093d 853c
00000380: 248b cbbb 8f4d 7b3c 192f 573c da48 723c
00000390: 5415 1f3c 2c3f 8c3c 59ce 723c 20d8 883c
000003a0: 4944 0f3c 4d2c 843c 6b39 133c 661f 223c
000003b0: f397 083c 455f 633c d176 a03a 8d53 e73b
000003c0: 8ef2 763c feb0 0a3c 3d23 773c 9541 663c
000003d0: 5c84 523c 5b3e 873b 8352 c9b9 d0ed d53b
000003e0: 39b9 6b3c 1d03 713c d755 2a3c ee56 883c
000003f0: 2f8d 5b3b efcf 03bb 775d 0a3c 26a6 583c
0.008094206 0.016744835 0.0057393713 0.012955409 0.0072685103 0.015607287 0.0047319285 0.012804918
0.009881114 0.012865962 0.012741045 0.015047671 0.008280799 0.010999731 0.011698503 0.005136965
0.011763861 0.0062087583 0.008920205 0.012426201 0.014317082 0.007042073 0.015353636 0.0074581816
0.0074239415 0.010352783 0.012933537 0.012946517 0.01085235 0.006958814 0.010848979 0.016326554
0.007340345 0.012795904 0.012803047 0.006776447 0.0071104616 0.0048322226 0.006631932 0.011708977
0.010963708 0.011553361 0.008136603 0.011403518 0.008591584 0.014530209 0.008389923 0.0145512745
0.007385656 0.010500582 0.013177283 0.013595499 0.00521523 0.007121719 0.009419873 0.004788992
0.009574832 0.012317198 0.0019766823 0.017829357 0.009719667 0.0157492 0.0142033445 0.013528308
0.00029913554 0.014022965 0.008430685 0.009687687 0.008550473 0.0034244116 0.015471019 0.011976692
0.01405141 0.0072953957 0.013867476 0.0011865209 0.014674 0.0055470425 -0.0068098838 0.008607155
0.0109876115 0.010729947 0.011582696 0.0036481384 0.008696644 0.014626905 0.009769492 0.014103324
0.01257326 0.015981061 0.010794055 0.008470173 0.014770666 0.008661901 0.011481888 0.011096189
0.011155035 0.01595085 0.012804991 0.008756725 0.01539487 0.0076323207 0.015178467 0.012749133
0.009831183 0.0066977693 0.00787073 0.013037954 0.0076269493 0.009480083 -0.003000933 0.007291628
0.016821057 0.01243152 0.005131112 0.010777563 0.0035066481 0.0135809975 0.0130793 0.0068142833
0.009319139 -0.0049686343 0.008124184 0.0116598755 0.0035571863 0.015465592 0.012612457 0.0060385056
0.010076543 0.0177049 0.010284685 0.009121026 0.015068833 0.011964624 0.017090589 0.012713105
0.0040062563 0.006684222 0.010734919 0.007921884 0.007737548 0.009833941 0.004407943 0.0070060208
0.016177785 0.010605551 0.012889216 0.00818195 0.005001927 0.010094141 0.01436612 0.012703434
0.011805578 0.011573619 0.012197217 0.011584291 0.012960047 -0.0014996135 0.011904936 0.008125315
0.0067804214 0.0021983758 0.010256769 0.01258571 0.0101910215 0.013723092 0.00504816 0.01284825
0.0145800095 0.009879472 0.0044811536 0.009070955 0.012992569 0.012546046 0.01872198 0.014195266
0.009098506 0.00633263 0.0068696802 0.016840167 0.017864395 0.020274851 0.011877066 0.005031378
0.010596394 0.015990486 0.0065351934 0.015980143 0.0074241217 0.007703485 0.011774753 0.013967226
0.010800514 0.006705745 0.008483662 0.0072417706 0.008331639 0.00685916 0.013133507 0.012072802
0.008548476 0.011405808 0.010598562 0.017598564 0.01444163 0.016482709 0.004710514 0.013684601
0.011233857 0.009624243 0.008610595 0.007845771 0.015093209 0.008326333 0.015834846 0.011758477
0.011595103 0.017307764 -0.0011188765 0.009186828 0.010993474 0.007597878 0.014422629 0.016264455
-0.006211655 0.015338316 0.013133788 0.014787877 0.009709675 0.017119966 0.014819705 0.016704619
0.008744308 0.016134406 0.0089858575 0.009895181 0.008337009 0.0138776945 0.0012242441 0.0070595206
0.015072478 0.00846505 0.015084085 0.014053722 0.01284894 0.0041273064 -0.00038399184 0.0065285936
0.014387422 0.014710215 0.010396442 0.016643014 0.00335009 -0.0020112952 0.008445135 0.013223207

neural_net.2.weight f4 [4, 256]
00000000: 8941 a1bd ca4c 313d e0a6 bd3d cd50 993d
00000010: 91af bdbd c5aa be3c 0209 153d 8c13 bb3d
00000020: 8e1b 2f3d 1969 533d dc9e 9b3d 1679 b3bd
00000030: c0e2 483d e3a5 c6bc d831 d1bd 74a2 973d
00000040: c5e0 b33d 50ed c4bc 8c0b c0bd bb44 bdbd
00000050: 2e36 183c 9cf7 0c37 edc6 e3bd cd96 e03d
00000060: 5573 66bd 01ff ebbd 2ddc aabd bd0f aa3d
00000070: cc93 c1bd 067a 69bd 6f63 cfbc 3946 9e3d
00000080: 253f b3bd dbdc 563d 0c63 ac3d 707c d23d
00000090: 91bb e23d 7bfb 433d 55ca a0bd 9003 e0bd
000000a0: 381b b3bd a18d de3b 73dc b03d de80 47bd
000000b0: 4ccb 48bd 8a33 a9bd 1ee2 9bbd 63e5 113d
000000c0: aac7 b4bd 5db1 cabd f61f 1abd d1f8 1c3d
000000d0: 9482 1f3d f827 bcbd ef77 e83b 1d90 ef3c
000000e0: 1ebe adbd da13 433d 539d 69bd 2379 a9bd
000000f0: dfe9 c9bd 702f 9fbd 38db 6bba f604 e5bd
00000100: d3db a63d 4826 83bd a1b7 d53d c61a f4bc
00000110: ba89 aabd 6fb8 4cbd 7ab5 693d 70b9 b63d
00000120: 4947 0e3d c5e3 55bd 1ef3 8b3d 5b20 a43c
00000130: 6865 593c 1674 5bbd ce79 133d 5b1d 2bbd
00000140: 2cf4 04bd 029c 6abd 190b be3c c92b 923d
00000150: 4d66 863b 137d a43d aecb cabd 9dd3 37bd
00000160: a768 bc3d 6738 bb3d 23e7 8d3d 4bc2 5ebd
00000170: d366 0bbd 335c 4fbc 62ec 0dbd 564a 6b3d
00000180: 9954 ab3d b177 edbb 18f2 793d 3146 8b3d
00000190: fdbf c2bd 51c6 813d de81 bfbc 0ce7 8b3d
000001a0: 3e02 90bd a3ff bfbd a077 abbd 6944 103d
000001b0: bb8e 4bbd e16f bdbd 1568 663c 9d49 8d3d
000001c0: 6ca4 dc3b 7160 a9bd 4441 62bd 90a6 1a3b
000001d0: a322 dabd 3e01 61bd c47c 37bb 16c2 bc3d
000001e0: c170 723d b8fd a23c b70a 44bd 2d18 d13d
000001f0: 7d38 43bd 74fc 413c bd21 94bb cf4a 383d
00000200: fb1e 88bc 482d 103d 82ab 923d 145a c2bd
00000210: 922e d0bd 0d3d 06bc c544 20bd 165e bb3d
00000220: 5e41 ad3d 6e80 133d 8204 673d 2d58 d83d
00000230: df20 cf3d 32a1 d3bd b7ed d93d 5f74 32bd
00000240: bc1e cfbd ecb7 5d3d dc82 bcbd 88ce 03bd
00000250: 619b 133c 1f7d 9a3c 8f0e bfbc ef3c 4a3d
00000260: 5580 d1bd 203a ca3d be77 0cbc 5beb ac3c
00000270: c595 f53c 9893 413d 6b50 b73d b96b b3bc
00000280: 819c 2a3c 660e bdbd 90a1 ac3d 3ea4 c4bd
00000290: 2ebb b8bd b4f5 afbd 7493 113d 96e3 01bc
000002a0: ae42 0abd 9398 88bd 754d 26bd 6dc8 afbd
000002b0: ace1 b73d ef08 a73b 4b13 78bd 5389 ccbd
000002c0: 7c34 523d 052c a53d 32ce 533d 8dfe 193d
000002d0: 69e0 b9bd 818c 833d 0781 543d 898b df3d
000002e0: c658 433d 6632 82bd 157f 7bbd edcb 313d
000002f0: 95d8 d23c 947c b33d 532a 10bc f080 71bd
00000300: ae1f 763c 3c27 84bd d2c1 91bd fedc 8bbc
00000310: 0421 cbbb 644a 3d3c 255b a03d 0b9c 703d
00000320: e191 82bd 298d e53d 1b36 a73d 4943 b53d
00000330: 21da 4abd 72e9 093d 0e88 e0bc a89e 7d3d
00000340: 3341 73bd 0b5d c93d cea8 3bbc 618f 3fbc
00000350: d367 1c3d 0c95 0b3d 1766 bc3d fdf6 cc3d
00000360: 7770 19bd 3c03 92bd 34aa 55bd 609d ca3d
00000370: 5b48 65bd 47e9 a5bd 79d3 76bd bfd5 a93d
00000380: e890 093d ec22 d73d 686d df3d 941e e0bc
00000390: 978c 0f3d b8b8 993c 35c8 64bc 9e48 693d
000003a0: f8bd 15bd e658 b93d 4ecd 6a3d e4d4 c9bd
000003b0: 77d3 3c3d 4bff da3d 1d91 6e3d 30c2 4fbd
000003c0: 0f18 85bd 43ab 33bd 2309 833d fc97 70bd
000003d0: 8356 dd3d 09b0 0bbd 8513 143c 6ad4 a1bd
000003e0: cb5f 54bd 3ab2 8fbd 4a61 673d 1e7f c23d
000003f0: 6de2 cbbd dd08 d03b 9b1e fb3c 8810 4d3d
-0.07873828 0.043286122 0.092603445 0.07486115 -0.09262002 0.023274789 0.036385544 0.09134588
0.042750888 0.0516139 0.075986594 -0.0876333 0.04904437 -0.024249023 -0.10214585 0.07404032
0.08783106 -0.02403894 -0.093772024 -0.09241625 0.009290261 8.402301e-06 -0.111219265 0.10966263
-0.056262333 -0.115232475 -0.083427764 0.08303783 -0.09452018 -0.057001136 -0.025315968 0.07728238
-0.08752278 0.052456718 0.08417329 0.10277641 0.11070932 0.047847252 -0.07851092 -0.109381795
-0.08745426 0.006791786 0.08635797 -0.04870688 -0.049022004 -0.082617834 -0.07611488 0.03561915
-0.088271454 -0.098971106 -0.037628137 0.038323227 0.03894289 -0.09187311 0.0070943753 0.029243523
-0.084835276 0.047626354 -0.0570348 -0.08275058 -0.098590605 -0.0777272 -0.0008997205 -0.11182587
0.08147397 -0.06403786 0.10435415 -0.029797923 -0.083270505 -0.049980577 0.057057835 0.08922088
0.03473595 -0.05221917 0.0683348 0.02003496 0.013268806 -0.053577505 0.036004834 -0.041776042
-0.032459423 -0.057277687 0.023198651 0.071372576 0.0041015507 0.080316685 -0.0990213 -0.044879545
0.09199648 0.09141617 0.069288515 -0.05438451 -0.034033608 -0.012656259 -0.03464926 0.05744394
0.08365745 -0.0072469343 0.061021894 0.06800497 -0.09509275 0.06336654 -0.023377355 0.06831178
-0.07031678 -0.09374931 -0.08372426 0.03522149 -0.049696665 -0.09249855 0.014062901 0.06898806
0.006733468 -0.08270348 -0.055238023 0.0023597814 -0.10651138 -0.054932825 -0.002799795 0.092167065
0.05918956 0.019896373 -0.04786178 0.10209689 -0.047661293 0.011839975 -0.0045206235 0.044993218
-0.016616335 0.035199434 0.07161619 -0.09489837 -0.101651326 -0.008193267 -0.039128084 0.09148805
0.084597334 0.036011152 0.056400783 0.10563693 0.101136915 -0.1033348 0.10641044 -0.04356801
-0.10113284 0.05413048 -0.09204647 -0.032179385 0.009009213 0.01885849 -0.023322372 0.049374517
-0.102295555 0.09874368 -0.008573471 0.02110832 0.029978642 0.047259897 0.089508854 -0.021901952
0.01041329 -0.09231262 0.08429253 -0.09601639 -0.09020077 -0.08591786 0.035541013 -0.007927796
-0.033754997 -0.06669726 -0.040601213 -0.0858315 0.0897859 0.0050975005 -0.060565274 -0.0998713
0.051319584 0.08065037 0.051710315 0.037596274 -0.09076006 0.06423283 0.051880863 0.10915286
0.047692083 -0.06357269 -0.06140049 0.04340737 0.02573804 0.08763996 -0.008799153 -0.058960855
0.015022201 -0.06452796 -0.071170464 -0.01707315 -0.006199004 0.011553381 0.078298844 0.058742564
-0.063754804 0.11208565 0.08164617 0.08850724 -0.04952443 0.033669896 -0.027408626 0.061918885
-0.05938835 0.098322 -0.01145382 -0.011691899 0.038184952 0.03407769 0.091991596 0.10008047
-0.03746077 -0.07129523 -0.05216427 0.09893298 -0.055977207 -0.08101135 -0.06026027 0.08292722
0.03358546 0.10504708 0.109095395 -0.02735833 0.035046186 0.018764839 -0.013963749 0.05695402
-0.03655812 0.09050159 0.0573247 -0.09855059 0.046100106 0.106932245 0.05824386 -0.0507223
-0.064987294 -0.0438645 0.06398227 -0.058738694 0.108075164 -0.034103427 0.009037857 -0.07901843
-0.051849168 -0.07016416 0.056489266 0.09496902 -0.09955297 0.006348713 0.030654242 0.050064594

neural_net.2.bias f4 [4]
00000000: 8c45 0ebb 531f 62b9 0b11 823a 228a a43a
-0.0021708934 -0.00021564709 0.0009923292 0.0012553374
